Computational Intelligence/aeh330_5/resultsclassifier_cnn_2.model (torch, 132183 bytes, 6 tensors)

weight f4 [32, 1, 3, 3]
00000000: 1d21 8fbe b635 8ebe c529 7d3e af00 50be
00000010: a985 8c3d 520f 873d 558d 58bd b05c 3dbe
00000020: ff30 643e 0705 8cbe 481e 68be 4fd9 adbe
00000030: 596e b13d 9737 743e bca1 debd 8ab7 0c3e
00000040: a785 8d3e c3f0 253e c2ef a8bc d403 53be
00000050: d4ce 85be 336f aebe 347b 8ebe a582 873e
00000060: 2bc4 863e 73a1 8d3e 99e2 743e 2e4d 453e
00000070: 648a 56bd 0101 88be a197 b63e c2c3 a53c
00000080: 2d4b 833e 199a aebd a39b a33d 852d a2be
00000090: 1ae3 483d b94d dfbb 119b 86be 0ac2 3a3d
000000a0: 4ae9 b33e 8264 96bd 203d 8f3d cdaa cd3d
000000b0: 4e95 1abe 7419 2dbe 22cb 52be 6511 17be
000000c0: 268c 6cbe 2bb4 17be a0f6 86be ba63 2f3d
000000d0: c792 753e 5ee7 323e 032f a13e ed83 84be
000000e0: d970 743e eb72 663c 16b9 12be 43f7 8fbe
000000f0: ba47 7e3e d68d 5c3e 946c 92be a564 77be
00000100: 8729 30be d74d 983e a05d 5e3e c132 3cbe
00000110: 5fab 7b3c 03c3 1ebe 139f 693e 43b3 e2bc
00000120: 13ca a03d f251 973e 968a 433e ef32 9f3d
00000130: 0dd3 90be 6845 883d c3d5 2abe c30a 34be
00000140: 3004 bcbd da2d b4bd 6d56 a93c c3a8 8e3d
00000150: 7242 263e ddd2 113e 74d3 0f3d 104c a8bc
00000160: a6eb b4be 51af 29be 9309 6ebd 5e1d 9e3e
00000170: 3fb9 ee3b e43c ab3d cca9 12bc f257 d1be
00000180: 569b 20be 91dd 9fbe 75b7 16be 229f 40bd
00000190: 3f89 92be 264d 8abd 98de ee3d 0233 a4bd
000001a0: 9550 e23d 45a7 603e b18e a03d b4d8 0a3c
000001b0: 8fee 673d c1fb 5fbe ec09 903d f855 c63d
000001c0: 0f73 a33e 4709 ac3c 0359 75be ccae b9be
000001d0: 2bf1 02bd 8227 3fbe 7003 a93e eb5a 5bbe
000001e0: 0879 c0bd ed3d 3d3e c9ae aabd 3e37 7f3e
000001f0: 4c57 f6bc 333a 9ebe 5811 e43d 32c4 a7be
00000200: a720 e0bc 3df7 99bd d197 303e 4d45 643e
00000210: 0883 2cbe ba00 e13d 024f 7bbe f43c 143e
00000220: 7fc2 6fbe 3282 b0be b560 1dbe 72e0 73be
00000230: 2ccf 493d 85ef 72bd 8bad 2e3e f30e 063e
00000240: d9fa 99bd 3308 dbbd 73ed 67be d906 203e
00000250: cac6 9ebc 7101 0ebe 408b 923e a78a 90be
00000260: 3710 fe3d 3d80 ebbe 203c 2c3e 4a2a 613d
00000270: 7b7f f43d f156 0dbc 1b80 7bbc 207c 043d
00000280: 4ac6 9e3d 00df 8fbe 395d 42bd 1693 403e
00000290: 7588 cd3d c9bc 3a3e 1fa8 a5be 3c9d c1be
000002a0: 7fdd ae3a 9621 c7bd c240 823e b348 e43c
000002b0: 1ef3 823e 035c 4c3d d46c db3d f250 9dbe
000002c0: d99c 1cbd 44eb c2bd d967 073e b24c 6e3e
000002d0: c25c 9b3e 990c b8be 5c05 5fbd e902 69be
000002e0: 8933 22be 9f5f 663e e22c 9a3c c4a6 abbe
000002f0: e43b fa3d 351c 01be 56b8 1b3e ba7d 643d
00000300: c50b 363d f36c 07be 7365 8dbe 7de1 033e
00000310: ad67 2c3c e719 18be 2962 febd a749 acbe
00000320: 8afd e3bc e59d 263e 0eb4 8ebd 4c3a 853e
00000330: 28b9 81bd 8c95 a4be 2a93 0f3e 9130 91be
00000340: da95 623e 7611 093e d8a9 1a3d ec45 6ebc
00000350: 0c9d 34be 998c 4d3e 0bae b4bd cce9 e0bd
00000360: 9959 573e 5b66 6ebc b6a4 203e 418b 9abe
00000370: c156 333e a342 973e 9fba 9dbd d4ef 093d
00000380: c891 62be 1041 b0be 6cdb c83d 4dc8 b9bd
00000390: 3cfb 913e 6782 68bb 4af5 713e 7c93 67be
000003a0: 8f15 51be 9f96 06bd 2b1e 1f3e 940b 023e
000003b0: f7a5 32be bbe2 d03d 7a36 4cbe a321 aabe
000003c0: 177f b23d 6db1 c23d e417 533e 4f4c 4ebd
000003d0: 2081 b2bd be00 83bd c840 8a3e 60ae 99be
000003e0: 6437 72be 0c66 1b3d d4f5 a93e 8648 86bc
000003f0: 99d8 4ebe 63b3 e53d b03c 683e 4369 87be
-0.2795495 -0.27775353 0.24722965 -0.20312761 0.06861431 0.06594719 -0.05286916 -0.18492389
0.22284316 -0.27347586 -0.22667801 -0.33954856 0.08663625 0.23849331 -0.10870692 0.1374189
0.2764103 0.16205125 -0.020622138 -0.20606929 -0.2613436 -0.34069213 -0.27828372 0.2646686
0.2632154 0.27662238 0.23914565 0.19267723 -0.052378073 -0.26563266 0.3566256 0.020234946
0.25643292 -0.085254855 0.0798867 -0.31675354 0.049044706 -0.006814685 -0.2629018 0.045595206
0.35138923 -0.07343389 0.069940805 0.10042343 -0.15096018 -0.16904241 -0.20585302 -0.14752729
-0.23100337 -0.14814822 -0.26360035 0.042819716 0.23981772 0.17471072 0.3148118 -0.258819
0.23871173 0.0140654845 -0.14328417 -0.28118333 0.24832049 0.21538481 -0.28598464 -0.24159487
-0.17203341 0.29746887 0.21715403 -0.18378736 0.015360682 -0.15504079 0.22814588 -0.02767337
0.078510426 0.29554707 0.19095835 0.07773387 -0.2828602 0.06653863 -0.16683106 -0.1758223
-0.09180486 -0.08797808 0.020671094 0.069657825 0.16236284 0.14240594 0.035113767 -0.020544082
-0.35336035 -0.16570784 -0.0581146 0.3088178 0.0072852666 0.08361223 -0.008951616 -0.4088741
-0.15684256 -0.3122373 -0.14718421 -0.04702676 -0.28620335 -0.06752996 0.1166355 -0.080175415
0.11050526 0.21938808 0.07839716 0.008474518 0.05662399 -0.2187338 0.070331424 0.09684366
0.3192372 0.021000518 -0.23959737 -0.36266172 -0.031968277 -0.18667415 0.33010435 -0.21421401
-0.09398085 0.18480654 -0.08334119 0.24923417 -0.030070923 -0.30903777 0.111361206 -0.32766873
-0.02735932 -0.0751786 0.17245413 0.22292061 -0.1684686 0.10986467 -0.24541858 0.14476377
-0.23414038 -0.3447433 -0.15368922 -0.23816088 0.04926984 -0.059310455 0.17058389 0.1309164
-0.075185485 -0.10694923 -0.22649173 0.15627612 -0.0193819 -0.13867737 0.28621864 -0.28230783
0.124054365 -0.45996276 0.16819811 0.05497197 0.119383775 -0.0086266855 -0.015350367 0.032344937
0.077526644 -0.28099823 -0.047452185 0.18806109 0.10035793 0.18236078 -0.3235483 -0.37815273
0.0013341157 -0.09723203 0.2544003 0.027866697 0.2557611 0.049892437 0.10714117 -0.3072582
-0.03823552 -0.095175296 0.13223208 0.23271444 0.30344206 -0.3594711 -0.05444847 -0.22755016
-0.15839972 0.22497414 0.01882023 -0.3352567 0.122184545 -0.12608416 0.15207037 0.055783965
0.044444818 -0.13225155 -0.27616462 0.12878986 0.010522765 -0.14853631 -0.12421066 -0.33649942
-0.027830858 0.1627117 -0.069679365 0.2602104 -0.06334144 -0.32145345 0.14020982 -0.28357366
0.22127476 0.13385567 0.037759632 -0.014543038 -0.17638034 0.20073165 -0.088222586 -0.10982093
0.21030273 -0.014550771 0.15687832 -0.30184367 0.17513563 0.29543027 -0.07701611 0.033675984
-0.22125924 -0.3442464 0.098074764 -0.090714075 0.2851199 -0.0035478116 0.23628727 -0.22614855
-0.2041838 -0.032858487 0.15538852 0.12699729 -0.17446123 0.101994954 -0.19942656 -0.33228788
0.08715647 0.095064975 0.20614582 -0.050365742 -0.08716035 -0.06396626 0.2700255 -0.3001585
-0.23653942 0.037939116 0.33195364 -0.016392004 -0.20199813 0.11215856 0.226794 -0.26447496

bias f4 [32]
00000000: 241a 08be 4a9d ecbe 5e2b cbbe 457f b13c
00000010: 1863 903d 92bb fd3d dcab a7be c3d1 06be
00000020: 3497 0abf 2987 22be d410 acbe 4e1f debe
00000030: 4953 0fbf fefd babe 028f 01be 1845 52bd
00000040: 0c67 113e 79bb 313d 202b c3be 5d9c b3be
00000050: ac2c e9bd 5037 9d3d b8c4 a23d 41b4 f7be
00000060: 2831 07be 40c2 e3be 6392 babe 111f a0be
00000070: 9585 82be 9893 97be 8951 973d 69b3 12be
-0.13291222 -0.46213752 -0.39681524 0.021667132 0.07050151 0.12389292 -0.32748306 -0.13165955
-0.5413697 -0.15871872 -0.3360659 -0.4338326 -0.5598646 -0.36521906 -0.1265221 -0.051335424
0.14199466 0.04339168 -0.3811884 -0.35080233 -0.113854736 0.07676566 0.079476774 -0.4837971
-0.13202345 -0.44484138 -0.3643981 -0.31273702 -0.2549254 -0.29604793 0.073885985 -0.14326252

weight f4 [60, 512]
00000000: fd4a 36bc eefd 313d 36c9 9dbd bbd6 2c3d
00000010: a087 9dbd 9e3d 0b3e 0ef1 25bd 7121 4d3d
00000020: cb1f a4bd f38a 3d3c 849c 7f3d b4cd de3d
00000030: 00b2 373d 022b 403d 8283 1b3d 17e9 b0bd
00000040: bda5 313b 364c d6bc 9427 3f3d afba c5bd
00000050: 151c aabd 3df7 31be 32d3 293d f779 ffbd
00000060: 91f7 103d 71e2 3a3d 189f 163d 7062 8b3d
00000070: 66c9 943c 6785 9e3d 823e 133d b96b 9e3d
00000080: e7a5 f5bc f001 eb3b 5689 fdbd 0d6d 15be
00000090: 1a5a 26bd 7328 1b3e 0de4 403c 6a8b 973d
000000a0: a80b b93d 5562 b2bb 5c5b 0a3e d3aa 6a3d
000000b0: 6115 1d3d 6c8c 00bd 5eb8 b83d c4ad b73c
000000c0: 951b 363d ef04 af3c 777e 953b eb3f bbbc
000000d0: 8a0e d2bd c678 63bc 48e9 0cbd 519f c5bd
000000e0: ca66 bcbd c110 bcbd 921f ba3c d2fa 50bc
000000f0: d231 c03b c81a 333c 8fd1 003d f034 fa3c
00000100: 080e 4abc 5757 d63c 3cf8 83bc adae e2bd
00000110: 4321 a63c ad90 13be ba95 333d b832 8abd
00000120: 88f3 d2bd f157 28be 9d83 1a3d 8f1d ccbb
00000130: 85b0 95bc 846b cb3b 9502 c23c df0f 5abb
00000140: bc2c 40b9 cf86 ddbd 7fbf 23bd e669 123d
00000150: 5f21 573d c1fa c83c 7035 d43d 84b3 103e
00000160: 1dbb 67bd b68d 883e acdc e4bb f9ba 093e
00000170: 76ea 53bc db70 08bd 2018 0b3c 9a73 17bd
00000180: 4a34 7d3d 840a c3ba 35d7 9d3c c21a 73bd
00000190: c304 423d e27e bcbc 35bb 103d 4934 8ebd
000001a0: ecc3 cbbd e785 2c3d 9fcc 61bb deb9 e33c
000001b0: a626 24bc 76c8 8bbd 00f9 bc3b 842d 6c3c
000001c0: cc43 773b d410 2dbc 673b 5cbc 42f8 b438
000001d0: 733f 9ebc c701 1aba 1b96 98bd 17cd c4bc
000001e0: 2267 9dbd 62cf 5e3a 9321 6b3d 7fea dd3c
000001f0: 2908 093d aa5e 583b aa68 b93c 9e38 7cbd
00000200: ae5c 80bd 252c 113d 5b03 023e 940c 23bd
00000210: f900 96bc c11e 87bd 1178 23bd 2eb9 7d3c
00000220: f931 16be bea5 92bc b680 5fbc fc3c d2bc
00000230: 39bd 193d ff35 123d d307 5e3b 0ad2 a53c
00000240: 319c c339 70e6 f63d f29c 9b3d ec05 8abd
00000250: 04ec 26bd c7dd a13c ca28 dcbd ae83 12be
00000260: 7b93 78bd 81f1 93bd ffef ac3d 1189 c8bb
00000270: 9d69 85ba b9ed 603c 4bc3 c83b abc1 a93d
00000280: ae1c 65bc 295d fc3d 494f bb3d 0efa 103d
00000290: ac39 5e3e 24e2 3f3e 3cce 123e 4980 adbc
000002a0: 7703 73bc 881b 00be 72c4 963a 662e c9bd
000002b0: c03c 08bd edd9 bcbd df41 34ba 0dd0 113d
000002c0: 0724 25bd 29a9 1b3d bb1f 9c3c 9bd0 ebbd
000002d0: 3dff 48bd a6ab 0cbc f789 813c 4f4f adbd
000002e0: a9c2 0dbd 1584 8d3d 3ed9 79bc a865 86bc
000002f0: d183 46bc 7fe9 89ba 398e 653d cdf2 bd3c
00000300: c9ce 12bd 9816 f63d 02a0 923c fab2 80bd
00000310: 36c0 8dbd fc8c fbbc f0e5 cbbd c67b 9cba
00000320: 59c8 42bd f1aa 123d 8058 01bd 64ab 62bd
00000330: b20c 103d 457d 2d3d 0e1a 0c3d c566 b53d
00000340: d457 913b 9170 bd3b a73d 91bc bca3 05be
00000350: 2744 e93d feb3 b3bc c259 a03c 2a04 02bc
00000360: 7bf3 88bd 81ac debd 3f42 c13c bc6d 3d3d
00000370: 5177 03bd 7e9c f2bb 7ff2 d63c d912 f33d
00000380: 86ff a53c 44d7 15bc ff94 8b3b e919 32be
00000390: ee67 c2bd 9f47 883d fb9f f23c af25 bbbc
000003a0: b1c4 b1bd 9f92 343c 9b11 22bd 356e 2ebd
000003b0: 7d91 0d3c c955 35bd 654d 803d 058c 1f3d
000003c0: e29c aabc 73ff 50ba fe38 873c 8bac ae3d
000003d0: 7820 b83d 9a4b 063d 597b 143e b1af ed3d
000003e0: c203 ddbc f00a 893c 3abb da3c 26fa a8bd
000003f0: aa5b a63d 1209 a5bc 84a0 62bd c94d a4bd
-0.011126277 0.043455057 -0.077043936 0.04219697 -0.07691884 0.13597724 -0.04051309 0.05008072
-0.080138765 0.011568773 0.062405124 0.108790785 0.04484749 0.046916015 0.037967212 -0.08638208
0.0027106844 -0.026159387 0.046668604 -0.09654748 -0.083061375 -0.1737947 0.041461177 -0.12474435
0.035392348 0.045626108 0.036772817 0.06805885 0.01816244 0.07740288 0.035948284 0.0773539
-0.029986335 0.007171862 -0.123797104 -0.14592381 -0.04061327 0.15152149 0.011773122 0.07399638
0.090354264 -0.005443851 0.13511413 0.057291817 0.038350467 -0.031383917 0.0901954 0.022421725
0.044459898 0.021364657 0.004562195 -0.022857627 -0.10256679 -0.013883775 -0.03440216 -0.09649528
-0.09199293 -0.09182883 0.022720132 -0.012755113 0.005865314 0.010931678 0.03144985 0.03054282
-0.012332447 0.026164694 -0.016109578 -0.11068473 0.020279532 -0.14410658 0.043843962 -0.06747955
-0.10300356 -0.16439797 0.037723172 -0.0062291096 -0.018272648 0.006207885 0.023682872 -0.003327362
-0.00018327212 -0.10816728 -0.039977547 0.035745524 0.05252206 0.024533631 0.10361755 0.1413098
-0.05657493 0.26670617 -0.006984314 0.1345023 -0.012934318 -0.033310752 0.008489639 -0.03697548
0.061817445 -0.0014880453 0.019267658 -0.05935169 0.047367822 -0.023009721 0.035334785 -0.06943566
-0.099494785 0.042119887 -0.003445424 0.02779859 -0.01001898 -0.06825344 0.005766988 0.014415149
0.003772962 -0.010563094 -0.013441897 8.6293105e-05 -0.019317364 -0.00058748986 -0.07450505 -0.024023576
-0.07685687 0.00084995304 0.057405066 0.027089356 0.033455048 0.0033015409 0.022632916 -0.06157743
-0.06267677 0.03544249 0.12696593 -0.039806917 -0.01831101 -0.06597663 -0.039909426 0.015486045
-0.146675 -0.017901298 -0.013641527 -0.025663845 0.037533972 0.035696026 0.0033879175 0.020241756
0.0003730967 0.12055671 0.07598294 -0.06739411 -0.040752426 0.019759072 -0.107499674 -0.14308044
-0.060687523 -0.072237976 0.08444213 -0.006119855 -0.001017857 0.0137285525 0.0061267964 0.08288892
-0.013983889 0.123224564 0.09145982 0.03539472 0.21701688 0.1873861 0.14336485 -0.021179335
-0.014832369 -0.12510502 0.0011502637 -0.09823303 -0.03326106 -0.092212535 -0.00068762706 0.035598803
-0.04031756 0.03800312 0.019058099 -0.11514398 -0.04907154 -0.008585846 0.015812857 -0.084623925
-0.03460947 0.06909958 -0.0152495485 -0.016405895 -0.012116388 -0.0010521858 0.056043837 0.023187065
-0.035841737 0.12016028 0.017898563 -0.06284137 -0.06921427 -0.030706875 -0.099559665 -0.0011938743
-0.047554348 0.035807554 -0.03157854 -0.055339232 0.035168357 0.042355794 0.034204535 0.08857492
0.0044355188 0.005781241 -0.017729593 -0.13050741 0.11389952 -0.021936413 0.01957405 -0.007935563
-0.06687065 -0.10872746 0.023591159 0.04624723 -0.03209621 -0.007403909 0.026238678 0.11868829
0.020263445 -0.009145562 0.004259705 -0.17392696 -0.09492479 0.06654286 0.0296173 -0.022845117
-0.08680094 0.011021285 -0.03956757 -0.04258557 0.008640644 -0.044271264 0.06264762 0.038951892
-0.02082676 -0.0007972635 0.016506668 0.08529004 0.08990568 0.032786943 0.14500178 0.11605776
-0.02697933 0.016728848 0.026700605 -0.08250837 0.08122952 -0.020145927 -0.05532886 -0.08022649

bias f4 [60]
00000000: 1594 9cbc ac52 583d 9069 213c 194a 8ebd
00000010: 8458 333c ff77 893d 6aa1 2d3d 7146 7bbc
00000020: 08c6 7d3b 9ff9 023d 2453 a2ba 4040 34bd
00000030: 3e6f 963b e7fb ad3c f115 9bbc 94b7 c63c
00000040: 7ac2 723d 5061 2f3d 3330 d93b 25fb a1bc
00000050: b145 9d3c 2b2e 69b9 bd38 633c 41b6 7ebc
00000060: 350b c83a 85ed e6bc d0f9 813d fd20 8ebd
00000070: e36c 06bd 06a9 d93c c99e ef3c 49e8 db3a
00000080: 3e82 0fbd ce5f ea3c 0a21 603b 68e7 3f3d
00000090: 755b 35bd d94c 963c 51e6 363d 408f 6abc
000000a0: 4e32 313d aa2f 3dbd b545 803c 6013 bdbc
000000b0: 7c42 1f3d caee bf3b 0c49 78bb 72f3 e43c
000000c0: 7fa8 32bc 3d9e 94bd 2817 d1bc 9c36 0d3d
000000d0: 463d c5ba 47ec 92bd d97b cb3b 7515 803d
000000e0: a776 2bbd 1219 3b3c a03b 85ba 6a8e 813d
-0.01911358 0.052813217 0.009851828 -0.06947727 0.010946397 0.067123406 0.042390265 -0.015336619
0.0038722772 0.03197634 -0.0012384397 -0.044006586 0.004590898 0.02123828 -0.01893136 0.024257459
0.0592675 0.042817414 0.0066280602 -0.019773075 0.01919827 -0.0002223781 0.013868508 -0.015546382
0.0015262129 -0.02818943 0.06346476 -0.06939886 -0.032818686 0.026569854 0.02925052 0.00167776
-0.035036318 0.028610136 0.003419938 0.046851546 -0.044276673 0.01834719 0.04465324 -0.01431638
0.043260865 -0.046188034 0.015658239 -0.023080528 0.038881764 0.0058573233 -0.0037885336 0.027948115
-0.01090443 -0.07256744 -0.025523737 0.034475908 -0.0015048168 -0.071739726 0.006209832 0.062540926
-0.041861203 0.011419551 -0.0010164864 0.063259915

weight f4 [10, 60]
00000000: f080 2bbe 8e1f e9bd bdda 23be 68b2 5bbd
00000010: 4cc1 d9bc 40b6 7fbe c978 abbe fafa 5f3c
00000020: bf76 bdbd b9c9 33be 1725 853b 2654 b83d
00000030: 3995 5e3e 783d 553e 4bfc 82bb be30 8dbd
00000040: 2cdb cabd 2600 c7bd 0dd2 ecbd 6706 86be
00000050: e5df bebc 4ae5 aa3e c665 6c3d 3ec6 55bd
00000060: aad9 77be a384 87bd aad9 a33d 99d1 743d
00000070: 4842 9fbd 4f6d 693c b452 27bd 273b 533e
00000080: 4bdb 66be 8eee 473e 9665 e5bc 628a 9d3c
00000090: 3555 2d3e f8d7 513e 485b 7cbb 2937 1cbe
000000a0: 97e7 f8bd af30 da3d 2c66 7abe 2b1f 393e
000000b0: f275 f9bd ebef d53c 50ab 523e 93e4 5a3e
000000c0: 127e 1c3e cc97 bd3d e51f ab3d 4528 a03e
000000d0: d3ff 86be 32a2 3dbd fd7d 3d3d 3080 f93d
000000e0: 5850 16be a08e 39be 54b0 80be 06b6 363d
000000f0: 91c1 033d d2da d03d 5bc0 c1bd 5cd8 733d
00000100: f260 0cbe 1612 be3e 2526 8a3e 740d 74bb
00000110: 70b2 71bd 4e4a 6e3e 7acf 9dbe d2cf 98be
00000120: 80b7 923d 5aaa de3e 400f 363c 3645 293d
00000130: dd95 aebc 9ef1 893e aa36 a63e 41ab 923e
00000140: cfeb ca3d b7e3 4abe 86ee 5c3d 5c9b 56bd
00000150: 812c be3e 0207 97bc c227 b3bd 5f36 cf3d
00000160: a613 193d 1ccf d93b 5af6 6ebe ccef 6ebe
00000170: a288 343e a954 10be 7470 a73d 126c cfbd
00000180: a202 debe 7307 ebbd 4f5f 093b 10e8 2dbd
00000190: f938 b23e f0f0 a23d 7277 163e 0019 74be
000001a0: ed81 3c3e 0ba2 b93d edbb 14be 243d f6bd
000001b0: b54b 6bbe 0e0d eb3c 57aa 39bd d1ee e7bd
000001c0: 32ef 20be 49b7 d7bd 0c2f 4e3d d2ef 2c3a
000001d0: 9e6d 4fbe 6aa2 d6be b791 6f3e e023 423d
000001e0: 5a4a 7c3e e3e3 70bd 26cb 0f3e 3d39 8dbc
000001f0: d1b2 633c 07fd 8abe ca0d 1c3e dbf5 dd3d
00000200: d3f9 30bd b4d3 81ba 663c ba3e 60a8 c33e
00000210: 9510 3d3e 0186 83bd 1eda 2e3d 46e2 d03d
00000220: 1bf3 a63c 643a 253e 203d cf3e 290e eb3d
00000230: 4525 c13c 5600 7dbd 8877 3b3d 2f03 d13d
00000240: 46fd 7c3e d954 4d3d aa0e 00be b147 babd
00000250: 1da7 e53c 7d5b 0dbe afd6 b0bd 700a 003e
00000260: 1faa 343e 7f8e a8be 2fcf 14bc 2e6e f63c
00000270: 5f2a 783e 2b0a fdbd e464 c2bd 6f45 253d
00000280: ff97 97be ebb3 e03d 746a 243e a58b 933e
00000290: 8a83 0abe d238 89be d950 0cbd 9629 c0be
000002a0: 871d a7be 9700 42bd 595f 953d 01c3 3fbe
000002b0: 8a1e 35be 91d6 b8bd 24b0 1dbd b92d 0cbc
000002c0: d4ab b6be a232 9ebe 7682 e03d 8565 033d
000002d0: 85c4 d63e 7bbd 373d 4153 51be c340 143d
000002e0: d93a b73d c892 13be 2999 3f3e 3b45 82bd
000002f0: 8fa7 21be e27d 82be 0291 b13e a57b f43d
00000300: 0163 093d 3870 6abd 61be 68bd b803 edbc
00000310: fc6f e1ba 3c0a 853e 066b c53c de63 8bbe
00000320: 3e90 0b3e 9671 71be d84a 38bd 2c3c 243e
00000330: c7a7 a03e 387c 103d 6faf 1dbd 015c 943c
00000340: ef74 533d 73dc 483d 060f e83d ade2 a7be
00000350: 34a2 9cbd 1711 7abe 9167 0e3d 21ef 8cbc
00000360: 1653 283e b89d a13e 602a bc3d 9458 383a
00000370: 485e af3d 1196 803a 3ddd ac3d 83d2 863e
00000380: 2047 b13d bca1 423e f9e5 ad3e 0c0d 7a3e
00000390: ab0b 623e 5acf b4bc 7b1f 8f3d 5deb 37be
000003a0: 0f86 b93e c46e 983d dc3f bf3c 001d dbbd
000003b0: 52c0 853e f79f 393d 64b2 aabd a61d 83bd
000003c0: cca4 67bd 7fef 15bd 0503 83be 9a09 0f3d
000003d0: 7552 37bd 3431 a83e b673 58be 1fb1 fbbd
000003e0: b7b9 b9bd b64a f3bd 10dd 57be b870 8d3e
000003f0: b1f7 b4be 91c7 c13e 5b15 83bc c2e3 ff3d
-0.16748405 -0.11382972 -0.16001411 -0.05363694 -0.026581429 -0.24971867 -0.3349059 0.013670677
-0.09251165 -0.1755742 0.0040632593 0.09000425 0.21736611 0.2082423 -0.003997361 -0.068940625
-0.09905085 -0.09716825 -0.115635015 -0.2617676 -0.02330012 0.3337806 0.057714246 -0.05219101
-0.24204126 -0.06617095 0.080005005 0.0597702 -0.07776314 0.014247253 -0.040850356 0.20628034
-0.22544591 0.19524595 -0.028002542 0.019231025 0.16927035 0.20492542 -0.0038506556 -0.15255417
-0.12153547 0.10653817 -0.24453038 0.18078296 -0.121806994 0.026115378 0.20573163 0.21376257
0.15282467 0.092574686 0.08355693 0.31280723 -0.26367053 -0.04629726 0.04626273 0.12182653
-0.14679086 -0.18120813 -0.25134528 0.044607185 0.03216702 0.10197987 -0.09460517 0.05953251
-0.13708857 0.37123173 0.26982227 -0.0037239464 -0.059008062 0.23270532 -0.30822355 -0.29846054
0.07163906 0.43489343 0.011112034 0.04132577 -0.021311695 0.26942152 0.3246358 0.2864628
0.09908258 -0.19813429 0.05393841 -0.052394256 0.3714333 -0.018435959 -0.087478176 0.10117792
0.037372254 0.006647004 -0.23336163 -0.23333663 0.17630246 -0.14094795 0.081757456 -0.10128035
-0.43361384 -0.1147603 0.002096135 -0.04245764 0.34809092 0.079561114 0.14694002 -0.23837662
0.18408938 0.0906411 -0.14524813 -0.120233804 -0.22978099 0.028692748 -0.045328464 -0.113248475
-0.15716246 -0.10533006 0.050337836 0.00065970153 -0.2025666 -0.41920787 0.2339543 0.047397494
0.24637738 -0.05881108 0.14042339 -0.017239207 0.013897614 -0.2714617 0.15239635 0.10837909
-0.043207 -0.0009905011 0.36374205 0.38214397 0.18463357 -0.064220436 0.04268848 0.10199408
0.020379594 0.16135556 0.40476322 0.1147731 0.023577342 -0.0617679 0.04576829 0.10205685
0.24705991 0.050129745 -0.12505594 -0.09095705 0.028033787 -0.13804431 -0.08634698 0.12503982
0.17643021 -0.32921216 -0.0090826 0.030081835 0.24234913 -0.12355455 -0.094918996 0.04034942
-0.2960815 0.10971817 0.16056234 0.28817478 -0.1352674 -0.26801163 -0.03425679 -0.37531728
-0.32639715 -0.047363844 0.07293577 -0.18726732 -0.17687431 -0.090253 -0.03849806 -0.008555823
-0.3567797 -0.30898005 0.109623834 0.03207924 0.41946808 0.044858437 -0.20441915 0.036194574
0.08946771 -0.14411461 0.1871077 -0.06360861 -0.15786575 -0.25486666 0.34680945 0.11937646
0.033541683 -0.057235926 -0.056822184 -0.028932437 -0.0017199512 0.2598437 0.024098884 -0.2722463
0.13629243 -0.23578486 -0.04499325 0.16038579 0.31378004 0.035274714 -0.038497385 0.018110277
0.05162519 0.04903836 0.113309905 -0.32790127 -0.07648125 -0.24420582 0.034766737 -0.01720387
0.16437945 0.31565642 0.0918777 0.0007032242 0.085629046 0.0009810348 0.08440635 0.26332483
0.08656144 0.1900701 0.33964518 0.2441904 0.22074763 -0.02207153 0.06988426 -0.17960878
0.3623509 0.07443002 0.02334588 -0.10698891 0.2612329 0.04531857 -0.083348066 -0.06402139
-0.056553647 -0.036605354 -0.2558824 0.034921266 -0.04475637 0.3285004 -0.2113789 -0.122896425
-0.090686254 -0.11879484 -0.21080422 0.2762506 -0.35345224 0.3784757 -0.016001394 0.12494613

bias f4 [10]
00000000: 5dfa 4bbc 667e 8e3d 743b c2bd f4b3 55bd
00000010: a1a7 febd 1fb3 5a3d c014 c1bd 26ac 1ebd
00000020: d963 aabd da17 98bc
-0.012449828 0.06957702 -0.09483996 -0.05217357 -0.124343164 0.05339348 -0.09427786 -0.038738392
-0.08319826 -0.01856606
