Computational Intelligence/aeh330_5/resultsclassifier_cnn_14.model (torch, 111327 bytes, 6 tensors)

weight f4 [32, 1, 3, 3]
0.006135382 0.16545738 -0.15482412 0.18151204 -0.15522869 -0.073607974 -0.35675135 0.054680523
0.060795467 0.3181883 0.24248062 -0.13590015 -0.25817695 -0.15490116 0.2332788 -0.38471794
0.11908126 -0.21192014 -0.19806859 -0.3049443 0.19840288 0.29195744 -0.034219604 0.24845782
-0.32001248 -0.13712874 -0.17258933 0.34303197 -0.36513156 0.0023702178 -0.16789162 -0.2182063
0.07377156 0.14232357 -0.31090522 0.010539861 -0.0039100577 0.2885488 0.021096556 0.21242394
0.0877903 -0.12675789 -0.11090947 0.27516863 0.22372523 -0.1737111 0.09020004 -0.027975483
0.22961898 0.25130606 0.09456699 -0.15471202 0.16409959 -0.3273589 -0.03647965 0.031687353
-0.12441394 0.14673126 -0.32576993 -0.16911942 0.10648276 -0.19409955 -0.1874362 -0.07777136
-0.1909341 -0.2707623 -0.22623935 0.18034144 0.30242234 0.03990476 0.23850456 -0.3118529
-0.023334669 0.12161036 0.27641743 -0.057710547 -0.29858586 0.22778055 -0.06392761 -0.002988642
0.011509516 -0.031559367 -0.109981224 0.10669388 0.038572136 -0.12407337 -0.21825285 -0.041690674
-0.15012597 0.30677286 -0.04744173 -0.10855193 -0.0574779 -0.11311376 -0.30048472 0.27520528
-0.00029671297 0.3098837 -0.33192387 -0.25601122 -0.22573547 0.116359435 -0.12043721 0.38586882
-0.057863194 0.17299876 -0.30537617 -0.20769419 -0.024569312 -0.25894672 -0.21878138 0.2996554
-0.27602467 -0.36207113 0.014005303 0.35404938 0.26576707 -0.21331725 -0.2812441 0.2839882
-0.033016562 0.22504891 -0.1529488 0.23012705 0.15875067 -0.3517458 -0.03132001 0.14704166
0.3546285 -0.107012905 -0.12535773 0.009841987 -0.10713647 -0.32420924 -0.28072196 -0.17349549
-0.16832045 -0.09728512 -0.2722716 -0.19741796 -0.16330585 0.31571308 -0.12620601 0.35159558
-0.2937299 0.05228907 0.10678666 0.25238392 0.004168977 0.07578482 -0.2489359 0.28878585
-0.06354566 0.013112161 -0.21747664 -0.38432613 0.17326804 0.0868562 0.038846843 -0.04516548
0.28673244 -0.18667336 -0.14032537 0.080563374 -0.16761793 0.21154128 0.09366592 -0.093405135
-0.16895793 -0.19221143 0.1290421 -0.011830913 -0.11518488 -0.20231502 -0.20513201 0.32051867
-0.16674358 -0.20335563 0.008863655 0.21142824 -0.2295925 0.06759513 0.18098478 0.15648124
-0.07221871 -0.39772004 0.19208738 -0.11495149 0.006326907 -0.010822062 0.26398888 -0.07068099
0.23316818 0.31614932 -0.0162769 -0.0139422985 0.0926227 0.05730858 -0.20533219 0.24428447
-0.23302469 -0.2828939 0.2462644 -0.1239636 -0.33112344 -0.11462967 -0.23193875 0.24235357
0.06318937 0.3051432 0.07214274 -0.32679316 -0.050386053 -0.3356485 0.09368098 -0.18005332
0.24734291 -0.111896046 0.09267899 -0.32988414 -0.12819783 0.05282185 -0.31743088 0.24609786
0.14509083 -0.0023963253 0.031326294 0.08378154 -0.28433987 0.17394125 -0.040096946 0.1484925
-0.1502121 -0.23126012 -0.29151663 0.2038037 -0.29478607 0.055644363 0.29785487 0.11735476
-0.04039307 -0.32325238 -0.09914878 -0.080341466 0.2579442 -0.004129601 0.17528985 0.09075971
-0.1641945 -0.3723464 -0.1957342 -0.30251694 -0.19436365 0.03230301 0.2941197 -0.2945367
00000000: 510b c93b a96d 293e 378a 1ebe 4bde 393e
00000010: 45f4 1ebe c7bf 96bd 1da8 b6be aff8 5f3d
00000020: ab04 793d 94e9 a23e d74c 783e 6929 0bbe
00000030: c52f 84be 699e 1ebe a3e0 6e3e c0f9 c4be
00000040: e0e0 f33d 9801 59be 7ed2 4abe a921 9cbe
00000050: 202a 4b3e 727b 953e db29 0cbd ba6b 7e3e
00000060: add8 a3be 7a6b 0cbe 42bb 30be e3a1 af3e
00000070: 86f2 babe a855 1b3b c8eb 2bbe 7971 5fbe
00000080: 8b15 973d 45bd 113e f82e 9fbe 62af 2c3c
00000090: f11f 80bb abbc 933e afd2 ac3c a985 593e
000000a0: 67cb b33d d2cc 01be 8124 e3bd e7e2 8c3e
000000b0: 3a18 653e 53e1 31be ccba b83d d72c e5bc
000000c0: 3d21 6b3e 30ab 803e 57ac c13d d46c 1ebe
000000d0: b909 283e 969b a7be af6b 15bd 99ca 013d
000000e0: bccc febd b840 163e 51cb a6be a42d 2dbe
000000f0: a213 da3d 08c2 46be 46ef 3fbe 9746 9fbd
00000100: 3b84 43be 5ba1 8abe 4aab 67be 6dab 383e
00000110: 1ad7 9a3e 2c73 233d 8a3a 743e 2fab 9fbe
00000120: 5928 bfbc da0e f93d 9686 8d3e e561 6cbd
00000130: 3fe0 98be 4e3f 693e 7bec 82bd 18dd 43bb
00000140: 6992 3c3c 6544 01bd d63d e1bd 5282 da3d
00000150: d1fd 1d3d 2e1a febd ad7d 5fbe d7c3 2abd
00000160: 9fba 19be 5511 9d3e 4252 42bd 7950 debd
00000170: f26d 6bbd 30a8 e7bd 22d9 99be b5e7 8c3e
00000180: 2490 9bb9 14a9 9e3e edf1 a9be e713 83be
00000190: 3327 67be db4d ee3d c9a7 f6bd 9990 c53e
000001a0: f501 6dbd 9626 313e 445a 9cbe c9ad 54be
000001b0: 9545 c9bc aa94 84be 3a08 60be 6f6c 993e
000001c0: 1b53 8dbe 6361 b9be 8076 653c f645 b53e
000001d0: 9f12 883e d66f 5abe 3aff 8fbe e766 913e
000001e0: 603c 07bd 3973 663e 9c9e 1cbe 6da6 6b3e
000001f0: 898f 223e 0718 b4be 6949 00bd 1792 163e
00000200: de91 b53e 9529 dbbd c75d 00be 4940 213c
00000210: 5e6a dbbd c1fe a5be caba 8fbe cda8 31be
00000220: 325c 2cbe 6c3d c7bd 2f67 8bbe ef27 4abe
00000230: a639 27be 25a5 a13e 263c 01be 5604 b43e
00000240: c463 96be 102d 563d f7b2 da3d 7738 813e
00000250: ea9b 883b 1235 9b3d 0de9 7ebe bddb 933e
00000260: 3a24 82bd 64d4 563c 32b2 5ebe 65c6 c4be
00000270: 2d6d 313e aae1 b13d de1d 1f3d 70ff 38bd
00000280: 98ce 923e 4d27 3fbe 74b1 0fbe 69fe a43d
00000290: 09a4 2bbe 479e 583e ebd3 bf3d 314b bfbd
000002a0: 4f03 2dbe 13d3 44be 9d23 043e 72d6 41bc
000002b0: 0de6 ebbd ab2b 4fbe 200e 52be 061b a43e
000002c0: d4be 2abe 753c 50be dd38 113c a580 583e
000002d0: 4c1a 6bbe 516f 8a3d 1354 393e 9e3c 203e
000002e0: 67e7 93bd f6a1 cbbe 8eb2 443e b06b ebbd
000002f0: f151 cf3b 054f 31bc 8d29 873e 32c1 90bd
00000300: a4c3 6e3e 53de a13e 2257 85bc 3d6e 64bc
00000310: f8b0 bd3d 67bc 6a3d 9a42 52be b525 7a3e
00000320: 069e 6ebe 78d7 90be bc2c 7c3e a1e0 fdbd
00000330: 0389 a9be f6c2 eabd 5a81 6dbe 892b 783e
00000340: 6e69 813d bb3b 9c3e 93bf 933d 6f51 a7be
00000350: 9b61 4ebd 1fda abbe d0db bf3d e65f 38be
00000360: 7647 7d3e c129 e5bd 7bce bd3d 93e6 a8be
00000370: 4b46 03be b95b 583d 4d86 a2be 1401 7c3e
00000380: b192 143e ab0b 1dbb 0050 003d a895 ab3d
00000390: ff94 91be a81d 323e b23c 24bd 6b0e 183e
000003a0: 33d1 19be 74cf 6cbe ab41 95be ebb1 503e
000003b0: 33ee 96be 58eb 633d 6f80 983e b157 f03d
000003c0: 3473 25bd 5681 a5be 840e cbbd 118a a4bd
000003d0: 4311 843e 9b51 87bb 2f7f 333e 3ae0 b93d
000003e0: 9a22 28be 30a4 bebe 8c6e 48be 80e3 9abe
000003f0: 4407 47be 2950 043d db96 963e 84cd 96be

bias f4 [32]
-0.021463409 -0.42812803 0.11297971 0.16109498 -0.12754314 -0.40367177 -0.22777303 -0.24928068
0.16785353 0.08778518 0.1671022 -0.13726781 -0.35763565 -0.22648773 -0.1767293 0.12430787
-0.3827934 -0.26035625 -0.11813381 -0.35754004 -0.44013444 -0.27112472 0.060760446 -0.12476891
0.106920004 -0.17154922 0.019046132 -0.34563607 -0.13301647 -0.5291825 -0.020053098 0.020216946
00000000: 08d4 afbc 9933 dbbe e861 e73d 15f6 243e
00000010: ab9a 02be 11ae cebe 553d 69be 6f43 7fbe
00000020: cce1 2b3e b7c8 b33d d71c 2b3e ef8f 0cbe
00000030: 051c b7be 66ec 67be 87f8 34be 2095 fe3d
00000040: 7ffd c3be 6a4d 85be 24f0 f1bd 7d0f b7be
00000050: 4d59 e1be dcd0 8abe f2df 783d d886 ffbd
00000060: e0f8 da3d 99aa 2fbe a206 9c3c 36f7 b0be
00000070: 7835 08be 8178 07bf 6546 a4bc 029e a53c

weight f4 [50, 512]
0.013051287 0.0050814156 0.020847248 0.010784066 -0.07732911 0.0881052 -0.0027428311 0.06029939
0.044065244 0.015196918 0.058543257 -0.064215064 0.03769558 0.02695434 0.049611606 -0.03478237
0.08627844 -0.051148716 0.050204616 -0.07444548 0.020807361 0.10308019 0.012409182 0.04204149
-0.025048861 -0.05292006 0.03629443 -0.01545553 -0.046835847 0.010350427 -0.005069102 -0.060144544
0.025290754 0.024636293 -0.05172189 -0.12216024 -0.03666985 0.00029589693 -0.0483164 -0.062512234
0.016148103 0.092142306 -0.048438087 0.05217477 0.013062266 0.021097474 -0.12208674 0.05855013
-0.022542128 -0.061699633 -0.06991546 0.031337135 -0.036864627 0.060205385 0.00048223662 -0.01323039
0.048762042 0.011678182 -0.0593658 0.033115663 0.007936128 -0.039603483 0.020976478 0.022034634
-0.0033953285 -0.032398183 -0.0061744493 0.030907644 0.05905018 0.041190118 -0.0008881959 0.02878504
0.04373111 0.02134255 -0.026473192 -0.028075537 -0.02623559 0.045579884 -0.016750032 0.013735294
0.055471398 -0.0022883322 -0.009250863 0.044171646 0.13924176 -0.084677994 0.018740386 -0.012596214
-0.011036124 0.053576536 0.030367026 0.028486408 -0.006704341 0.024163093 0.0074980194 -0.060937855
-0.09531029 -0.004764732 -0.08473415 0.013023968 0.08476709 -0.057515513 0.076724164 -0.0039010237
0.08040113 -0.0394266 0.1476234 -0.010559222 0.0006872333 0.024047876 0.10257676 -0.034933094
0.111444406 -0.027526982 -0.013672596 0.0035401725 0.0760135 -0.0982356 -0.15669818 -0.06139152
0.041831907 0.06401656 -0.065939255 0.011823737 0.05254914 -0.008202489 -0.04753047 0.0094105955
0.034723375 0.019524971 -0.001956102 0.045773145 -0.034525055 0.016109787 -0.036675043 0.044111308
0.030008134 0.004459863 -0.03240373 -0.03568049 -0.013586135 0.041955687 -0.038496688 -0.02527827
-0.015244771 -0.08010364 -0.08037812 -0.09522715 0.014657745 0.08543954 -0.09148199 0.012685471
0.03272806 0.04057295 -0.08589514 0.12350227 0.040662408 0.02529368 -0.014408005 0.09740805
0.04306636 0.024655608 -0.058089804 -0.068901904 0.04391447 0.08867928 0.019883182 -0.047784522
-0.0005940713 0.07689256 -0.04353146 0.07742059 -0.011103351 -0.0012739168 -0.04900359 0.08348771
0.047360998 0.09974157 -0.08763138 0.05782237 0.093316816 0.02576503 0.06409076 -0.08354204
-0.11805769 0.018632919 -0.018386694 0.09293087 -0.048580177 0.015432259 -0.014297265 0.11755961
-0.021652332 -0.028425537 -0.0273316 0.009088006 -0.09659314 -0.10684292 -0.007705679 -0.0025315473
0.073927544 -0.09863733 0.11944203 -0.0391424 -0.055415258 -0.13168734 -0.0028102181 -0.04727833
0.005599135 -0.104747005 -0.07006481 0.056971576 0.04976011 -0.10787054 0.028524308 -0.10358917
-0.052558925 0.08262407 -0.07892802 -0.02597948 -0.06332923 0.044090975 -0.026971731 0.034108166
0.08448979 0.105937146 -0.009858313 -0.053320084 0.08354114 0.1026096 -0.06570967 -0.0009828068
-0.07124509 0.0940163 -0.11038268 0.07936553 -0.0028142587 -0.0055820234 -0.048398547 -0.007897695
-0.007865365 -0.045137934 0.022030165 -0.06515705 -0.032268148 0.06817607 -0.06087232 -0.06325314
0.01148345 0.04744535 -0.1028508 0.09346773 0.07142376 0.0006692515 -0.056872398 0.076130256
00000000: 11d5 553c 0182 a63b d9c7 aa3c a7af 303c
00000010: b95e 9ebd 8070 b43d 12c1 33bb 7efc 763d
00000020: c27d 343d 7efc 783c 0ecb 6f3d 3083 83bd
00000030: ae66 1a3d 59cf dc3c 8a35 4b3d f577 0ebd
00000040: c0b2 b03d 5181 51bd 5ba3 4d3d df76 98bd
00000050: 3374 aa3c b51b d33d e24f 4b3c b333 2c3d
00000060: 4533 cdbc b4c2 58bd 78a9 143d 3139 7dbc
00000070: f2d6 3fbd d694 293c b61a a6bb 205a 76bd
00000080: 8e2e cf3c 0dd2 c93c 55da 53bd 262f fabd
00000090: 2033 16bd 9d22 9b39 6be7 45bd 6a06 80bd
000000a0: 0749 843c 1bb5 bc3d 0467 46bd 36b5 553d
000000b0: 1d03 563c 9cd4 ac3c 9d08 fabd 43d2 6f3d
000000c0: 45aa b8bc c1b8 7cbd d62f 8fbd 5e5b 003d
000000d0: 5dff 16bd ec99 763d b4d4 fc39 47c4 58bc
000000e0: b5ba 473d d855 3f3c 8e29 73bd 4aa4 073d
000000f0: 8906 023c 4337 22bd ddd6 ab3c fa81 b43c
00000100: 2984 5ebb f5b3 04bd 0953 cabb 0732 fd3c
00000110: 9ade 713d f8b6 283d d1d5 68ba 9bce eb3c
00000120: 641f 333d 92d6 ae3c 4fde d8bc abfe e5bc
00000130: 05ec d6bc f9b1 3a3d 5d37 89bc 000a 613c
00000140: fa35 633d d8f7 15bb ef90 17bc 54ed 343d
00000150: 6495 0e3e a86b adbd 7085 993c 5a60 4ebc
00000160: dcd0 34bc 1273 5b3d 45c4 f83c 545c e93c
00000170: 17b0 dbbb aef1 c53c f2b1 f53b f999 79bd
00000180: 0b32 c3bd 7821 9cbb 1989 adbd 7b62 553c
00000190: 5e9a ad3d 6395 6bbd 8f21 9d3d 51a8 7fbb
000001a0: 59a9 a43d c97d 21bd 972a 173e 9600 2dbc
000001b0: 7227 343a 0d00 c53c c413 d23d 0116 0fbd
000001c0: f73c e43d 4480 e1bc 0603 60bc 3d02 683b
000001d0: f7ac 9b3d bf2f c9bd 7d75 20be ad75 7bbd
000001e0: ef57 2b3d 1d1b 833d 290b 87bd 59b8 413c
000001f0: c43d 573d bc63 06bc 4faf 42bd e62e 1a3c
00000200: 193a 0e3d d5f2 9f3c f231 00bb 9f7c 3b3d
00000210: 256a 0dbd acf8 833c 9238 16bd 0fae 343d
00000220: 9ed3 f53c 0b24 923b c6b9 04bd b525 12bd
00000230: 6198 5ebc bad9 2b3d b4ae 1dbd 6014 cfbc
00000240: 34c5 79bc 610d a4bd 499d a4bd 7406 c3bd
00000250: 0a27 703c edfa ae3d e95a bbbd b9d6 4f3c
00000260: dc0d 063d d22f 263d cbe9 afbd c2ee fc3d
00000270: a08d 263d b134 cf3c 8e0f 6cbc df7d c73d
00000280: 5a66 303d 8ffa c93c 93ef 6dbd 711c 8dbd
00000290: a9df 333d 7b9d b53d 0ee2 a23c b4b9 43bd
000002a0: 73bb 1bba d979 9d3d 0b4e 32bd b08e 9e3d
000002b0: d4ea 35bc 8ef9 a6ba fdb7 48bd 9bfb aa3d
000002c0: 9bfd 413d 4f45 cc3d 1578 b3bd 26d7 6c3d
000002d0: e31c bf3d 2f11 d33c 0442 833d 1718 abbd
000002e0: 3bc8 f1bd 10a4 983c b19f 96bc 8a52 be3d
000002f0: 02fc 46bd 96d7 7c3c 133f 6abc 18c3 f03d
00000300: 3b60 b1bc acdc e8bc 85e6 dfbc dce5 143c
00000310: a0d2 c5bd 76d0 dabd ec7f fcbb 51e8 25bb
00000320: 5367 973d 5e02 cabd 069e f43d c853 20bd
00000330: 1cfb 62bd 0cd9 06be a32b 38bb eca6 41bd
00000340: f378 b73b 9985 d6bd 247e 8fbd 075b 693d
00000350: 42d1 4b3d 3beb dcbd cfab e93c 8f26 d4bd
00000360: 0748 57bd cf36 a93d 04a5 a1bd ebd2 d4bc
00000370: c1b2 81bd bd98 343d d2f3 dcbc 01b5 0b3d
00000380: fc08 ad3d 93f5 d83d c384 21bc 2966 5abd
00000390: 9e17 ab3d fb24 d23d cb92 86bd 86d1 80ba
000003a0: f2e8 91bd 9e8b c03d 5110 e2bd 658a a23d
000003b0: 6d6f 38bb 68e9 b6bb 8e3d 46bd 5565 01bc
000003c0: bbdd 00bc 8ee2 38bd 9b78 b43c 0f71 85bd
000003d0: 9b2b 04bd e59f 8b3d 4155 79bd dd8a 81bd
000003e0: 1525 3c3c 0e56 423d 71a3 d2bd 026c bf3d
000003f0: 9f46 923d b570 2f3a 08f3 68bd 2eea 9b3d

bias f4 [50]
0.016565643 -0.019004757 -0.02580315 -0.044027977 0.025202999 0.016563702 -0.007537515 0.0058511705
0.0018471237 -0.05072344 -0.038981106 0.030115467 0.06213849 0.015255118 0.024903234 -0.029671658
-0.0483454 -0.061712362 0.010718218 -0.020127878 0.013037147 -0.0312237 0.04037414 0.03563132
0.023039803 0.028428106 -0.00025221973 -0.02005406 -0.03014147 -0.02955964 -0.003164615 0.021012392
-0.00921943 -0.049148776 0.06623937 0.030807262 -0.016153632 -0.038244914 0.016690034 -0.035487097
-0.051204033 0.04033428 -0.032134686 0.030484239 0.024057893 -0.054571103 0.020300556 -0.009295355
-0.021961292 0.011580153
00000000: acb4 873c ddaf 9bbc 2161 d3bc ae56 34bd
00000010: 8576 ce3c 9ab0 873c 42fd f6bb 2dbb bf3b
00000020: 301b f23a 62c3 4fbd a7aa 1fbd b6b4 f63c
00000030: ee84 7e3d 9af0 793c de01 cc3c fa11 f3bc
00000040: d305 46bd 1ac6 7cbd 779b 2f3c 38e3 a4bc
00000050: c299 553c d8c8 ffbc 5b5f 253d 26f2 113d
00000060: f8bd bc3c 0fe2 e83c 5c3c 84b9 6948 a4bc
00000070: 3eeb f6bc 0f27 f2bc 6e65 4fbb 2e22 ac3c
00000080: 180d 17bc 3a50 49bd 82a8 873d 835f fc3c
00000090: 9f54 84bc b3a6 1cbd 8ab9 883c eb5a 11bd
000000a0: 52bb 51bd 8f35 253d a99f 03bd 15ba f93c
000000b0: 0f15 c53c f385 5fbd 5a4d a63c 8b4b 18bc
000000c0: 2be8 b3bc afba 3d3c

weight f4 [10, 50]
-0.2496364 -0.0032672945 0.10104818 0.23179395 0.12185613 0.19803783 -0.35311165 0.21692139
-0.2811182 -0.21629906 0.1830621 0.016824773 -0.12801008 0.10378912 0.021833252 -0.17323811
0.22055097 -0.3014997 -0.320193 0.2284198 0.03185494 0.26496753 -0.20776993 0.39108875
0.12618685 -0.2823631 -0.23453389 -0.036066867 0.04673611 0.2478082 0.13653924 0.0139182275
-0.005883115 -0.014156856 0.049691964 0.08829185 0.022638185 -0.15438418 -0.018437408 -0.27696496
-0.0024126084 -0.10368617 0.057668082 0.093679726 -0.33280656 0.059706055 0.30405772 -0.27015954
-0.26453862 -0.21179071 0.12874351 0.052600406 -0.16209249 0.20775712 -0.2592693 -0.0017464256
0.17289008 0.22021802 0.044424634 -0.034448024 -0.3166156 0.22584862 -0.03970069 0.124993935
0.09566135 0.26444834 -0.3804077 -0.4519806 0.15507068 -0.28849527 -0.0018179558 -0.16403522
-0.09144725 -0.15666513 -0.052350506 0.25816303 0.1319627 -0.19180101 -0.23326667 0.15554485
-0.22795044 -0.13183582 0.10587818 -0.44350284 0.06424703 -0.06736412 -0.18927059 0.011837237
-0.020749852 -0.18564193 -0.04768929 -0.098915726 0.068266235 -0.035733044 0.020306796 0.048838288
-0.2678521 0.032072157 0.21338564 -0.3629918 0.21314646 -0.08205344 0.1997416 0.0808488
-0.23261552 -0.2941619 -0.06782194 -0.0018559915 -0.2325433 0.06127192 -0.20022312 -0.14741851
-0.09657348 0.12179398 -0.08462554 0.32676992 -0.07774881 -0.25728685 -0.35232103 -0.44436565
0.05136089 -0.23977292 -0.020977305 0.15191253 0.17867175 -0.21704689 0.19641283 -0.12583114
0.12340717 0.19189103 0.26582447 0.066571675 0.13775502 0.23067154 -0.083414584 -0.32879543
-0.29777116 0.316676 0.14106426 0.0020149848 0.10202763 0.119876355 -0.018660778 -0.053045213
0.074764565 -0.13460843 0.2899282 0.25454444 0.1521026 -0.33315912 0.13356651 -0.10898177
-0.09694373 -0.026590396 -0.20513508 -0.047349732 0.17553274 -0.08349572 0.08098578 0.14147663
0.15912114 -0.21021907 -0.052011482 0.11859708 -0.07095306 -0.029262343 0.18123813 0.10556561
0.10307202 0.1085028 -0.11178038 -0.17417726 0.07245338 -0.16049716 -0.07080735 0.10857609
0.016028604 -0.07872228 0.1104442 -0.07549385 0.13493273 -0.0062853117 0.11866475 0.073708765
0.07496861 0.026430365 0.14620364 0.17565374 0.03861267 0.1191065 0.04978974 0.072843954
-0.10618321 -0.07359667 0.1357323 -0.123156734 -0.012733637 0.15841843 0.23845321 -0.07631543
-0.102938086 -0.021065773 -0.11234167 0.026595822 0.23142536 0.0959362 -0.022114512 0.08252796
-0.3165704 -0.17805874 0.25285506 0.038841408 -0.10676258 0.11811356 0.033705086 -0.16192551
-0.38079777 -0.3521592 0.3453442 -0.3577589 0.065242074 -0.08175693 -0.104977004 0.28125948
-0.20631397 0.21877204 -0.20800573 0.005790583 -0.2907817 -0.11018465 -0.26760042 -0.1268119
-0.016661426 0.18786158 0.0609556 -0.3009924 -0.13595061 0.031007325 -0.06733423 0.08544555
0.031207196 0.08284319 -0.09240513 -0.005562675 -0.35421464 -0.1259278 -0.09934308 -0.2820773
-0.30945745 0.34445333 -0.008888818 0.008098614 -0.016779223 -0.15328078 0.27320808 -0.2980557
00000000: afa0 7fbe 1b20 56bb 59f2 ce3d 655b 6d3e
00000010: b58f f93d 6eca 4a3e 0dcb b4be a420 5e3e
00000020: baee 8fbe 807d 5dbe a274 3b3e 1bd4 893c
00000030: 1315 03be 648f d43d a6db b23c 5565 31be
00000040: 1dd8 613e 2b5e 9abe 56f0 a3be e1e6 693e
00000050: 537a 023d d3a9 873e a4c1 54be c93c c83e
00000060: 2037 013e e591 90be a729 70be daba 13bd
00000070: 5d6e 3f3d 6fc1 7d3e f1d0 0b3e 4709 643c
00000080: 25c7 c0bb 28f2 67bc cd89 4b3d 5cd2 b43d
00000090: b773 b93c e316 1ebe 0c0a 97bc 5ace 8dbe
000000a0: da1c 1ebb 6a59 d4bd 5e35 6c3d 28db bf3d
000000b0: 9f65 aabe 568e 743d 74ad 9b3e 5a52 8abe
000000c0: 9b71 87be aadf 58be 57d5 033e 8673 573d
000000d0: 93fb 25be 48be 543e f2be 84be 52e8 e4ba
000000e0: 190a 313e d580 613e 9bf6 353d 5f19 0dbd
000000f0: 711b a2be dc44 673e 319d 22bd d2fc ff3d
00000100: 19ea c33d c665 873e ccc4 c2be 006a e7be
00000110: d9ca 1e3e a7b5 93be 7948 eeba d9f8 27be
00000120: b248 bbbd d36c 20be 7c6d 56bd f22d 843e
00000130: 3b21 073e 7c67 44be 75dd 6ebe 2647 1f3e
00000140: d76b 69be f8ff 06be a9d6 d83d ce12 e3be
00000150: f293 833d 33f6 89bd 26d0 41be f8f0 413c
00000160: 98fb a9bc eb18 3ebe d855 43bd 5494 cabd
00000170: 2bcf 8b3d d05c 12bd 705a a63c a80a 483d
00000180: e923 89be 185e 033d c481 5a3e 10da b9be
00000190: 1143 5a3e a20b a8bd 1089 4c3e 0e94 a53d
000001a0: c332 6ebe 639c 96be 3be6 8abd be44 f3ba
000001b0: d51f 6ebe 44f8 7a3d 4a07 4dbe e1f4 16be
000001c0: 51c8 c5bd 1f6f f93d 2850 adbd 634e a73e
000001d0: c53a 9fbd 1abb 83be 6c63 b4be e583 e3be
000001e0: cc5f 523d 0887 75be 99d8 abbc f58e 1b3e
000001f0: baf5 363e 8a41 5ebe 7220 493e e1d9 00be
00000200: e6bc fc3d 157f 443e 251a 883e bb56 883d
00000210: a70f 0d3e 2935 6c3e 44d5 aabd e057 a8be
00000220: 7675 98be 5b23 a23e 2673 103e d60d 043b
00000230: ddf3 d03d bc81 f53d 7dde 98bc f045 59bd
00000240: 2a1e 993d cbd6 09be 7871 943e a653 823e
00000250: c9c0 1b3e d593 aabe a9c5 083e d631 dfbd
00000260: 6f8a c6bd 1ad4 d9bc ee0e 52be cbf1 41bd
00000270: dbbe 333e ceff aabd dfdb a53d 40df 103e
00000280: a7f0 223e ab43 57be fe09 55bd 07e3 f23d
00000290: d74f 91bd 95b7 efbc 7d96 393e c832 d83d
000002a0: 6c17 d33d b736 de3d 1ded e4bd 865b 32be
000002b0: 7062 943d 5e59 24be 7203 91bd 245d de3d
000002c0: 6b4e 833c 2639 a1bd 9230 e23d 859c 9abd
000002d0: ce2b 0a3e 04f5 cdbb 8106 f33d 9ff4 963d
000002e0: 2589 993d 7e84 d83c 68b6 153e 93de 333e
000002f0: 5228 1e3d 1cee f33d 54f0 4b3d 362f 953d
00000300: 9576 d9bd dab9 96bd 68fd 0a3e 9939 fcbd
00000310: bfa0 50bc 7138 223e 142d 743e 444b 9cbd
00000320: 34d1 d2bd 2192 acbc 6413 e6bd 7bdf d93c
00000330: c5fa 6c3e 337a c43d 7e29 b5bc 6b04 a93d
00000340: 8415 a2be 0855 36be 3876 813e 2b18 1f3d
00000350: 57a6 dabd 86e5 f13d 580e 0a3d cdcf 25be
00000360: edf7 c2be 364e b4be f4d0 b03e 2d2c b7be
00000370: a39d 853d 2d70 a7bd 2ffe d6bd 3e01 903e
00000380: f843 53be c705 603e 74ff 54be eebe bd3b
00000390: 57e1 94be 7da8 e1bd ec02 89be fbda 01be
000003a0: 8b7d 88bc c95e 403e 94ac 793d ad1b 9abe
000003b0: a336 0bbe 1303 fe3c 87e6 89bd 14fe ae3d
000003c0: 3ca6 ff3c b1a9 a93d e73e bdbd 1a47 b6bb
000003d0: 9f5b b5be 38f3 00be 6274 cbbd 706c 90be
000003e0: 3571 9ebe 305c b03e 68a2 11bc 0db0 043c
000003f0: 9574 89bc a3f5 1cbe eee1 8b3e c29a 98be

bias f4 [10]
-0.072453246 0.13541172 -0.03121705 -0.1196552 0.06730443 -0.014502038 -0.11150191 0.08795602
0.09585236 0.01460652
00000000: 5e62 94bd 5fa9 0a3e e6ba ffbc c90d f5bd
00000010: e8d6 893d f599 6dbc 1d5b e4bd 4922 b43d
00000020: 3e4e c43d 2f50 6f3c
