Computational Intelligence/aeh330_5/resultsclassifier_cnn_4.model (torch, 111319 bytes, 6 tensors)

weight f4 [32, 1, 3, 3]
00000000: 6962 05be 7d00 b2bd 49ce c7bd b67b 953e
00000010: f970 7ebe e51e 9cbd c091 c73d 5143 333d
00000020: 4b78 e63d 6800 ec3c 2eec 093e 2f00 a3bd
00000030: a2fe 2a3b 4d40 073e 1bb9 2e3e be41 8cbe
00000040: 9941 c23c 4efe b7be a917 f93d fbd2 18be
00000050: d608 a0bc cde8 90be 9b37 efbc a988 1b3e
00000060: dd78 643e 76d9 9dbd c221 63be ce43 53be
00000070: e154 623e 306a 7d3e 89b6 513e babf 98be
00000080: 8fae 9ebd df8c 1b3e 58e6 fabb 5a1d 40bd
00000090: e688 773c d93a 173e 92a5 96be d745 67bd
000000a0: 82c7 8b3e 0cc8 4fbd 1666 93be 7027 623d
000000b0: cc8a 14be 1325 a43d 9651 143d cb6d 2c3e
000000c0: c5b5 983b ab18 57bd f152 cbbe 80d3 4d3e
000000d0: 8fdd b5be d5dc 123e ef2a 53bc 925d 62be
000000e0: 0416 843d 5d14 fcbb 5b18 3f3e 9252 06be
000000f0: 1c51 7abd 34b9 803e 2020 0c3e b1b6 73be
00000100: 12ec cebc 35b4 153e 8a48 82bd 353c d53d
00000110: 80a1 27be 6ec9 fd3d 80f3 863e 8d82 babe
00000120: 33cc fd3d f381 0dbe e11d 643e f724 c33d
00000130: 013a 56be 487b a8be 7178 4a3e 0e8a 6f3e
00000140: ef7f 86be 5e99 50bd 6414 9dbe 92f8 c03d
00000150: dd18 5f3e f4b1 a53d 9a4e b4be efb2 efbd
00000160: bd40 233e 9d6e e73d ea26 cf3d 5a2d 81be
00000170: 4b7b dbbd 266a c33c fd6d 2fbe e2c3 753e
00000180: b2a8 ef3c d85d 81be 6403 adbd 5c92 d3bd
00000190: 04ee a43e 9bf5 1bbe 811a 8e3d e5e6 d93d
000001a0: 9cb2 88bd ad85 5dbe 7341 96bc ef10 d6be
000001b0: d376 7bbe bbe3 f4be ef95 983e cbf2 c43d
000001c0: 82e2 3c3e 0e02 733c 258e d03d 5914 a6be
000001d0: 290a 5c3e e850 ee3c 30c5 a73e e859 bfbc
000001e0: 9bed 8abe 0e64 4a3e 17fc 863b 999d 023e
000001f0: a893 af3e 473f 5abc d2dc afbe 8845 3fbe
00000200: 3c1f 8a3d 0cce 153e 2ce1 b53e 2fb5 a5be
00000210: 3146 f23d d726 43be de27 3f3d be09 263e
00000220: 2b3e aebd c614 953b 40dd d8bb 5e1c 9dbe
00000230: d7fe febd 95ce 89be 4b45 34be b819 823e
00000240: 7777 e0bb 78b7 18be 3e01 18be 1d11 9c3d
00000250: a9bd 9b3d 8a0f 683e f2cf 3abd 16f6 b23d
00000260: a0a4 65bc ceef 97be 68e2 083e 593c 733e
00000270: 072e a3be c2dc 083e 8eb1 a73d b0fb b83d
00000280: 0103 44be 4945 873b 95f1 7c3e a645 29be
00000290: d90a ff3d 85f3 20bc 9053 97bc 19de ea3d
000002a0: 613a 68be 3bad 9dbe 4fb1 0cbe 3cc6 083e
000002b0: 9fa3 12be 6704 50be 1c9f 9fbe 70e1 bfbe
000002c0: 5907 d8bd 1d83 67bd adce 903e 8072 573e
000002d0: e1dd fe3d ad98 c23e 6f43 cbbd f94d 0cbe
000002e0: 03e6 4cbe 6822 923d abbb 843e 8e00 7ebe
000002f0: 69d1 c03c 694a 333d bf9f 45bd fe1f 8ebe
00000300: 970d b9be aefe 103d 1f76 09be 6efe 7f3e
00000310: 46fe bf3d dd9f 173e 7dcb 90be a082 1ebe
00000320: 7911 8cbe bf33 7f3d 90a8 e23d 661b c93d
00000330: 5bbe c23e 7697 fe3c c69e 19be 7de4 96be
00000340: ad3f 75be 8924 373d ce0c a03e e709 b13d
00000350: d06f 843e 5a37 42be ac51 eb3d 5118 abbd
00000360: b8b6 a63e e1f5 77be 053f e63d 5a13 e9bc
00000370: 3075 cf3d e6db d2be 9aab 453e 4c1e 70be
00000380: 1441 903d ef90 a73e 603e 3b3e 542c 2ebe
00000390: f129 a7be 412f 9b3d a482 b63e 9b4f 92be
000003a0: 3073 313e 0a4e e03e ade5 53be 14ba 7b3e
000003b0: 66ff 073e cfd1 3a3d 12cd 373e 3074 12bc
000003c0: 7b84 563e bc07 933d 7c7d 40bd 4f6b 93be
000003d0: 149e 89be 8fa5 85be 9e5d a6bd 60ca df3d
000003e0: 653a fc3d 463b 9dbe a37e 96bd 9d7f 9e3e
000003f0: 3af4 bbbc c833 153e e50f 853e 46c0 9cbe
-0.13025822 -0.086914994 -0.09756143 0.29195946 -0.24847783 -0.0762308 0.097445965 0.04376537
0.11253413 0.028808787 0.13469002 -0.079590194 0.0026091714 0.13208123 0.170628 -0.27393907
0.02371292 -0.35936207 0.12162716 -0.14924233 -0.019535463 -0.28302613 -0.02920132 0.1518885
0.2231173 -0.07707493 -0.22180846 -0.20631334 0.22102691 0.24747539 0.20479788 -0.29833776
-0.07748138 0.15190457 -0.0076568536 -0.04690299 0.015108323 0.14768542 -0.29423195 -0.05646309
0.2730065 -0.05072789 -0.28788823 0.05521339 -0.14506072 0.08014884 0.03621062 0.16838758
0.0046603405 -0.05251376 -0.39711717 0.20100212 -0.35520598 0.14342053 -0.012888654 -0.22106007
0.06449512 -0.007692857 0.18661635 -0.13117436 -0.06111251 0.251413 0.1368413 -0.2380016
-0.025259051 0.14619525 -0.06361492 0.10411874 -0.16370201 0.12391935 0.2635765 -0.36427727
0.123924635 -0.13819103 0.22277023 0.09528535 -0.20920564 -0.32906556 0.19772507 0.23392507
-0.2626948 -0.050927512 -0.3067962 0.09422411 0.21786828 0.080905825 -0.35216218 -0.11704051
0.15942664 0.11300395 0.10114844 -0.25229913 -0.10716876 0.023854326 -0.17131801 0.24000505
0.029255245 -0.2526691 -0.08447912 -0.1033065 0.32212842 -0.1523041 0.06938649 0.10639743
-0.06674692 -0.21633025 -0.018341755 -0.41809794 -0.24557047 -0.47829995 0.2980189 0.096166216
0.18445781 0.014832033 0.10183362 -0.324374 0.21488251 0.029091313 0.3276763 -0.0233583
-0.27134404 0.1976473 0.004119407 0.12755431 0.3429234 -0.013320751 -0.3434816 -0.18678868
0.06744239 0.14629382 0.35523355 -0.32364795 0.11829794 -0.19057785 0.04666888 0.16214654
-0.08507951 0.0045495955 -0.006618172 -0.30685705 -0.124509506 -0.26915422 -0.17604558 0.25410247
-0.006850179 -0.14913738 -0.14844224 0.076204516 0.07604534 0.22662178 -0.04560847 0.087383434
-0.0140163 -0.29675144 0.13367617 0.2375349 -0.31871054 0.13365462 0.08188163 0.090323806
-0.19141771 0.0041281325 0.24701531 -0.16530475 0.12453241 -0.009823685 -0.018472463 0.11468143
-0.2267852 -0.30796227 -0.13739513 0.1335687 -0.14320229 -0.2031418 -0.31176078 -0.37476683
-0.105482765 -0.056521524 0.2828268 0.21039772 0.12444664 0.38007107 -0.09924971 -0.13701619
-0.20009618 0.07135469 0.2592443 -0.24804899 0.023537355 0.043772135 -0.04824805 -0.27758783
-0.3614318 0.03539913 -0.13423966 0.24999401 0.09374671 0.14807077 -0.2828025 -0.15479517
-0.2735708 0.06230521 0.11067307 0.09819679 0.38035855 0.031078082 -0.15001974 -0.29471198
-0.23950072 0.044712577 0.3125977 0.08644467 0.25866556 -0.18966427 0.11490187 -0.08354247
0.32561278 -0.24214889 0.11242489 -0.02845161 0.101297736 -0.41183394 0.19303742 -0.23449057
0.07043663 0.32727763 0.18285513 -0.17009097 -0.32649186 0.07577372 0.35646546 -0.2857636
0.17329097 0.4380954 -0.20693083 0.24582702 0.1328102 0.045610245 0.17949322 -0.008938834
0.20948975 0.071792096 -0.04699467 -0.28792807 -0.26878417 -0.26102874 -0.08123325 0.10927272
0.123158254 -0.30709285 -0.07348373 0.30956736 -0.022943605 0.14570534 0.2598869 -0.30615443

bias f4 [32]
00000000: 7a0a ccbe c369 cdbd f8fe 29be 87f2 44be
00000010: 50da ecbc 9363 f6be 8aee 443a 0117 5abe
00000020: 1dc7 3d3e b974 fabe e41e 0ebe 3993 88be
00000030: 0232 dbbe 7381 b8be 1bd0 873b d7c6 b7bd
00000040: 868f b3be 003c ecbd 6b8c 01be e338 c8bd
00000050: 9fff bcbe b152 b7be 992b d63d ca60 1bbf
00000060: d46d 75be 7116 d2bd 36b0 0cbf ef6c 89be
00000070: 3cd6 57be 7e7a 80be 4985 03bf 8e03 c5be
-0.39851743 -0.10029938 -0.16601169 -0.19233142 -0.028912693 -0.48122844 0.0007512352 -0.21297838
0.18532987 -0.48917177 -0.13878971 -0.26674822 -0.4281159 -0.36036262 0.004144681 -0.089734726
-0.35070437 -0.115348816 -0.12651221 -0.09776475 -0.36913773 -0.35805276 0.10457534 -0.60694563
-0.23967677 -0.102581866 -0.54956377 -0.26840922 -0.21077818 -0.25093454 -0.5137525 -0.38479275

weight f4 [50, 512]
00000000: b5b7 6f3d b632 033d 6c5d 9dbc 3ec2 82bb
00000010: ac70 423d 893c 0ebd 685f 5fbb f22b 28bc
00000020: a783 1fbc 0a70 3d3d 1454 f0ba 1e18 613b
00000030: d11e 953c 5fc1 04bc dd4a 28bd 522c 9abc
00000040: 112d 34bd dd3b 00bd e729 0ebd 0b27 60bc
00000050: 7531 24bc 355e 1fbd 6920 7fbd e213 13bd
00000060: 2888 66bd 8ce9 42bd f375 56bd e285 8abc
00000070: f6b9 2fbd d9a0 50bc bcc4 4dbd 9297 a8bc
00000080: 8103 33bc cc30 32bb 3a40 1dbd 84d4 17bd
00000090: 5647 fabb d94f 47bd 1664 75bd 9fbd 42bc
000000a0: 5e9b 38bc 986a ecbb 6445 f8bc 1d68 523c
000000b0: 7de4 d13b f814 f0bc 50fb dc3b acfc c6bc
000000c0: 3f91 0fbd 45ec 7dbd 4691 5dbc a9de 9cbc
000000d0: 5d52 fcbc 76df 2c38 73e2 0bbd db97 ef3b
000000e0: 10c2 6dbd 3c47 1ebd f79b 90bd 0fee 96bc
000000f0: ead2 2dbd e10f 56bd 43e5 55bd 58c2 fbbb
00000100: a7b6 303d bc16 b8bc 71c0 f1bc ad85 88bc
00000110: 5333 343c bc2e 8a3d e158 81bc 2d07 eb3c
00000120: 537f b6bc d082 3d3d 5717 88bd f87a 38bd
00000130: a9a4 093c 678c dcbc 36b8 3cbd 0ea9 50bd
00000140: 391b 0bbc 44b5 7b3d d2f6 5fbd b156 07bb
00000150: ef34 18bd 72d8 74bd fbf4 71bd 5986 53bd
00000160: af9d 48bc ed56 d13c 047c 93bd 1176 3fbd
00000170: 457c a9bc 86ff b4bb 8cb1 5ebd f652 a7bc
00000180: a2fa 25bd deb8 47ba 1bd3 bcbc 3e97 72bc
00000190: ba08 cbbc b1b9 10bc e29f dfbc b307 38bd
000001a0: 21d7 65bc 3cac 46bd 342e 38bc 082a 44bd
000001b0: ea42 b0bc 21cb c33b 6d9d 4abd 8a72 73bd
000001c0: 651f 433d d2e5 7dbd 9bb0 4f3c 5845 c6bc
000001d0: 4974 8dbc 2c09 4cbd c503 ddbc 50a9 50bd
000001e0: 656b 413b b5af 55bc 90b8 45bb f448 3cbc
000001f0: fa8d 3bbb 0889 7dbb 10d0 30bd 4210 d9bc
00000200: a799 22bc 0eb4 93bc f427 97bd 5594 743b
00000210: 241f 9b3b 5475 62bd fb57 61bd 5dcc 19bd
00000220: 4d12 f2bb e67b 29bd 5f5c 66bd 97a8 01ba
00000230: c553 93bd 2666 763a 15a3 103c d58e 01bc
00000240: ba76 7cbd 0a54 bcbc f4ac 2abd 919b efbc
00000250: 202b 3bbd 977b 76bd 9bab 70bd dbcb 30bc
00000260: 3b4a 22bc 19a1 d93b 3ccd dfbc e188 30bd
00000270: 1e69 14bc 1a60 23bd d97b 273c 72d1 2d3c
00000280: 83a4 8ebd 045e bbba ecc1 1cbd d1d6 55bd
00000290: 77b5 a538 9569 27bd cff0 3dbc d02f a0bc
000002a0: 4033 b73b 16fd 343c e568 a3ba 68ad 54bc
000002b0: 58c0 d3bc da8a 933a 1c08 28bd fee1 5dbd
000002c0: fd09 903d f7ed b2bb 64e4 6fbc e0ba 84bc
000002d0: ffa9 e03c 4431 013b 94b5 c2bc 48ff 01bd
000002e0: 8772 403d 4f53 893c 72d0 b73b d85b 99bc
000002f0: 02d4 ee3c be9d 8cbd 3ef0 273c 7d1e 1dbd
00000300: 39e2 44bd ea7c 34bd bd23 1fbd 833c 89bc
00000310: 6f06 03bd edc7 45bb d3c5 7bbc 6e1c df3c
00000320: 2c96 15bd f38c 33bd 0ca6 3f3c 59e8 1d3c
00000330: b9db efbb f745 64bd 98d8 fc3c 19dc 54bd
00000340: 9342 44bb 7607 96bd 4428 2d3c 55a2 093c
00000350: 0032 36bd 4828 52bd df77 77bd cc60 17bd
00000360: b14a aebb 969a 8cbd 418c d4ba 1bdc 20bd
00000370: a1fa 2cbd b823 e839 633b 96bd 4318 173c
00000380: 9b16 32bd 6b58 0fbd ba49 f03b 6866 88bd
00000390: bde7 c0bc 8109 8c3d 02df cdbc 1540 3f3c
000003a0: 0e19 80bd e7a7 90bd 02f2 5dbd 4f82 71bd
000003b0: 019e 4abd fcd2 65bd 5927 303d f4a0 d33b
000003c0: f8b0 07bb e8bf 793d 3698 873c e1d1 df3c
000003d0: 0aa9 8fbd 4847 97bc 31b8 af3c cae9 7d3d
000003e0: ef03 69bd 8bc4 8e3c 28bd 083c 87cc 1f3c
000003f0: 6f8d 41bd 84fc 883c 38d7 2b3d e1be 103d
0.058524806 0.032030784 -0.019209586 -0.0039904406 0.047470734 -0.0347257 -0.0034083966 -0.010264384
-0.009735978 0.046249427 -0.0018335604 0.003434665 0.018203171 -0.008102744 -0.04108702 -0.018819962
-0.04398829 -0.03130709 -0.03470793 -0.013681184 -0.010021557 -0.038908202 -0.062286768 -0.035907634
-0.056282192 -0.04758601 -0.05235858 -0.016909543 -0.042901956 -0.012733662 -0.05023645 -0.020580087
-0.010926128 -0.002718973 -0.03839133 -0.037067905 -0.0076378984 -0.048660133 -0.059909903 -0.0118860295
-0.011267511 -0.0072148554 -0.030306526 0.012842205 0.0064054118 -0.029306874 0.006743826 -0.024290405
-0.035050627 -0.061992902 -0.013523405 -0.019149141 -0.030800993 4.121611e-05 -0.034151506 0.0073118038
-0.0580464 -0.038642153 -0.07060998 -0.018424062 -0.04243747 -0.052261237 -0.052220594 -0.0076830797
0.04314294 -0.022471778 -0.029510709 -0.016665304 0.010998565 0.06747195 -0.015789451 0.028689945
-0.02227751 0.04626733 -0.06645077 -0.045039147 0.008401074 -0.026922418 -0.046074115 -0.050942473
-0.008490377 0.061452165 -0.054678746 -0.0020651037 -0.037159856 -0.05977673 -0.059071522 -0.051641796
-0.012244626 0.025554145 -0.072013885 -0.046743456 -0.02068914 -0.005523625 -0.05436854 -0.020425301
-0.040522225 -0.0007618795 -0.023049882 -0.014806567 -0.024784435 -0.008833335 -0.027297918 -0.044929218
-0.0140283415 -0.0485041 -0.011241484 -0.047891647 -0.021516282 0.0059751426 -0.04946654 -0.059435405
0.047637362 -0.06198675 0.012676383 -0.024202988 -0.017267363 -0.049813434 -0.026979337 -0.05094272
0.0029513475 -0.01304238 -0.0030169822 -0.011492003 -0.002861856 -0.0038686413 -0.043167174 -0.02649701
-0.009924329 -0.018030193 -0.07380667 0.0037319858 0.004733937 -0.055287674 -0.055015545 -0.03754841
-0.0073874355 -0.041377924 -0.056240436 -0.00049460813 -0.07193712 0.00093993766 0.008827944 -0.007907589
-0.061636664 -0.022989292 -0.041668847 -0.029248985 -0.045695424 -0.06017646 -0.058757406 -0.01079079
-0.009905393 0.006641519 -0.027319543 -0.043099288 -0.009058265 -0.03988657 0.010222399 0.010609018
-0.06964972 -0.0014294987 -0.038270876 -0.052206818 7.9016136e-05 -0.040872175 -0.011593058 -0.019554049
0.0055908263 0.0110466685 -0.0012467174 -0.012980796 -0.025848553 0.0011256591 -0.04102336 -0.0541706
0.07033155 -0.0054604965 -0.014641855 -0.01620239 0.02742481 0.0019713202 -0.023768224 -0.031737596
0.04698422 0.016763357 0.0056095654 -0.018720552 0.029153828 -0.068660244 0.010250149 -0.038359154
-0.048067305 -0.04406444 -0.038852442 -0.016752487 -0.031988557 -0.003017898 -0.015366989 0.027235236
-0.03652017 -0.04383559 0.0116973035 0.0096379155 -0.007319894 -0.055730786 0.030864999 -0.051967714
-0.0029946908 -0.07325642 0.010568682 0.008400519 -0.044481277 -0.051307946 -0.060417052 -0.036957547
-0.0053189625 -0.068654224 -0.0016216115 -0.03927241 -0.042231206 0.000442771 -0.07335546 0.009222093
-0.04347859 -0.03499643 0.0073330076 -0.066601574 -0.023548001 0.0683775 -0.025130752 0.011672993
-0.06254779 -0.07063275 -0.054185875 -0.058962163 -0.04946709 -0.056109414 0.043006275 0.006458396
-0.0020704847 0.06097403 0.016552072 0.027321758 -0.070146635 -0.018466607 0.021450134 0.061990537
-0.056888517 0.017427703 0.00834588 0.009753353 -0.047254022 0.016721971 0.041953295 0.035338286

bias f4 [50]
00000000: d178 5cbd ee7e 2e3d 81d1 773d 760f 90bb
00000010: fd08 863d 6188 09bb 4b22 643c 037e fc3c
00000020: 82ba 283d 630d 073c 65b9 8abd c063 943c
00000030: 47fc 1e3d 4657 233d 96c9 6cbc 2366 85bc
00000040: 7a3e a43c 4402 13bd c884 343d 2d31 4f3d
00000050: d280 4c3c f66c 223c c5f2 063d 3987 4a3d
00000060: 0f50 043d 8df9 2f3b fe90 a6bc cbf0 fcba
00000070: 84d0 103d e87e 113b ab60 ef3c 38be 8f3d
00000080: 36c8 4fbd 96e4 96bd 7624 1c3b 2046 fc3a
00000090: 5193 67bb ca79 cf3c 439f 39bd a3f9 9abc
000000a0: 3a3a 4b3d c846 0a3d f484 383c 7e45 093d
000000b0: 7303 f4bc eff4 81bc 61b5 903c 9f04 53bd
000000c0: 80da d1ba 21a8 32bc
-0.053826157 0.04260152 0.060502533 -0.0043963743 0.06544683 -0.002098583 0.013924192 0.030821806
0.041193493 0.008242938 -0.067736425 0.01811397 0.03881481 0.039878152 -0.014452359 -0.016284054
0.020049322 -0.035890833 0.044071943 0.050584007 0.012481885 0.009913674 0.032946367 0.049445365
0.032302912 0.0026851625 -0.02033281 -0.0019297836 0.035355106 0.0022200886 0.0292209 0.07018703
-0.050728045 -0.07367818 0.0023825443 0.0019246973 -0.003533561 0.025326628 -0.0453179 -0.018917864
0.049616076 0.03375891 0.011262167 0.03351354 -0.029786801 -0.015863864 0.017664613 -0.05151808
-0.0016010553 -0.010904343

weight f4 [10, 50]
00000000: b6af 403d 509b 87bd 52dd 183c 31d9 45bd
00000010: 6213 febd 0702 1e3d 16f0 e9bd e0f0 143e
00000020: 386b 003f 08a9 22be 4b8d cc3c 3c62 d5be
00000030: 6bd6 e13d 3c74 d33c f48f 5ebc c5f3 c7be
00000040: 3cf8 903e 41e8 013e e62c f93d 32e2 acbe
00000050: 44e4 313d 9780 e5bd 2a08 c33c 8ec0 12bd
00000060: 8cfd ddbd 9670 d93d a7d6 c43e bbd2 e03e
00000070: d85b 833d 41a4 a2be 6f46 73be ea95 a8bd
00000080: 58c1 263e 6d3b 743c 7c17 03bd 08ed 553e
00000090: bff7 8fbe 631d b33e 91ea 84bb ed89 853e
000000a0: 39cc 93bd 11ab a6bd 41fc 4ebe 1075 ebbe
000000b0: 2dcd 81be 1869 11bd b603 bcbc a81b f2bb
000000c0: bb14 a4be 23e7 0bbe e099 5b3c f2fc 67bb
000000d0: 0d6d 283e d3d6 11bc f0a8 ca3b af4e 7e3d
000000e0: 0094 253c 8888 08bf 8cbd b63e 1174 f83c
000000f0: 24e6 a13c 693b 813e 65d6 2fbd e9a7 e1bb
00000100: 67fa 29bc cbb4 573e 3824 24be 14da b7be
00000110: be45 d73d c5f5 5a3e 9fb7 b53c 0494 5b3d
00000120: 2e47 483d 5b14 b4bd ea12 c43c c965 afbc
00000130: 3a0a 3d3e 9450 eabd b205 84bc 3292 9f3e
00000140: 1561 943e 6c32 a5bd b72c 3fbe 073a b73b
00000150: 0cd9 6abd 72f8 73be 143e fa3e c7a5 7ebe
00000160: 0fab 2bbd e1a3 8f3e cb09 893e f58e ba3c
00000170: f97c 833e af44 c43e bc2f 153e 15dc ab3d
00000180: 4df4 15be b874 99ba 73f2 81be 3852 413d
00000190: 721d f2bc 794a d13d 775c a73d 763d ecbd
000001a0: b11d 7f3d d8a5 e53d 5d4a c93d 8fa3 93be
000001b0: 546f 6dbd b042 57bd 16d1 9f3d 3ce0 873e
000001c0: 4634 95bd 52b0 d2bb daee 8a3d 2637 c43e
000001d0: 86fb a13e 7b0a a5be 067a cc3d 8665 15bd
000001e0: 56b6 a03d bb71 823d 3d73 d33d edfd a13b
000001f0: 745d d2bd 6384 42bd b1f0 94be 5ddc d1bc
00000200: 8738 123c c2b1 a23e 85a9 863e bc75 3f3c
00000210: f31d 85be c026 943c 05e5 0abe 2fa9 b7be
00000220: 1104 72bd 74ba ef3e d033 d6bd 6d7f edbd
00000230: 4680 f3bd e399 7f3d f3ee 5a3e 608e 0fbf
00000240: 75ac f83d daa6 babd 9ef5 633e ec38 023c
00000250: 153f c5be 6020 8b3d d9c2 d63c 1a5b 02be
00000260: 3137 163d 998d 643d 690a 7b3d 46b6 753d
00000270: dbb1 19bd cdcc 7abe 7449 18be 825d f13d
00000280: 8c44 c9bd dff3 a93e e5f7 cd3d 2b32 23bd
00000290: 5505 87bc 0859 593e f39c 873e b564 963e
000002a0: 4696 9e3d 0b38 883e ed64 b23d 2975 60bd
000002b0: 3fc0 d23d 6be9 05be c7a3 92bd 23db 243d
000002c0: 2b75 c7be 6751 8abe fbb0 013d 4933 9f3e
000002d0: ed92 b7be 0b18 1cbe 013e 703e 7435 8dbd
000002e0: b2ef d03d 5827 963e 9c24 1bbe e5ca 013f
000002f0: 12ca 7b3d 5496 74ba 8970 92bc 92e8 8cbb
00000300: 3dce 123e 62f9 9f3e 158f 8e3e db8e 893c
00000310: 673d b4bd 7ca8 043e 71d7 ee3e 5317 0abe
00000320: 4dfc af3c b586 31bc 423b 9e3c de6c 803d
00000330: 1568 de3d d8db eabc e80e 9ebd 0405 6d3e
00000340: dc36 fb3e ac5a 15be bf44 053e ec3c a7be
00000350: 6711 dc3d 47f4 f7bd 7ff0 b93c 42dd 7f3e
00000360: c6ed f7bd 0255 63be f6d6 37be bb4e d43e
00000370: e58d a2bd a4ac 8fbe 494c bcbd f3a4 903c
00000380: 2dbd 43bd cede 023e 6eeb 993e 23ad 57be
00000390: 2279 dabd 5ee6 c6be 4edb b1be 7ea6 dcbc
000003a0: 2c9b cbbe f094 4cbd 38d6 27bd 6a77 8ebe
000003b0: f9ed f03e 0923 80be 08bb 02bd 631e 973e
000003c0: 5832 f43d 06c6 1abc cd60 7ebe 2e87 473e
000003d0: 0e7f 39be 0476 d2bc c29f 18be 378e f83d
000003e0: 13ba c13e f8b7 1b3d 75e2 2ebd 1c4a ce3b
000003f0: fdf0 7bbd 508d 8dbd 0366 4e3e e17e 42bb
0.04704257 -0.066214204 0.009330111 -0.048302833 -0.12406041 0.038576152 -0.11422746 0.14545012
0.501636 -0.15884793 0.024969717 -0.4167651 0.11027225 0.02581226 -0.013584126 -0.3905317
0.28314388 0.12686254 0.12166767 -0.33766323 0.04343058 -0.11206167 0.023807604 -0.035828166
-0.10839376 0.10617177 0.38445017 0.43910775 0.06414002 -0.3176594 -0.23757337 -0.08231719
0.16284692 0.014906746 -0.03200482 0.20891201 -0.28118703 0.34983358 -0.004056283 0.26081792
-0.07216687 -0.08138097 -0.20213415 -0.4598775 -0.2535185 -0.035500616 -0.022950988 -0.007388551
-0.32047066 -0.1366239 0.013403386 -0.003539857 0.1644785 -0.008901316 0.0061846897 0.062086757
0.010106087 -0.5333333 0.35691488 0.030328782 0.01976306 0.2524064 -0.042929072 -0.0068864715
-0.010374642 0.21065061 -0.16029441 -0.35908568 0.10511349 0.21382816 0.022182284 0.053607956
0.048896007 -0.08792945 0.0239348 -0.02141084 0.18460932 -0.1144115 -0.016115997 0.31166226
0.28980318 -0.08066258 -0.18669401 0.005591634 -0.0573359 -0.23825243 0.48875487 -0.24867927
-0.04191118 0.28054717 0.26765284 0.022773245 0.25681284 0.3833365 0.1456899 0.08391587
-0.14643975 -0.0011707759 -0.25380287 0.04719755 -0.029555056 0.10219283 0.08171933 -0.1153516
0.062284175 0.11213273 0.09828637 -0.28835723 -0.0579675 -0.052553833 0.07803552 0.26538265
-0.07285361 -0.0064297104 0.067838386 0.38323325 0.3163721 -0.32234558 0.099842116 -0.036473773
0.07847278 0.063693486 0.10324714 0.0049436004 -0.10271731 -0.047489535 -0.29089883 -0.025617773
0.00892461 0.31776243 0.26301208 0.011685785 -0.25999412 0.018084884 -0.13563927 -0.35871264
-0.05908591 0.4682194 -0.10459101 -0.1159657 -0.118897006 0.062402617 0.21380214 -0.5607662
0.121422686 -0.09113856 0.22261664 0.007948142 -0.3852469 0.067932844 0.026215957 -0.12730065
0.03667373 0.0557991 0.061289225 0.059988283 -0.03752313 -0.24492188 -0.1487177 0.11785413
-0.098275274 0.3319387 0.10057048 -0.039842766 -0.016482035 0.21225369 0.2648693 0.29373708
0.07743506 0.26605257 0.08710656 -0.054799233 0.10290574 -0.13077323 -0.07160144 0.040248048
-0.3895658 -0.2701523 0.031662922 0.31093815 -0.35854283 -0.15243547 0.23461153 -0.06894961
0.10201968 0.29326892 -0.15150684 0.5070022 0.061472006 -0.0009330262 -0.017875927 -0.0043001855
0.14336486 0.3124495 0.27843538 0.016791752 -0.08800774 0.12954897 0.46648744 -0.1348546
0.021482611 -0.010835339 0.019315366 0.06270765 0.10859696 -0.028669283 -0.07717687 0.23146445
0.49065292 -0.1458537 0.13014506 -0.32663667 0.10745507 -0.12107139 0.022697685 0.24986747
-0.121058986 -0.22200397 -0.17953095 0.41466317 -0.079372205 -0.28061402 -0.09194238 0.017656779
-0.047787834 0.12780306 0.3006243 -0.2106214 -0.106676355 -0.3884763 -0.3473763 -0.026934858
-0.39766824 -0.049946725 -0.04097578 -0.2782548 0.4705656 -0.2502673 -0.03191665 0.2951537
0.11923665 -0.0094466265 -0.24841614 0.1948516 -0.18114874 -0.02569104 -0.14904693 0.121365
0.37837276 0.038017243 -0.042696435 0.0062954556 -0.06150912 -0.06911719 0.20156102 -0.0029677677

bias f4 [10]
00000000: 7c33 083e 69eb acbc f9b7 a63d 5d2a c13d
00000010: 3cb1 3dbd 0cbf d33d 3cf7 413d d8f2 d4bd
00000020: da99 973c 6352 283d
0.1330089 -0.021108346 0.08140559 0.09431908 -0.046311602 0.10339174 0.04735492 -0.10397881
0.01850598 0.041094195
