Computational Intelligence/aeh330_5/resultsclassifier_cnn_19.model (torch, 111327 bytes, 6 tensors)

weight f4 [32, 1, 3, 3]
-0.24800032 -0.20958854 -0.28477293 -0.033001073 0.2682859 0.1853715 0.21768782 -0.0049988455
-0.26806894 -0.053773437 0.27420354 0.1499189 -0.040474117 0.15344052 0.07706481 -0.32812235
-0.16366962 -0.41020355 -0.0013424008 -0.31242713 -0.021739982 -0.2116102 0.18842575 0.129672
0.0022144374 0.24688259 -0.2761662 -0.039637245 0.10777286 -0.28375944 0.08569997 0.28925562
-0.016334638 0.025423769 -0.21973383 0.10580886 -0.14292902 0.10952021 0.058363203 -0.2555674
0.23771171 -0.36608317 0.04204383 0.09212442 -0.28327742 0.06761357 0.25269654 0.0009708335
-0.0021714293 -0.13609192 -0.14497346 0.098246895 -0.048930872 0.06043465 0.053216923 0.114286445
-0.03958986 -0.3582026 0.14645705 0.2793269 0.11850419 0.23789652 -0.114833936 -0.13204618
0.12794083 -0.047514256 0.18675888 0.028304677 0.37517768 -0.21700314 0.014485847 0.07185114
-0.13764432 -0.3913097 -0.3155396 0.031771697 0.08734146 -0.008068289 0.2668303 0.29309466
0.042405285 0.1120562 -0.094890125 0.3083858 0.1842539 0.05478372 -0.12770121 -0.34732717
-0.33469164 -0.21799155 0.02311814 0.1672827 0.024876991 -0.362035 -0.25222635 0.14147244
-0.07870491 0.1602356 -0.26185697 -0.020512292 -0.09547439 -0.21894228 -0.02898662 -0.24050999
-0.33432496 0.2463142 0.07155688 -0.08271925 -0.12839995 0.12504305 -0.24450481 0.07212046
0.027536022 -0.20410338 -0.3012938 0.23355252 -0.086140044 0.20276475 -0.1646236 -0.1537821
-0.26241717 0.11638256 0.08234958 0.25271904 -0.22448488 -0.09465536 -0.1527549 -0.066163376
0.060145196 0.090327956 0.14432378 -0.37737817 0.27872002 -0.39562693 0.18440911 0.13277125
-0.29796487 0.2368344 -0.368697 -0.04144063 -0.16090813 -0.109390944 0.30157045 -0.09932917
-0.15615316 0.34967753 -0.03075498 -0.18607594 -0.2461961 -0.16092207 0.14351505 -0.13061649
-0.15942717 0.27986756 0.047752436 -0.11151051 -0.13564463 -0.16712542 0.23688224 -0.15691939
-0.30837974 -0.03387727 -0.18684587 -0.31289467 0.18149102 0.19476946 0.15924016 -0.27957594
0.019222077 -0.2866633 0.20068213 -0.14100626 -0.27594322 -0.27865532 0.34146422 -0.0024899065
0.09188966 -0.3177836 0.25142673 0.10556057 -0.018471805 0.0009931546 0.09916932 -0.028944908
0.29603323 -0.3553019 0.09568873 0.27253276 0.012825705 -0.124281354 -0.15136763 -0.0045228093
-0.078883566 -0.23117584 -0.29288796 0.14810354 0.034944832 0.31715217 -0.31585205 0.079848565
0.22758637 0.06366652 0.15121582 -0.06559696 0.17336066 -0.30673987 -0.30933982 -0.13765407
-0.005000771 0.25144246 0.14079158 0.18954109 -0.17641488 -0.07728658 -0.2773562 -0.23447952
0.34024495 -0.18435238 -0.23788492 0.10303466 0.015594227 -0.11544479 0.038092542 -0.27513105
0.16864564 -0.1716079 -0.246728 -0.1530006 0.33478034 0.098064385 0.19252937 -0.25055405
-0.310746 0.12779282 0.124786586 -0.17412525 -0.0993439 -0.27905717 0.1178673 -0.1015365
0.20492595 0.15474029 0.32413444 -0.18868777 -0.1987621 -0.070844516 0.26275623 0.034096967
0.21643378 -0.029331075 0.041384626 0.026108762 -0.012902875 -0.06650968 0.0059473836 0.2510477
00000000: ccf3 7dbe 619e 56be c2cd 91be 222c 07bd
00000010: c55c 893e 07d2 3d3e 8ee9 5e3e 5bcd a3bb
00000020: 5540 89be 8941 5cbd 6864 8c3e 5784 193e
00000030: 30c8 25bd 831f 1d3e 28d4 9d3d a7ff a7be
00000040: 0299 27be 3306 d2be 7ff3 afba 73f6 9fbe
00000050: 0c18 b2bc 58b0 58be aef2 403e bdc8 043e
00000060: 1820 113b cace 7c3e a865 8dbe aa5a 22bd
00000070: 04b8 dc3d eb48 91be 7783 af3d 5019 943e
00000080: 38d0 85bc 8245 d03c e801 61be 51b2 d83d
00000090: fc5b 12be 224c e03d 410e 6f3d bbd9 82be
000000a0: b36a 733e 416f bbbe 2736 2c3d baab bc3d
000000b0: bd09 91be fc78 8a3d 7161 813e 897f 7e3a
000000c0: 8a4e 0ebb ae5b 0bbe ec73 14be ab35 c93d
000000d0: bd6b 48bd 538a 773d fdf9 593d 030f ea3d
000000e0: fa28 22bd 5566 b7be d6f8 153e ef03 8f3e
000000f0: 53b2 f23d 259b 733e 0e2e ebbd 1d37 07be
00000100: ec02 033e 4f9e 42bd b83d 3f3e 36df e73c
00000110: 4a17 c03e 1236 5ebe 0c56 6d3c b126 933d
00000120: a2f2 0cbe bf59 c8be 688e a1be 0a23 023d
00000130: 14e0 b23d db30 04bc fb9d 883e 8110 963e
00000140: 2ab1 2d3d b97d e53d c155 c2bd bee4 9d3e
00000150: 0ead 3c3e e564 603d 1bc4 02be ded4 b1be
00000160: b45c abbe 2d39 5fbe 4162 bd3c 284c 2b3e
00000170: d5ca cb3c a75c b9be d023 81be 27de 103e
00000180: 0a30 a1bd cd14 243e 1e12 86be 6509 a8bc
00000190: 1488 c3bd 6832 60be 5975 edbc 4048 76be
000001a0: a42c abbe ca39 7c3e 6a8c 923d b668 a9bd
000001b0: 477b 03be 490b 003e 785f 7abe e4b3 933d
000001c0: 3993 e13c 7a00 51be 2e43 9abe 6428 6f3e
000001d0: 316a b0bd 90a1 4f3e 1793 28be 0e79 1dbe
000001e0: 8b5b 86be fb59 ee3d e6a6 a83d 6464 813e
000001f0: 5ddf 65be abda c1bd c86b 1cbe aa80 87bd
00000200: cf5a 763d ddfd b83d 9dc9 133e b637 c1be
00000210: 64b4 8e3e 9d8f cabe bed5 3c3e 30f5 073e
00000220: da8e 98be b884 723e dac5 bcbe a6bd 29bd
00000230: 1ac5 24be 5c08 e0bd 7167 9a3e 186d cbbd
00000240: 9de6 1fbe ef08 b33e def1 fbbc b18a 3ebe
00000250: d51a 7cbe c1c8 24be 9cf5 123e 54c0 05be
00000260: e040 23be cd4a 8f3e 0f98 433d 9f5f e4bd
00000270: 6de6 0abe ed22 2bbe 4291 723e 7aaf 20be
00000280: f3e3 9dbe e4c2 0abd 8654 3fbe bb33 a0be
00000290: c8d8 393e a571 473e da0f 233e 9424 8fbe
000002a0: 9e77 9d3c 88c5 92be 9e7f 4d3e f263 10be
000002b0: 6e48 8dbe e9ab 8ebe 66d4 ae3e b32d 23bb
000002c0: a530 bc3d 88b4 a2be 01bb 803e 2430 d83d
000002d0: 2f52 97bc bd2c 823a 4919 cb3d df1d edbc
000002e0: ab91 973e 21ea b5be 74f8 c33d 6a89 8b3e
000002f0: e822 523c 3987 febd 1e00 1bbe 1334 94bb
00000300: b58d a1bd 5cb9 6cbe 69f5 95be 74a8 173e
00000310: 5022 0f3d c561 a23e 5cb7 a1be a587 a33d
00000320: 670c 693e 9863 823d 52d8 1a3e b357 86bd
00000330: 7585 313e 020d 9dbe ca61 9ebe 30f5 0cbe
00000340: 82dd a3bb 11bd 803e ab2b 103e 0f17 423e
00000350: 1aa6 34be 6d48 9ebd a201 8ebe 661b 70be
00000360: 9634 ae3e dfc6 3cbe 1b98 73be d603 d33d
00000370: ee7e 7f3c 516e ecbd ed06 1c3d fadd 8cbe
00000380: 71b1 2c3e fbb9 2fbe 44a6 7cbe 30ac 1cbe
00000390: 5468 ab3e fbd5 c83d 6b26 453e 9f48 80be
000003a0: 1a1a 9fbe 1fdc 023e 1c90 ff3d e44d 32be
000003b0: d174 cbbd 95e0 8ebe 6964 f13d 5ef2 cfbd
000003c0: 1cd8 513e 3d74 1e3e f3f4 a53e 5e37 41be
000003d0: 4b88 4bbe ee16 91bd fc87 863e 43a9 0b3d
000003e0: d1a0 5d3e b947 f0bc ed82 293d 0be2 d53c
000003f0: 9566 53bc 3a36 88bd 45e2 c23b 5389 803e

bias f4 [32]
-0.18412696 -0.037783798 -0.017300338 0.02916585 0.15851769 -0.29167438 -0.15923315 -0.08066287
-0.50932306 -0.22121176 0.042141892 -0.035805136 0.18854146 -0.22536667 0.067791395 0.03383671
0.15878204 -0.41171762 -0.060316086 -0.027087444 -0.46629876 -0.44304177 -0.520653 -0.26414418
-0.11145139 -0.27692467 0.0032769016 -0.018340148 -0.43728065 -0.20034282 0.075247735 0.19895479
00000000: c78b 3cbe 2fc3 1abd 70b9 8dbc 38ed ee3c
00000010: 7652 223e 5856 95be 040e 23be 9332 a5bd
00000020: ff62 02bf 5685 62be fa9c 2c3d 68a8 12bd
00000030: 0311 413e 85c6 66be 37d6 8a3d 5d98 0a3d
00000040: c297 223e a7cc d2be 000e 77bd 7de6 ddbc
00000050: b6be eebe 5fd6 e2be 8449 05bf e83d 87be
00000060: a040 e4bd 12c9 8dbe 49c1 563b 143e 96bc
00000070: 40e3 dfbe ab26 4dbe 7c1b 9a3d ceba 4b3e

weight f4 [50, 512]
0.057292372 -0.1031902 -0.024771675 0.014049437 0.093107395 0.0004736673 -0.098238595 -0.011811459
0.102832384 -0.032069262 -0.012383433 -0.03921205 -0.006033734 -0.0491501 -0.068848394 0.0075747855
-0.026311921 0.014951849 -0.091212176 0.0090697175 -0.013372406 -0.06529887 -0.08516957 0.006502969
0.04567266 0.032112293 0.042456243 0.11995876 -0.050236832 0.054021347 -0.015137956 -0.047570005
0.003211292 0.0008226496 0.018227534 0.030475741 0.054927073 0.005616886 -0.020082816 0.030621484
0.09953478 -0.030962996 -0.008603225 -0.015820904 -0.04384915 0.01983193 -0.10841199 0.017108886
-0.047711894 -0.009027754 -0.0111000305 -0.0012975351 0.075381674 0.019130673 0.051982302 0.05158147
-0.010264606 0.025016105 0.0033537836 0.028253188 -0.04464351 -0.018225389 0.011183635 -0.03575223
0.039747916 -0.08301881 0.05159925 -0.033287298 -0.016497094 -0.057038777 0.017156614 0.033879068
0.002284896 -0.066971846 -0.061706685 -0.122478046 0.025116181 0.15620968 -0.048440915 0.029519921
-0.07396239 -0.020813813 -0.033644456 0.015987648 0.024376377 -0.026740203 -0.019098049 0.04215722
0.01546724 0.054414652 0.008608019 0.029167501 0.0129409395 0.0222569 0.02001682 0.00076586753
-0.016903555 -0.021053845 0.016675688 0.0256813 -0.03259593 0.020304311 0.017531356 -0.02860256
0.009309279 0.02772913 0.027585063 -0.0033853 -0.008580986 -0.021258865 -0.031835858 -0.035141595
-0.022406705 -0.009766872 -0.055534944 -0.04708903 -0.0027202952 -0.025999254 0.04222001 0.032811824
-0.03531016 0.028545285 0.0147643 0.047520556 -0.0022142048 -0.01567972 0.03560587 -0.11577773
-0.10889355 0.044790346 -0.02100966 -0.050407145 0.10243043 0.022055777 0.0236694 0.010751931
-0.050478958 -0.0533158 -0.017415272 -0.06209205 -0.07614895 -0.093881376 -0.11096042 -0.048417833
0.1030085 0.03319356 -0.0063955816 -0.07904364 -0.07606345 0.06528232 -0.07790842 0.035191014
0.013360422 -0.075733066 -0.058551326 0.10222661 0.017773086 -0.022001913 -0.014164412 -0.08974015
0.07573582 -0.034502935 -0.002248783 0.014452871 -0.057799287 0.0011124071 0.031491507 -0.055300966
0.07542854 -0.069832 -0.032792192 0.047688834 -0.041635152 -0.00051729777 0.040358387 0.08047472
0.060843904 -0.032845154 0.06298179 -0.045022458 0.10796815 -0.018743586 0.0027356378 0.036749534
-0.04998325 0.014301164 0.007498513 -0.10206992 0.030969845 0.025738338 0.11926758 -0.09123965
0.08895661 -0.016978828 -0.11005362 -0.14607301 0.033295363 -0.0459369 -0.052180655 -0.06921548
-0.03825181 -0.052699234 -0.15833732 0.05424579 0.04335299 -0.035550445 -0.016305944 -0.082818165
-0.0058879363 -0.07615696 -0.027072715 -0.03598302 0.028215855 -0.033485524 -0.109187745 -0.012651692
-0.035951212 0.025279729 -0.06071967 0.020099785 -0.045307107 -0.020848218 0.042302694 -0.039194282
-0.06213205 -0.12636091 -0.003993247 -0.023936432 0.06474403 0.085425936 -0.14344575 0.05291102
-0.14801362 -0.07677117 0.053793035 -0.10203051 0.012723001 -0.020416146 -0.0006169035 -0.049481492
-0.020126907 0.03631046 0.05936766 0.0518968 -0.0012203493 0.07659389 -0.07351418 -0.043802742
0.025993027 -0.034554545 -0.14630312 0.04466671 0.04081321 0.086634964 -0.08040957 0.009763888
00000000: 68ab 6a3d 6255 d3bd f8ed cabc 9c2f 663c
00000010: 17af be3d 8d56 f839 5131 c9bd da84 41bc
00000020: c999 d23d 0f5b 03bd e2e3 4abc d19c 20bd
00000030: a1b6 c5bb 9e51 49bd 6300 8dbd e835 f83b
00000040: 198c d7bc 9af8 743c 73cd babd 2799 143c
00000050: f017 5bbc 6abb 85bd 626d aebd dc16 d53b
00000060: 4113 3b3d 2e88 033d 99e6 2d3d f0ac f53d
00000070: 23c5 4dbd 7d45 5d3d 3005 78bc c4d8 42bd
00000080: 8a74 523b 15a7 573a e951 953c 43a8 f93c
00000090: 36fb 603d db0d b83b b884 a4bc e8d9 fa3c
000000a0: e4d8 cb3d 1ca6 fdbc 8bf4 0cbc d79a 81bc
000000b0: 2b9b 33bd 9276 a23c 1b07 debd ef27 8c3c
000000c0: 8c6d 43bd 25e9 13bc e7dc 35bc 0e12 aaba
000000d0: b561 9a3d eeb7 9c3c 65eb 543d 1747 533d
000000e0: e12c 28bc 93ee cc3c 27cb 5b3b 3b73 e73c
000000f0: 1ddc 36bd 694d 95bc 913b 373c ee70 12bd
00000100: b6ce 223d c405 aabd bc59 533d 4358 08bd
00000110: ea24 87bc 7ea1 69bd 078c 8c3c c7c4 0a3d
00000120: 32be 153b 8928 89bd 26c0 7cbd c5d5 fabd
00000130: 73c0 cd3c 6ef5 1f3e fb69 46bd c3d3 f13c
00000140: 9879 97bd bb81 aabc c5ce 09bd 87f8 823c
00000150: f8b0 c73c 450e dbbc 8373 9cbc 0dad 2c3d
00000160: 4e6a 7d3c e6e1 5e3d a608 0d3c aff0 ee3c
00000170: 3c06 543c 1a54 b63c 50fa a33c 80c4 483a
00000180: 5379 8abc 1d79 acbc 749b 883c 9761 d23c
00000190: 4f83 05bd 3a55 a63c eb9d 8f3c ea4f eabc
000001a0: f285 183c 3328 e33c 12fa e13c e9db 5dbb
000001b0: 4497 0cbc 1227 aebc 5166 02bd a2f0 0fbd
000001c0: 448e b7bc 3b05 20bc 9c78 63bd 6de0 40bd
000001d0: fb46 32bb 63fc d4bc e4ee 2c3d b165 063d
000001e0: 63a1 10bd cdd7 e93c f6e5 713c eaa4 423d
000001f0: 311c 11bb c272 80bc 76d7 113d e01c edbd
00000200: 9503 dfbd 1576 373d 731c acbc b977 4ebd
00000210: 0cc7 d13d 51ae b43c 54e6 c13c de28 303c
00000220: 06c3 4ebd ab61 5abd 79aa 8ebc 3c54 7ebd
00000230: fbf3 9bbd e144 c0bd 373f e3bd c751 46bd
00000240: 1ff6 d23d f8f5 073d 0792 d1bb a2e1 a1bd
00000250: 27c7 9bbd bdb2 853d 738e 9fbd 7424 103d
00000260: ace5 5a3c f019 9bbd 84d3 6fbd 2f5c d13d
00000270: dd98 913c 5b3d b4bc da11 68bc afc9 b7bd
00000280: 621b 9b3d f352 0dbd 5160 13bb bccb 6c3c
00000290: f2be 6cbd 30ce 913a 3dfd 003d 4483 62bd
000002a0: 477a 9a3d 1404 8fbd 1b51 06bd 5e55 433d
000002b0: 9f89 2abd 449b 07ba d64e 253d eecf a43d
000002c0: 7537 793d a488 06bd 99fc 803d 7869 38bd
000002d0: 681e dd3d 268c 99bc 6348 333b ae86 163d
000002e0: 3dbb 4cbd 6e4f 6a3c 16b6 f53b 090a d1bd
000002f0: 79b4 fd3c 35d9 d23c 9042 f43d dbdb babd
00000300: e22e b63d 2f17 8bbc cb63 e1bd 2a94 15be
00000310: b860 083d 5528 3cbd 62bb 55bd d8c0 8dbd
00000320: eead 1cbd 27db 57bd 2e23 22be d530 5e3d
00000330: e892 313d 589d 11bd 0b94 85bc 929c a9bd
00000340: 97ef c0bb 2ef8 9bbd 99c7 ddbc ee62 13bd
00000350: f024 e73c 1e28 09bd d39d dfbd 0b49 4fbc
00000360: 9441 13bd 6f17 cf3c 30b5 78bd 4ea8 a43c
00000370: f293 39bd e2c9 aabc 9745 2d3d 2f8a 20bd
00000380: 2d7e 7ebd c164 01be c9d9 82bb 5616 c4bc
00000390: 8598 843d cbf3 ae3d 71e3 12be 3ab9 583d
000003a0: e290 17be 343a 9dbd 1656 5c3d 5ff5 d0bd
000003b0: 2274 503c c33f a7bc b1b7 21ba 1bad 4abd
000003c0: 2fe1 a4bc 47ba 143d 812b 733d bd91 543d
000003d0: 21f4 9fba 42dd 9c3d 9a8e 96bd 816a 33bd
000003e0: 54ef d43c 1189 0dbd 7cd0 15be 71f4 363d
000003f0: c12b 273d ac6d b13d c6ad a4bd b7f8 1f3c

bias f4 [50]
-0.011081074 -0.006855269 -0.028645575 0.00067815057 -0.03379516 -0.044902205 -0.015078395 0.0031802969
-0.02202745 -0.013442635 -0.03023795 -0.014930878 0.0167904 0.04355896 0.055386093 -0.011462276
-0.047560036 0.0345109 -0.043336075 0.039978683 0.004630867 0.04867973 -0.002901336 0.0050261724
0.033368412 0.030463194 -0.010112807 -0.052866705 -0.025752595 0.002523675 0.011197185 0.0044062245
-0.022528479 0.03230767 -0.0006924581 -0.005090916 0.011162971 -0.023649784 0.03780793 0.05279113
-0.04458942 -0.016165921 0.023541719 -0.020750668 0.06520857 0.04675258 -0.011095951 -0.01417453
0.028926661 -0.022758236
00000000: 658d 35bc 2aa2 e0bb 20aa eabc eac5 313a
00000010: cb6c 0abd 60eb 37bd 5f0b 77bc 876c 503b
00000020: e972 b4bc 7f3e 5cbc 94b5 f7bc a4a0 74bc
00000030: 058c 893c e16a 323d 87dc 623d 45cc 3bbc
00000040: 50ce 42bd 4d5b 0d3d 2b81 31bd b0c0 233d
00000050: 87be 973b 6664 473d 5724 3ebb 97b2 a43b
00000060: 51ad 083d f38d f93c 30b0 25bc c28a 58bd
00000070: 1bf7 d2bc 3e64 253b 6674 373c 1762 903b
00000080: a58d b8bc 0c55 043d 1486 35ba b3d1 a6bb
00000090: e5e4 363c 31bd c1bc 7ddc 1a3d 833b 583d
000000a0: 65a3 36bd 656e 84bc 90da c03c 4efd a9bc
000000b0: 128c 853d a27f 3f3d cbcb 35bc 4a3c 68bc
000000c0: 9bf7 ec3c 7b6f babc

weight f4 [10, 50]
-0.0004558794 0.14370084 -0.04304079 0.24688861 0.18661945 0.12720597 -0.0040355166 -0.18000907
0.027569646 -0.15158191 0.3139689 0.10000382 0.19848232 0.085248925 0.19856004 -0.30005032
0.3765207 0.11374723 0.1131942 0.25115797 0.111424886 0.1246434 -0.114340685 -0.2958725
0.0063530416 0.123714745 -0.033641 -0.19880277 0.24119742 -0.16415824 0.05724456 0.19102947
0.30909517 -0.024442982 0.20824957 -0.21915448 -0.13826808 -0.048134763 -0.113940805 -0.22974834
-0.30801517 0.120522924 0.06930357 0.2270424 -0.22112985 -0.0958735 -0.12792228 0.11731388
-0.10049744 0.1829063 0.16732131 -0.3878996 0.06265752 -0.13407576 -0.24213904 -0.08153969
-0.1521423 0.14981669 0.21987171 -0.25638008 -0.041645724 -0.11867499 -0.19976828 0.062201407
0.15202469 -0.008681991 -0.10693585 0.13226336 -0.023394834 -0.28989223 -0.13590449 0.18953611
-0.12255896 -0.039744966 -0.16259652 0.16449732 -0.13685946 -0.2617302 0.17788556 -0.15726191
0.032024093 -0.19668835 -0.042140756 0.03803101 0.12444245 0.14564244 0.07351284 0.26678312
0.064461164 0.25426462 -0.23509276 0.080169365 -0.023371335 -0.05694173 0.3608398 0.07573133
0.114253856 0.17024264 -0.32915708 0.010339682 -0.12008008 0.2377614 -0.06175249 -0.12302687
0.13970582 -0.1754536 0.25668108 -0.2492978 0.14055148 0.1465457 -0.23400348 0.07322065
-0.2267551 0.09897386 0.124968275 0.2230109 0.27778816 -0.1833694 0.040128708 -0.18223673
-0.048123833 0.20159341 0.17246267 -0.25463924 0.26645738 0.069715336 0.13448802 0.03272439
-0.11230519 -0.14843747 0.12657537 -0.2093816 -0.26168728 -0.10386756 -0.1777299 -0.24029943
0.085956365 0.10180354 0.26282763 0.12167377 -0.02429754 0.15721063 -0.31915432 0.23523092
0.21949069 0.13869905 0.13799377 0.004872088 -0.13453986 0.26160243 -0.15497075 -0.25677514
-0.08229896 -0.015349486 0.008372775 0.22509663 0.28850302 0.054341786 -0.1895774 0.07899525
-0.11204457 -0.23432094 -0.22294664 -0.15833338 0.18795225 0.27709296 -0.07005818 0.17072396
0.0003971272 0.28888544 -0.11821023 0.14511518 0.1492326 -0.17099614 0.09691729 -0.2435954
-0.14573404 0.2582365 -0.18910858 -0.17868637 -0.10576738 -0.13091058 0.09304172 -0.15317753
0.16588496 0.1724594 -0.14913705 -0.27828082 0.3441325 0.16298448 0.20244923 0.01144577
0.14600551 0.28896892 -0.21752055 -0.15073857 -0.35342205 -0.08307696 0.1387161 -0.04166253
0.22419983 0.17409718 0.39972377 -0.16793863 -0.11522566 0.13488443 -0.118115634 -0.2876611
0.19108428 -0.04329577 0.26584396 0.10585858 0.26412702 0.11106831 -0.35356528 -0.17071699
-0.16751151 0.21237046 -0.11603851 -0.2773718 -0.08758581 -0.19928823 -0.025451735 0.23341024
0.17158729 0.08544907 -0.03541999 -0.17861961 0.020105552 -0.24811329 -0.1455438 0.10556331
-0.1841647 -0.07031673 -0.3467859 0.1027853 -0.05016683 0.22651073 -0.02869837 -0.14850956
-0.15870023 0.026775582 -0.4052669 -0.05382283 0.015819578 -0.22438188 0.13039352 -0.04656025
0.092958905 -0.18436325 -0.12989187 -0.19145072 -0.045584247 -0.21366169 0.27249882 -0.11546994
00000000: 1903 efb9 5026 133e 8a4b 30bd 5ed0 7c3e
00000010: 2b19 3f3e 4842 023e 5e3c 84bb 4c54 38be
00000020: bdd9 e13c 4a38 1bbe 88c0 a03e cece cc3d
00000030: f33e 4b3e fd96 ae3d 5353 4b3e 32a0 99be
00000040: 52c7 c03e 4ff4 e83d 5cd2 e73d c797 803e
00000050: bb32 e43d 0a45 ff3d 732b eabd 9a7c 97be
00000060: 2d2d d03b 285e fd3d 25cb 09bd f492 4bbe
00000070: 75fc 763e 1919 28be 4679 6a3d 3b9d 433e
00000080: b941 9e3e a63c c8bc 603f 553e 086a 60be
00000090: 2696 0dbe f528 45bd cc59 e9bd 2643 6bbe
000000a0: 2ab4 9dbe b9d4 f63d 08ef 8d3d ce7d 683e
000000b0: dd6f 62be 5359 c4bd 0ffe 02be 4242 f03d
000000c0: 9ad1 cdbd ca4b 3b3e 4756 2b3e c79a c6be
000000d0: 9652 803d 284b 09be 4cf3 77be 48fe a6bd
000000e0: 31cb 1bbe 8c69 193e 0d26 613e 4044 83be
000000f0: b594 2abd e00b f3bd 0e90 4cbe e7c6 7e3d
00000100: 5cac 1b3e e93e 0ebc 2f01 dbbd 0c70 073e
00000110: 86a6 bfbc c16c 94be 8c2a 0bbe c115 423e
00000120: 3100 fbbd 9ecb 22bd b47f 26be fc71 283e
00000130: e324 0cbe 8001 86be a227 363e 4409 21be
00000140: b22b 033d ac68 49be c99b 2cbd 68c6 1b3d
00000150: afdb fe3d 4b23 153e e68d 963d cc97 883e
00000160: 3704 843d f92e 823e 28bc 70be d62f a43d
00000170: 3e75 bfbc bb3b 69bd ffbf b83e 0719 9b3d
00000180: edfd e93d 1654 2e3e 4787 a8be c567 293c
00000190: 8cec f5bd b977 733e 2ef0 7cbd 83f5 fbbd
000001a0: 0b0f 0f3e 1caa 33be b46b 833e ec47 7fbe
000001b0: baec 0f3e 1310 163e 9c9e 6fbe b5f4 953d
000001c0: 7d32 68be cfb2 ca3d 5eef ff3d f85c 643e
000001d0: 403a 8e3e 30c5 3bbe 005e 243d 449c 3abe
000001e0: 7f1d 45bd 816e 4e3e 0e9a 303e 1360 82be
000001f0: 1a6d 883e eac6 8e3d 3ab7 093e 030a 063d
00000200: 4300 e6bd feff 17be f99c 013e 2168 56be
00000210: e0fb 85be 84b8 d4bd d4fe 35be 0e11 76be
00000220: e409 b03d 607e d03d 5891 863e 1930 f93d
00000230: a20b c7bc d3fb 203e 3268 a3be 60e0 703e
00000240: 2bc2 603e 2007 0e3e 3d4e 0d3e 09a6 9f3b
00000250: d1c4 09be c1f0 853e a7b0 1ebe 0878 83be
00000260: 5b8c a8bd 697c 7bbc f72d 093c bb7f 663e
00000270: abb6 933e 7e95 5e3d 9420 42be 43c8 a13d
00000280: a077 e5bd d4f1 6fbe 204c 64be 2522 22be
00000290: 8e76 403e 21df 8d3e aa7a 8fbd 43d2 2e3e
000002a0: 8335 d039 cbe8 933e 3418 f2bd 1399 143e
000002b0: 6ed0 183e 9d19 2fbe 927c c63d 1371 79be
000002c0: 4e3b 15be 9337 843e aea5 41be 8ff9 36be
000002d0: 919c d8bd 6c0d 06be a88c be3d 92da 1cbe
000002e0: bfdd 293e 3299 303e 62b7 18be d37a 8ebe
000002f0: 2332 b03e 67e5 263e da4e 4f3e 0a87 3b3c
00000300: 7882 153e bcf3 933e b5bd 5ebe 365b 1abe
00000310: bcf3 b4be 4124 aabd 980b 0e3e 54a6 2abd
00000320: a494 653e 8846 323e 98a8 cc3e 1bf8 2bbe
00000330: 6efb ebbd 251f 0a3e 9ce6 f1bd 5148 93be
00000340: 99ab 433e e856 31bd b31c 883e 62cc d83d
00000350: a83b 873e c877 e33d 8206 b5be 6fd0 2ebe
00000360: 2388 2bbe a477 593e 99a5 edbd ad03 8ebe
00000370: 3060 b3bd 3712 4cbe 2880 d0bc 1803 6f3e
00000380: 94b4 2f3e ecff ae3d 8d14 11bd 0fe8 36be
00000390: 66b4 a43c 6911 7ebe 6f09 15be 9431 d83d
000003a0: ac95 3cbe 3802 90bd ec8d b1be 1981 d23d
000003b0: bc7b 4dbd 6ef2 673e d818 ebbc e412 18be
000003c0: 5082 22be 7758 db3c 257f cfbe 5475 5cbd
000003d0: 0f98 813c 5dc4 65be e185 053e f6b5 3ebd
000003e0: 3d61 be3d b8c9 3cbe 6002 05be a80b 44be
000003f0: 8cb6 3abd 21ca 5abe f784 8b3e 817b ecbd

bias f4 [10]
0.06451326 0.07825583 0.040569175 -0.026195483 0.10307786 0.059518293 0.018215807 -0.05384663
0.08873581 -0.0018997696
00000000: 871f 843d 9844 a03d dd2b 263d e997 d6bc
00000010: 7c1a d33d 74c9 733d 5139 953c 498e 5cbd
00000020: 1fbb b53d b101 f9ba
