Computational Intelligence/aeh330_5/resultsclassifier_cnn_3.model (torch, 111383 bytes, 6 tensors)

weight f4 [32, 1, 3, 3]
000000 77 ad 9c 3e d7 5e d1 bd 98 c9 26 3e b4 54 8d bd
       0.30601093 -0.102231674 0.1628784 -0.069009215
000010 9c 7e 82 bd 77 02 c9 bd e4 65 4d be c9 1e 72 bc
       -0.06371805 -0.09814923 -0.200584 -0.014777848
000020 84 3c 55 3e 7c 3a 45 be 36 d4 86 3e 40 7a 01 be
       0.20823866 -0.19260591 0.2633378 -0.12644291
000030 0d 7b 83 bd 56 d7 21 bd 12 70 9d bd 52 dd b4 be
       -0.064199544 -0.039512 -0.07687391 -0.35325104
000040 54 18 2e be 8a f5 b0 3e 75 a4 ce bd 46 bd 8d 3d
       -0.17001468 0.3456233 -0.100899614 0.06920867
000050 11 5e a4 3d 74 ac 57 3e be 17 6e 3e b7 8c 23 be
       0.08025754 0.2106188 0.23251244 -0.15971647
000060 5b fe 99 be d3 4f 33 3e 72 9c 51 3e 1b c9 bc be
       -0.3007687 0.1751092 0.20469835 -0.3687218
000070 c9 68 99 bb 60 44 41 3e c4 7f 8c 3e 3c fc 04 3e
       -0.004681681 0.18873739 0.27441227 0.12986845
000080 76 cc 99 be 0c c3 12 bd 9f 91 80 3e 1e 06 81 bd
       -0.30038804 -0.035830542 0.251111 -0.06299995
000090 1d 26 9a 3d 0e 0f 8a 3d a6 87 60 3b 32 2a 9a 3e
       0.07526801 0.06741153 0.003426054 0.30110317
0000a0 11 23 4a be bc 46 0a 3e 40 84 8e 3c d8 3a 4d be
       -0.1973994 0.13503546 0.017397046 -0.20041978
0000b0 f5 90 de bd e3 aa be 3d f0 ae 49 3e 37 2f b1 bd
       -0.10867492 0.09309938 0.1969564 -0.08651584
0000c0 0b 9d 9d be 2c 8d 30 bd 69 63 30 3e 12 a1 bd 3d
       -0.30783877 -0.043103382 0.17225422 0.09259237
0000d0 8c c4 ad be 5f 23 81 3e 1a ab 79 3e f8 d8 cd 3c
       -0.33939016 0.25222299 0.24381676 0.025127873
0000e0 8e 2f 07 3e 89 48 25 be 96 5e 91 be 7a 2d 39 be
       0.13201734 -0.16140951 -0.28392476 -0.18083754
0000f0 8e fe 11 3e f2 7c 85 be af e4 88 3e 4d 8b 80 3c
       0.14257261 -0.26071888 0.26736972 0.015691424
000100 d9 8c 83 3c e5 6a 7a 3e 95 4d 21 3d 21 80 63 be
       0.016058372 0.2445484 0.03938063 -0.22216846
000110 c2 dc 80 3e da 89 dc 3c 77 45 8a be 0d 16 d6 3c
       0.25168425 0.026921201 -0.27006122 0.026133562
000120 d1 44 94 3d 71 73 c0 bd 8c fd 81 bd 91 c7 bc be
       0.07239688 -0.09397019 -0.06347188 -0.36871007
000130 27 b1 52 3e 97 89 48 3d 97 60 0e 3d 1d 7a 6d 3e
       0.20575391 0.04895934 0.034760084 0.23191114
000140 b7 ca 7f be 2b 71 c1 3e df 8a ae 3e a5 ce 58 3e
       -0.24979673 0.37781653 0.34090325 0.21172579
000150 02 98 2a be e0 42 58 3e 48 92 5a 3e dc 83 b2 bd
       -0.16659549 0.21119261 0.21344864 -0.087165564
000160 c5 87 6c be bc 88 9a 3d 82 cc 9c be 6d db 98 3d
       -0.23098667 0.07545611 -0.30624777 0.07463727
000170 f2 de 4e 3e 03 2f 5c 3e a8 5a 8c 3e 40 9e 97 bd
       0.20202234 0.21502309 0.27412915 -0.07403231
000180 a4 fc 52 be a9 d0 73 3e 08 7c 3d be fd d2 fa 3d
       -0.20604187 0.23810066 -0.18504345 0.12247274
000190 41 08 5d be ca cf 5b bd 13 51 d8 3c c3 b1 26 bd
       -0.2158518 -0.05366496 0.026405847 -0.04069687
0001a0 15 d3 93 be 32 6b bb bd 57 0b f1 3d 5b 5f 30 3e
       -0.2887198 -0.09151305 0.11769741 0.17223875
0001b0 4f 52 60 be 12 b8 8b bd 6c 11 9f 3e 30 16 7d 3e
       -0.21906398 -0.06822218 0.3106798 0.24715495
0001c0 a7 79 38 bb 7e 8d 01 be 6c 4f 54 3e 47 39 a4 3c
       -0.0028148682 -0.12651631 0.20733422 0.020046843
0001d0 15 61 98 be 1c db 91 be 23 a7 bc be 2e 84 45 be
       -0.29761568 -0.2848748 -0.36846265 -0.19288704
0001e0 5e e6 a8 3e bf 3c 87 3e 40 fb 63 bd 95 77 b1 bd
       0.32988256 0.26413533 -0.055659533 -0.086653866
0001f0 3d b4 a0 3e 3e 44 d1 3d 68 ab 8e 3d 74 d8 d9 3d
       0.3138751 0.10218094 0.06966287 0.10636988
000200 2c b9 7d be fc ae 56 3e cf cf 92 3e 08 2f 36 be
       -0.24777669 0.20965189 0.2867417 -0.17791378
000210 0b 55 47 be 45 7f 64 3e 0a 9b 72 be aa 9f 2b be
       -0.19466035 0.22314174 -0.23691955 -0.16760126
000220 b0 46 1d be 3b 4d d3 bd 42 41 19 be 7e 50 eb 3d
       -0.15358996 -0.10317465 -0.149663 0.11489962
000230 72 f7 89 3e a0 29 44 3e 82 e1 9f 3e f4 8f 5d 3c
       0.26946598 0.19156504 0.31226736 0.013523091
000240 3a ea 72 be cb 22 f8 bd 88 5b f8 bd 8b 25 63 be
       -0.23722163 -0.12116011 -0.12126833 -0.2218229
000250 49 8a aa 3e a6 37 c5 3e e9 5a bc 3d 40 b3 06 be
       0.33308628 0.3851902 0.09197027 -0.13154316
000260 ce 4e f7 bd 8b d3 3f 3c 07 1d 01 3e 60 58 88 bd
       -0.12075578 0.011708151 0.1260873 -0.06657481
000270 9e 9b fd 3d 34 06 7c 3e 66 c0 58 bd d3 53 be be
       0.12383197 0.24611741 -0.05291786 -0.37173328
000280 27 7e e9 3d 4c a8 5b 3e 19 2d 98 3d fd 9f fd 3d
       0.11401015 0.21450919 0.07430477 0.12384031
000290 3d 9d 92 be 69 56 ed 3c c7 4b 86 3d 09 a0 4c be
       -0.28635588 0.028971868 0.06557422 -0.19982924
0002a0 08 de 32 3e c3 ec eb 3c 56 bb 45 3e 3a 08 de 3d
       0.1746751 0.02879942 0.19309744 0.10841413
0002b0 4e 0a 85 3e f4 c0 39 be 9e 22 7a 3d 88 91 74 be
       0.25984424 -0.18140012 0.06106817 -0.23883641
0002c0 91 aa 05 3e 4a 1e 99 be 31 c8 90 3d 03 35 33 be
       0.13053347 -0.2990592 0.070694335 -0.17500691
0002d0 f1 4e 48 3e 4f a0 c4 3a 97 e6 a4 3e e9 0e 8c be
       0.19561364 0.0015001389 0.32207176 -0.27355126
0002e0 9f 59 a9 be cd 81 78 be d6 6d 40 3d a8 00 c6 3d
       -0.33076188 -0.24268265 0.046979748 0.09668094
0002f0 b9 b2 1f bd c2 13 18 3c 50 54 9a 3d 18 96 b0 bd
       -0.038988803 0.009282054 0.075356126 -0.08622378
000300 8f c6 9c bc 6e 4d 87 be ab 42 a5 be a1 d4 26 3e
       -0.019137649 -0.26426262 -0.32277426 0.16292049
000310 03 f7 a6 3e e5 e9 01 be e0 af a3 bc 31 fc 65 be
       0.3261033 -0.1268688 -0.019981325 -0.22459485
000320 d4 d1 9f 3d 02 43 67 3e 9a 2a 48 be e9 a9 99 be
       0.078036934 0.22584155 -0.19547501 -0.30012444
000330 a1 e2 68 3d 8b f7 a3 3e f0 c8 83 bd 5a f5 04 be
       0.056856755 0.32024798 -0.0643481 -0.12984219
000340 b9 c9 e3 bd 6b ca aa be 34 bc 88 3e 41 55 0c bd
       -0.1112246 -0.33357558 0.26706088 -0.034260992
000350 86 67 52 3c 60 01 8d be 52 dc 1a 3e 5a f8 97 3e
       0.012842065 -0.27540112 0.15123108 0.29681665
000360 bc 85 98 be 28 84 9f 3e 74 90 5b bd 8d 43 30 3e
       -0.2978953 0.31155515 -0.053604558 0.17213269
000370 f0 78 ba be d3 c3 10 be 5e 7a 86 3d 34 32 8c 3e
       -0.36420393 -0.14137201 0.065663084 0.27382052
000380 d6 2f 44 3e 40 2e ad bd c7 dc 9e 3e c4 32 89 3e
       0.19158873 -0.08456087 0.31027815 0.26796544
000390 c1 ee b1 bb 9a 3d fe bd e1 81 6f be ce 0b a3 be
       -0.005430073 -0.12414093 -0.23389389 -0.31844944
0003a0 5b f4 7e bd 55 9a 02 bd 1c fe 11 3e e2 d8 c1 bc
       -0.062244754 -0.031885464 0.14257091 -0.023662988
0003b0 95 78 8d 3e 1e 4b a1 3e 5c b5 f2 bd 44 7c 2d be
       0.2763106 0.31502622 -0.11850998 -0.16941935
0003c0 33 76 da 3d ee fe 6f be 8f e5 ec 3d 94 2a 8b 3d
       0.10667076 -0.23437092 0.11567222 0.067952305
0003d0 ac fd 61 3d 4d 6e bb 3c dc f0 ce 3d 46 b1 c1 3e
       0.05517356 0.022879744 0.10104534 0.3783056
0003e0 97 ef 72 be 19 7b 26 be bd 91 77 bc d7 ba 90 be
       -0.23724209 -0.16257896 -0.01511043 -0.28267547
0003f0 7a 5c 02 be 26 d8 55 be 93 79 f9 bd 3a 61 92 3e
       -0.1273059 -0.20883235 -0.121813916 0.28589803

bias f4 [32]
000000 51 4e 6e be 4c a7 05 3e 16 02 39 be c2 e8 a4 3b
       -0.23272063 0.130521 -0.18067202 0.0050326297
000010 db ea a6 bd ca 3b 4d 3d 09 bb 53 3e 1e da a0 be
       -0.08150264 0.050105847 0.20676817 -0.3141641
000020 e8 55 1d bd 53 90 23 be 52 f2 49 be bb dd ca 3d
       -0.038412005 -0.15973024 -0.19721344 0.09905573
000030 c9 c3 68 3e f7 02 66 be de 0d 0c be 9e 7b 5c be
       0.22730936 -0.22462068 -0.13677165 -0.21531531
000040 79 44 51 3e f5 b6 af 3d 13 84 9f be a0 74 56 3e
       0.20436276 0.08579818 -0.31155452 0.20942926
000050 7d 85 40 3d ba 25 c5 3e 23 de 15 be 3a 95 f6 3d
       0.047002304 0.38505346 -0.1463552 0.120401815
000060 cc 27 90 3d c4 47 c2 3e c9 8f 03 3e b4 8b a8 bd
       0.07038841 0.37945378 0.12847818 -0.08229771
000070 79 5f 5d 3e a8 86 f6 3d 82 1e 08 be 53 c2 a4 be
       0.21618451 0.120374024 -0.13292888 -0.32179508

weight f4 [50, 512]
000000 ba 37 7f 3d 49 49 84 bc 5b da 45 3c c2 c0 75 bc
       0.062309004 -0.016148226 0.012075986 -0.01499957
000010 19 54 72 bc 76 47 99 3d 5c 21 5a bd bf 31 a8 3d
       -0.014790558 0.07484333 -0.05325447 0.08212613
000020 ac 17 9c 3c 37 25 6a 3d c4 04 05 bd c8 8b c3 bd
       0.019054256 0.057164397 -0.032475248 -0.095481455
000030 18 b6 20 bb 0a a7 df bb f7 97 a7 bb 2f e4 10 bd
       -0.0024522599 -0.0068253325 -0.005114551 -0.035373863
000040 b1 94 81 3d 9c bb 44 bd de 9c 10 bc 3d c4 02 bd
       0.06327189 -0.04803048 -0.008826463 -0.03192543
000050 96 9e 2f bd 0c 0f 82 3d c2 96 8e ba 69 69 8b bc
       -0.04287585 0.06350526 -0.001087867 -0.017018037
000060 fb 69 af bc 44 7f 4c 3d b8 2a 70 3a 09 34 26 bb
       -0.02141284 0.049926057 0.0009161639 -0.0025360605
000070 44 b5 b1 3d fc 2e 4b bd 0e 9b 51 3d 9b f7 ff bc
       0.08677152 -0.049605355 0.051173262 -0.031245997
000080 7d 66 91 3d 97 6c e3 bb 93 b4 08 3d 4d d4 db 3d
       0.07099626 -0.006940435 0.033375334 0.107338525
000090 0d 17 13 bd 57 b4 0e 3c ad e8 5a 3c f5 40 16 bd
       -0.035910655 0.008709989 0.013361138 -0.03668304
0000a0 b8 94 4b bd 61 e4 31 3d 4e b3 62 bd 0a ad 5d bd
       -0.049702376 0.04343069 -0.05534678 -0.0541201
0000b0 47 6f 1c bd ed 40 e5 3c 1f 33 35 3d cd 82 65 3c
       -0.03819206 0.02798506 0.044238206 0.014008236
0000c0 8d eb 40 bd 1e 3a e3 3d e3 0c f4 3c 7d 1e d3 3c
       -0.04709964 0.11095069 0.029791301 0.025771374
0000d0 a0 e0 a6 3c 6f 0a 50 bd d0 0f 01 3e 74 05 a6 bd
       0.020370781 -0.0507912 0.12603688 -0.08106509
0000e0 d7 96 d2 3d 1c 8c ad bc b9 0b 35 bb 1d 05 52 bd
       0.10282677 -0.021184973 -0.0027625395 -0.051274408
0000f0 6f 99 21 be a9 bf 8f 3d 60 c7 42 bc f1 9f 62 3a
       -0.15781187 0.07018978 -0.011888355 0.0008645049
000100 e3 f6 8b bc b0 92 a0 3d c6 54 05 bd 31 3d 54 3d
       -0.017085498 0.078404784 -0.03255155 0.05181617
000110 b9 4d d4 b9 0c 77 b0 3c 32 ff aa 3d 5e b8 2b 3c
       -0.000404937 0.021541141 0.08349456 0.010480968
000120 11 42 89 bc c3 57 ce bc 5d 42 81 3c 67 62 fd bc
       -0.016755136 -0.025188332 0.015778715 -0.030930711
000130 b6 c1 4d 3d c3 cd fc bb 68 57 bc 3c 5e f2 8d 3b
       0.050233565 -0.0077149584 0.022990897 0.004331871
000140 1d 5a f2 3c 96 1c 25 bd 1a a8 08 bd 17 54 b6 bb
       0.029583985 -0.040310465 -0.03336344 -0.0055642235
000150 e3 af c4 bc df 71 02 3e f9 6e df bd 4d f5 5a 3d
       -0.02400965 0.12738751 -0.10909838 0.053456593
000160 1a aa b4 3c 6c 63 4c 3d 8c 5e 40 bc 10 2a e4 3c
       0.022053767 0.049899504 -0.011741292 0.027852088
000170 a8 0f f3 3d a5 27 3b bd a1 e4 48 bc ca e0 7c bd
       0.118682206 -0.045692105 -0.012261541 -0.061737813
000180 44 57 30 bc 1c 41 45 bc 84 bb 53 ba a5 62 80 3c
       -0.010762993 -0.012039449 -0.0008076953 0.015672037
000190 7c 7a 24 bd 99 58 88 bd 9e bd 02 be 67 29 04 3e
       -0.040155873 -0.06657524 -0.12767646 0.12906419
0001a0 aa df fd 3c 72 83 e7 3d a7 80 4e 3d 0f 56 92 3d
       0.03099044 0.11304368 0.05041566 0.071453206
0001b0 3c f8 43 bc 8b 61 85 bd 4a ff 0a be 3c 00 0f bd
       -0.011961039 -0.065127455 -0.13573948 -0.034912333
0001c0 4a 07 86 3d c8 65 d6 bd e9 b5 f6 3c 4a 9b 8d bc
       0.06544359 -0.10468632 0.030116038 -0.017285962
0001d0 f3 c5 25 3c 7d d8 0f 3e fd 59 91 bd 32 62 6f 3d
       0.010117996 0.14047427 -0.07097242 0.058443256
0001e0 78 fb b9 bc 32 96 05 3d c1 87 b3 bc 27 7f d0 3c
       -0.022702917 0.03261394 -0.021915318 0.025451256
0001f0 52 3a d0 3c 23 24 05 3d e0 e4 07 be a8 87 35 bc
       0.025418434 0.032505166 -0.13270903 -0.011079706
000200 80 c3 ed bc 84 f9 ce bd 0a 37 c5 bb e2 cd 8f bd
       -0.029023886 -0.10106185 -0.006018524 -0.07021691
000210 9b 51 98 3c d2 f4 92 bd 89 02 d8 bc f5 31 c2 bd
       0.0185936 -0.07175602 -0.026368396 -0.09482185
000220 91 d9 2f 3b ea ac d5 3a 42 a6 7e 3d 88 94 83 3c
       0.002683256 0.0016302143 0.062170275 0.016062036
000230 90 05 c9 3c 66 d2 96 bc 58 5e 38 bd 41 e6 b3 bd
       0.024538785 -0.018410873 -0.04501185 -0.08784152
000240 83 fe f7 3c ab 4c 2d bd af 63 cf 3d e5 a1 28 bd
       0.030272728 -0.042309444 0.10126435 -0.04117002
000250 65 2d 10 bd 04 93 b4 bc 75 8f 28 3c 79 58 de 3d
       -0.03519954 -0.022042759 0.010288109 0.108567186
000260 f4 91 89 bc b1 4c cc 3c a7 53 8a 3c 8a e3 ee bd
       -0.016793229 0.024938913 0.016885592 -0.116644934
000270 6f 20 d8 bc e6 79 ed 3b e1 82 5b bb ad 73 2b bd
       -0.026382653 0.0072471974 -0.0033494758 -0.041858364
000280 19 17 8c 3d 7b a8 11 bd 83 d2 ba 3d 05 26 b1 bc
       0.06840343 -0.035561066 0.09122183 -0.021624574
000290 2b e1 3d 3d c0 49 78 3d f7 bf a7 3c bb 2e 49 3b
       0.046357315 0.06061721 0.020477278 0.003069802
0002a0 e7 e2 31 bd 7f 77 77 3d 39 45 5f bc 04 18 c1 bc
       -0.04342928 0.060416695 -0.013627344 -0.023571022
0002b0 74 07 50 bd c5 17 ee 3b 98 7e a8 3c 98 de 88 3d
       -0.050788358 0.007266017 0.020568177 0.066830814
0002c0 d6 24 be bd 54 29 07 3d 37 7e 2f 3c 13 8e e2 ba
       -0.0928437 0.032998398 0.010711244 -0.0017284773
0002d0 33 3d 23 bc e7 91 d9 3c b0 e6 6f bd 95 cd e8 3c
       -0.0099633215 0.02655883 -0.05856961 0.028418342
0002e0 03 3d 1c 3d 16 e8 79 bc 64 98 86 3c 74 28 91 3d
       0.038144123 -0.0152530875 0.016430087 0.07087794
0002f0 28 d7 96 3c bc 53 0d 3d 29 2f 10 bb 9b 70 b0 3b
       0.018413141 0.034503683 -0.0022000766 0.0053845174
000300 69 0f 85 bd 6c 2c a1 bc 18 f4 0c 3d 7a 91 41 3c
       -0.0649708 -0.019674502 0.034412473 0.0118144695
000310 f9 67 a2 3d 7f 72 f8 bd ff 01 e5 3d b1 c1 a8 bd
       0.079299875 -0.121312134 0.11182021 -0.08240069
000320 4c a3 b8 3d b9 bd 90 3d fe 05 ab bc 61 6b 26 3d
       0.090155214 0.07067437 -0.02087688 0.04062975
000330 d9 b4 0b bd 6a 54 0f 38 bf 53 39 bd 43 bb 4f 3c
       -0.034108017 3.4172474e-05 -0.045245882 0.012678924
000340 fc 1f bb bd 80 58 70 bc b7 3e ea bc 39 9f ac 3d
       -0.0913696 -0.014669538 -0.028594358 0.08428807
000350 2c 68 da bd ed f7 8d bd 80 2e 01 3c 79 04 13 bd
       -0.106644005 -0.06932054 0.007884622 -0.035892937
000360 d1 05 6f bb 23 c9 0c be 05 08 4b bd 96 64 a1 bc
       -0.0036471973 -0.13748603 -0.049568195 -0.019701283
000370 eb 82 aa 3c db d6 b4 3d b4 45 ad 3d 30 f5 90 3d
       0.02081438 0.08830043 0.084605604 0.07078016
000380 d6 e0 11 bc 96 aa 5a 3d ad 84 83 bc aa 41 61 3d
       -0.008903703 0.05338534 -0.016054476 0.054994263
000390 e1 54 9b bc 02 00 2f bc 58 fc fa 3d 76 21 71 bc
       -0.018961372 -0.010681154 0.12255162 -0.01471745
0003a0 04 d2 06 bd 6e 1f 13 be 8a 50 9c 3c 77 df 99 bc
       -0.03291513 -0.14367458 0.019081373 -0.018783314
0003b0 23 46 6b 3b f7 bb 24 bd df 9c bf 3b 63 d9 2f 3c
       0.003589996 -0.04021832 0.005847558 0.010732981
0003c0 b6 c4 cf 3d e1 e0 2e bd b5 0a 5e 3d 38 ee 90 bd
       0.101449415 -0.04269493 0.05420943 -0.070766866
0003d0 55 b2 1d bc a8 60 16 3d 8d d8 bf 3c e5 95 b7 bd
       -0.009625037 0.036713272 0.02341869 -0.08964137
0003e0 05 13 b2 bd 04 5b 82 bd 71 e9 4f bc c3 e2 86 bd
       -0.08695034 -0.06365016 -0.012689934 -0.0658622
0003f0 bd eb 85 3d 98 0d 2a bc 5d 0c d6 3d f7 21 db 3c
       0.06539104 -0.010379218 0.10451577 0.026749594

bias f4 [50]
000000 4e 9c 8f 3c ee 3b 54 3c a1 66 20 bd 5d af 57 bc
       0.017530587 0.0129537415 -0.039160375 -0.013164368
000010 d9 5a 08 3d a9 6e 44 3d 94 cc 1b 3c e3 7c 12 3d
       0.033289764 0.047957096 0.009509224 0.035763633
000020 85 17 1f 3d 5e 0c 99 bc b9 49 0c 3d a4 20 42 3d
       0.03884079 -0.018682655 0.034249995 0.04739441
000030 10 67 62 3c b8 67 26 bc 0f 86 1f bd e0 dd 62 3b
       0.013818517 -0.010156564 -0.038946208 0.003461711
000040 6a 69 90 bd 84 10 fc 3c 2f 4f 55 3c 71 f0 16 bc
       -0.07051356 0.030769594 0.013019367 -0.009212599
000050 38 b9 3f 3d 32 48 95 bc 73 f9 4b ba 62 86 81 bc
       0.046807498 -0.018222902 -0.0007781006 -0.015811149
000060 38 c2 fc bc 5f 66 5e 3d 7b be 37 bd d6 78 e3 3a
       -0.03085433 0.054296847 -0.04485939 0.0017354738
000070 2e ee 36 bd 0c c2 30 ba 9f 89 5b bd 34 00 53 3a
       -0.04466074 -0.00067427824 -0.053598043 0.00080490415
000080 0f 9b c0 3c ac fd 91 3c db 49 94 bb 93 0e 82 bb
       0.023511438 0.017821155 -0.004525406 -0.0039690225
000090 62 03 ae 3a 48 91 b8 bb dd cc 1f ba b2 5f 85 3d
       0.0013276155 -0.0056325532 -0.00060958957 0.06512393
0000a0 04 71 ef 3c cf 2e 3f bc 5e 96 37 3d 7c a9 da 3c
       0.029228695 -0.011668875 0.044821136 0.026692145
0000b0 7f 59 9f 3c 1b 92 bd bb e7 fb b6 bc 38 85 a7 38
       0.019451855 -0.0057852394 -0.022336913 7.9879945e-05
0000c0 24 06 3d bd ee ce 0e bd
       -0.046148434 -0.034865312

weight f4 [10, 50]
000000 94 c8 68 be 89 30 da 3d 68 11 f3 bd 4f 2a 6f 3d
       -0.22732764 0.106537886 -0.11868554 0.058389958
000010 1c 60 bc 3d c8 92 ca 3d ce 18 97 3e 89 d2 47 3e
       0.09198019 0.098912776 0.29511112 0.19513907
000020 64 e3 a9 3d ff f8 91 be 7c 83 b9 3d 54 91 07 be
       0.082953244 -0.2851028 0.09058282 -0.13239032
000030 3d 3d e1 bd 3f 0c eb 3d ad c0 96 3e 5c dd dc 3d
       -0.109980084 0.11476945 0.29443875 0.107844085
000040 9b cb 22 3e 3b 9c 20 3e 68 5a 5c be 40 9f 24 be
       0.15897982 0.15684597 -0.21518862 -0.16076374
000050 f5 71 3f bb 65 80 a6 bd a5 31 03 be f1 7d a3 bd
       -0.002921221 -0.08129958 -0.12811907 -0.07983006
000060 50 3b bd bc 29 a3 74 be de 65 67 3e 7e 54 46 3e
       -0.023099571 -0.23890366 0.22597453 0.19368169
000070 11 1a 04 be 90 b5 01 bc f3 ae 4d 3e 3c 29 5c 3d
       -0.12900569 -0.007916823 0.20086269 0.05375026
000080 14 ee 5a 3e f5 66 09 3e 81 3b 13 be ca d5 7e be
       0.21379882 0.13418181 -0.14378168 -0.24886242
000090 16 43 1a be 08 da 12 3e b6 da 29 3e c9 a7 20 be
       -0.15064654 0.14340985 0.16587338 -0.15689005
0000a0 b5 97 b3 bd 10 b9 42 be 1b 27 da be 21 0f 11 be
       -0.0876917 -0.19015908 -0.4260796 -0.14165927
0000b0 c6 c0 c5 bd d6 55 ba bd fd e2 4e be 11 dd d3 3d
       -0.09655909 -0.09098403 -0.20203777 0.103448994
0000c0 4c b3 69 bd e5 9b c0 3d d2 38 20 3e 3e 4f bc be
       -0.057055756 0.094047345 0.15646675 -0.36779207
0000d0 32 03 e9 3d 9f 17 9c be 5c 27 29 be 6f 21 35 be
       0.113775626 -0.3048677 -0.1651892 -0.17688535
0000e0 00 bb b7 be 49 09 a3 be b1 8f 92 be 3e b6 7a 3e
       -0.35884857 -0.31843022 -0.28625253 0.24483582
0000f0 80 9d a3 bd 68 46 8f 3e 5b 89 80 3e 4f 9f a6 bb
       -0.07989025 0.27983403 0.25104794 -0.005084909
000100 ec 50 1f be 08 db 03 bd 97 54 26 be bd 10 60 3d
       -0.15558213 -0.032191306 -0.16243206 0.054703463
000110 5f 2c dd bd 30 a9 44 3e cf b4 a6 bc 88 4d c3 3c
       -0.10799479 0.19205165 -0.020349888 0.02384068
000120 da 2f 4e bd 37 c7 68 be 8e 45 19 be ff 89 1f 3e
       -0.050338604 -0.22732244 -0.1496794 0.15579985
000130 19 69 8c 3c 36 4a 20 be dd 52 55 be 4b d2 10 3e
       0.017139958 -0.15653309 -0.20832391 0.1414272
000140 b1 ad 9c be 18 03 3f be 66 ca c2 3d cc 4c 17 3c
       -0.30601266 -0.18653524 0.09511261 0.009234618
000150 2f 27 6b 3e 82 e4 18 3e 16 af 0a be 1a b4 a9 be
       0.22964166 0.14930919 -0.13543352 -0.3314522
000160 b5 db 9a be 80 bd 9a 3d fa 36 dc 3d 7b 3a 33 3e
       -0.30245748 0.075556755 0.107526734 0.17502777
000170 69 78 cc 3c 50 d8 17 be 8f eb 9e bd ce 75 95 3e
       0.02495976 -0.1482861 -0.07759773 0.2919144
000180 7d 4d 28 3d 62 9f 1c 3e 95 8c 83 3e 28 d3 25 3e
       0.041089524 0.15295175 0.25693193 0.16193831
000190 3d 25 22 3e 1e 3c 23 3e 39 d4 25 bb d3 c3 7c 3e
       0.15834518 0.15940902 -0.0025303497 0.24684076
0001a0 b9 08 34 be f5 35 9b bb ae db 6f 3c 8a 1c 92 3e
       -0.17581452 -0.004736657 0.014639778 0.285374
0001b0 7b 0a 8c be a6 ad 89 3e bf d7 af 3d ee 5a fe 3d
       -0.27351746 0.26890296 0.08586072 0.12419687
0001c0 57 3b 2a be 73 d1 10 be 4b ba 68 be 16 36 ee 3d
       -0.16624199 -0.14142399 -0.22727315 0.1163141
0001d0 8a ba bc bc ae 9a 64 be 0c a5 74 3e 3b 36 23 3e
       -0.023038168 -0.2232463 0.23891085 0.15938656
0001e0 1a b8 7b 3c c5 73 b3 3b 7e 75 05 be 0b 36 64 bd
       0.015363717 0.0054764473 -0.13033101 -0.055715602
0001f0 7c 48 59 3e 36 15 a0 3e 4a 96 11 3d 46 42 3a be
       0.21219057 0.31266183 0.035543717 -0.18189344
000200 ce 54 04 be 1b c0 3a 3e 99 89 2c be da f3 97 bd
       -0.12922975 0.18237345 -0.16849364 -0.07419558
000210 8a d6 61 bd 87 0e 89 be f0 08 86 3e 10 e5 13 3e
       -0.05513624 -0.26768896 0.26178694 0.14442849
000220 17 70 6e 3e b8 a1 ab be 2c f7 2d 3e 0a 76 81 3e
       0.23284946 -0.3352182 0.1698882 0.2528537
000230 27 18 28 3e 14 ba 03 3e f6 e1 0d 3d 3e 37 6f 3c
       0.16415463 0.12863952 0.03463932 0.014600573
000240 6e bf b7 3e b9 8b 0f 3e 78 21 e0 bd 42 1e bd bd
       0.35888237 0.14018144 -0.10943884 -0.09234287
000250 12 b2 8b bd 44 95 e6 bc ce 07 7f 3c 14 41 10 3e
       -0.068210736 -0.028147347 0.015565826 0.14087325
000260 c8 df b5 3d 6b 1d e1 3d f5 83 87 3e d9 e1 f0 3d
       0.088805735 0.10991939 0.26467863 0.11761827
000270 f0 b3 84 bd da 1e 9c be 28 86 61 be f1 e9 dc be
       -0.06479633 -0.30492288 -0.22023833 -0.43147233
000280 79 8b 14 be 16 bf 70 3e 9a b8 87 3d 2b 1b 2c 3e
       -0.1450633 0.23510394 0.06627007 0.16807239
000290 38 98 89 be 84 09 be be 2c 78 9b bd 75 35 10 be
       -0.26873946 -0.37116635 -0.0759128 -0.14082892
0002a0 79 2d 85 3e 83 96 cb 3c 0f bc 14 bd 21 93 98 be
       0.26011255 0.024852043 -0.03631216 -0.2979975
0002b0 31 f2 a7 bc 7f 39 aa 3e 1a 70 45 be c5 e2 d9 3b
       -0.020501228 0.3324699 -0.19281045 0.0066493475
0002c0 01 d0 5f be 29 67 6e 3e 70 6e 9d bd ea 86 a5 3e
       -0.21856691 0.2328154 -0.0768708 0.32329494
0002d0 70 0f 14 be 7b a7 7f bd 46 87 1e 3e 96 fc 83 3e
       -0.14459014 -0.06241558 0.1548129 0.25778645
0002e0 16 1f c1 be 37 68 3f 3e 64 51 e0 3d a3 c0 99 3e
       -0.3771903 0.18692099 0.10953024 0.30029783
0002f0 a8 f0 dc bc 79 29 7f 3e 65 25 fc 3d f3 13 df 3d
       -0.026970223 0.24918164 0.1231182 0.10892477
000300 96 41 f5 3d 5c fd 0d 3e 3f 24 a5 3e 02 27 5f 3c
       0.119754 0.1386618 0.32254216 0.01362014
000310 57 ac a3 be a3 79 7d be cd fd 2f be 06 62 b8 bd
       -0.31967422 -0.24753432 -0.17186661 -0.090030715
000320 15 18 a1 be 69 70 de 3c d6 1a 48 be 3e b6 48 be
       -0.31463686 0.02715321 -0.19541487 -0.1960077
000330 49 1a 8f 3d a0 4e 19 be e4 a5 87 be 47 54 4a 3e
       0.06987435 -0.149714 -0.26493752 0.19758712
000340 da 6a 60 3d 82 66 28 3e 75 50 36 3e 94 b6 16 3e
       0.0547894 0.16445354 0.1780413 0.14718086
000350 98 d1 08 be 3b d6 cd 3b eb 70 8e 3e 18 cf 93 bd
       -0.13361204 0.006281642 0.27820525 -0.072172344
000360 9b c9 aa be f6 6c 25 3e 32 c1 15 be 70 64 20 be
       -0.33356938 0.16154847 -0.1462448 -0.15663314
000370 5b b9 94 bd f8 63 8d 3e 5b 89 65 be 3e 73 fa 3d
       -0.07261916 0.27615333 -0.22415678 0.12229012
000380 cd e9 17 3e a3 92 a1 bd a9 10 b3 bd 47 ad 39 3e
       0.14835282 -0.07889297 -0.08743412 0.18132506
000390 6b 19 2c 3e 6f 87 a2 3c 11 df d2 3d 65 3a 7c bc
       0.16806571 0.01983997 0.10296453 -0.015394782
0003a0 ba a5 ad bd ed 3a 39 be b2 ad 94 3d b9 15 b5 3d
       -0.084788755 -0.18088885 0.07259692 0.08842034
0003b0 61 b2 03 3e 28 77 07 3e bc ae 34 3e 99 1c 34 be
       0.12861015 0.13229048 0.17644781 -0.17589034
0003c0 cd 81 37 be f5 d0 56 be 2b 98 c9 3c 38 54 71 be
       -0.17920609 -0.20978148 0.024608692 -0.23567283
0003d0 ca ad 87 bd 06 1c 7e 3e 8a 3a 83 3e ca 5b 3a 3e
       -0.066249445 0.24815378 0.256306 0.18199077
0003e0 0a 2d 57 bc af c4 0a 3e c6 5e 39 3e bf b8 82 3e
       -0.013133297 0.13551591 0.1810256 0.25531575
0003f0 50 ac b5 be b9 ea ca 3c c3 d3 ab 3e 85 cf 78 bc
       -0.35483027 0.024770128 0.3356 -0.015186195

bias f4 [10]
000000 d9 7e 30 be 06 bd a1 3d b6 e0 06 be cb 03 d2 bd
       -0.17235889 0.078973815 -0.13171658 -0.1025463
000010 fb 0d 11 3e 73 99 ac bb 73 70 b4 3c 8e e3 0e 3e
       0.1416549 -0.005267316 0.022026276 0.13953993
000020 6d ad 04 bd ae 86 55 3d
       -0.032391954 0.052130394
