Computational Intelligence/aeh330_5/resultsclassifier_cnn_5.model (torch, 132183 bytes, 6 tensors)

weight f4 [32, 1, 3, 3]
000000 75 6f a5 be 00 f1 61 be ec 02 50 be 02 12 ab 3e
       -0.32311597 -0.2206459 -0.20313615 0.33412176
000010 1d 6a 63 be 69 6a 78 be 4c 7a 49 be ea dd 44 3e
       -0.22208448 -0.24259342 -0.19675559 0.19225278
000020 2a f4 30 3e f2 7e 29 be 63 dc 6f be a1 4a 9e bc
       0.17280641 -0.16552332 -0.23423915 -0.019322695
000030 8b f9 d2 3c 10 8b 51 be df 3a d7 3b cb 71 10 3e
       0.025753757 -0.20463204 0.0065682973 0.14105909
000040 f1 63 81 be d3 60 a3 3e 38 22 48 3e 2f b4 8a ba
       -0.25271562 0.3190981 0.19544303 -0.0010582263
000050 9c 73 0a be 38 c0 68 bd c3 27 a1 be e1 1c 27 3c
       -0.13520664 -0.05682394 -0.31475648 0.010199756
000060 a3 0d 59 be 3f e2 48 3e 2b 44 e3 bd e1 59 9e bc
       -0.21196608 0.19617556 -0.110969864 -0.019329967
000070 f2 e1 90 be bd 4a cd bd a3 da ad 3e 0b 09 9d 3e
       -0.28297383 -0.10024021 0.3395587 0.30670962
000080 68 97 1d be 23 94 6e be fa d2 42 be 82 c7 b1 3d
       -0.15389788 -0.23298697 -0.19025794 0.08680631
000090 5c 7c b5 bd e7 4b 8c be a8 a1 1f 3e 0a 3e 39 3b
       -0.0886161 -0.2740166 0.1558901 0.0028265738
0000a0 00 e8 80 be 1f e7 3f be b4 a5 07 be 6d 8d 6e bd
       -0.25177002 -0.1874051 -0.13246804 -0.058240343
0000b0 f7 07 37 3e 70 f6 6b be bc a0 96 bd e7 a6 05 bd
       0.17874132 -0.23043227 -0.073548764 -0.032629874
0000c0 dc de 63 be d6 db f9 bd 9a 4b b5 be de 27 3b 3e
       -0.22252983 -0.122001335 -0.35409242 0.18276927
0000d0 49 b7 17 3e c5 bb 12 3e 7c 38 52 be 07 18 ab be
       0.14816011 0.14329441 -0.2052936 -0.3341677
0000e0 29 30 6b be 34 26 74 be 9c 0f ad bd 5f c7 92 3e
       -0.2296759 -0.23842698 -0.08450243 0.28667733
0000f0 51 82 ea bd 2d 35 b0 3d 94 5a 7c be 3a 01 3e bb
       -0.11450637 0.086038925 -0.24643928 -0.002899243
000100 09 ac 47 3d 40 a7 ba bd e4 8a 05 3e b5 f7 5d 3e
       0.04874805 -0.09113932 0.13041264 0.21676524
000110 ed 85 31 3e 40 db 85 be 21 4c 69 be cb ba 94 be
       0.17336245 -0.26143837 -0.22782947 -0.29048762
000120 e5 02 07 be f5 12 fd ba 12 c5 8c 39 6f 9c 88 3d
       -0.13184698 -0.0019308018 0.0002684971 0.06670462
000130 27 49 68 3e f1 6e 86 3e 9e f2 01 3e b1 d4 a1 3d
       0.22684155 0.26256517 0.12690207 0.07901896
000140 3c fa cc bd 91 f4 1d bd c2 31 a4 3e 5f 1e 76 be
       -0.10008666 -0.038563315 0.32069212 -0.24035023
000150 27 03 bd 3d 2b 7e c7 bd d8 16 69 be 97 21 1b be
       0.09229117 -0.097408615 -0.2276262 -0.15149532
000160 c6 fc cb be 86 3c 1f 3e db 57 fa bd dd 68 b9 be
       -0.39841288 0.15550432 -0.12223788 -0.36212817
000170 c0 9f 9c be f8 a3 27 bd 0e d3 90 3e a9 ba 60 3e
       -0.3059063 -0.040927857 0.28286022 0.21946205
000180 90 ad 74 be d5 f4 e1 3d ca ea d3 3d 82 52 30 bd
       -0.23894334 0.11033026 0.10347517 -0.043047436
000190 17 f6 06 be 2a e4 6b bd 6a ec 8c 3e 1c eb 4c bc
       -0.13179813 -0.05759064 0.2752412 -0.012507226
0001a0 12 40 4a 3e 03 e2 82 be 46 fb e7 3d be 9c 16 be
       0.19751003 -0.25563058 0.113272235 -0.1470823
0001b0 7b 4a 6c 3e 61 41 22 be 76 7a 72 3e d5 a2 3a bd
       0.23075287 -0.15845253 0.23679528 -0.045565445
0001c0 20 d7 74 be 52 43 6c be cd f2 4b be ad 59 35 be
       -0.23910189 -0.23072556 -0.1991684 -0.1770999
0001d0 82 e1 1b 3e 92 0e d2 3d 06 82 8e 3e e2 c4 af be
       0.15222743 0.10256685 0.27833575 -0.34329897
0001e0 f9 52 b2 be af 3b 25 3e 62 d4 58 3e f0 bc 59 be
       -0.34828928 0.16136049 0.21174768 -0.2126348
0001f0 57 25 a7 3c 74 af 1a be 66 bc 06 bb f8 14 60 be
       0.020403547 -0.15105993 -0.0020559072 -0.21882999
000200 24 c3 4b be 7e 41 e4 3d 8b 00 9b bd 94 2c 95 3c
       -0.19898659 0.11145304 -0.07568463 0.018209733
000210 f4 4a 98 3e 83 c1 2e 3e f6 3e 58 be 62 12 d3 3d
       0.29744685 0.17066006 -0.21117768 0.103062406
000220 fe 47 bb be 05 cd 5f be e8 e5 41 be 05 93 0e 3e
       -0.36578363 -0.21855552 -0.18935359 0.13923271
000230 cb cd 5a bd 6a cd 65 3e d3 94 77 3d d5 b7 23 3e
       -0.053418916 0.2244164 0.060444664 0.15988095
000240 13 d3 bb be 3c 2a 25 3c f8 02 1d be 12 7b c4 bc
       -0.36684474 0.01008087 -0.15333164 -0.023984466
000250 c5 b9 f7 bd de c8 82 bd 8c a1 e1 3d 6f dd 83 3e
       -0.120959796 -0.063859686 0.11017141 0.25754878
000260 28 f1 16 be 0c e0 94 be 57 a5 c0 be ba 9c 31 be
       -0.14740431 -0.29077184 -0.37626144 -0.17344943
000270 60 bf c3 bc b4 93 9b 3e fa 68 a0 3e ab 64 8c 3e
       -0.023894966 0.30386126 0.3133009 0.27420554
000280 58 ce 5e be f7 f6 8d 3e c5 a9 9c 3c d1 6b 8c 3e
       -0.21758401 0.27727482 0.019123921 0.27426007
000290 e2 5d 8b 3c 13 0f 54 3e 3f 33 af 3e cc fa 73 be
       0.01701254 0.20708875 0.34218785 -0.2382614
0002a0 26 58 71 3d af 4b 3a 3d 37 cd 87 be d9 ae 30 3e
       0.058921956 0.045482334 -0.26523754 0.17254199
0002b0 39 9a 88 bd fb 40 c2 3d 68 48 2c 3c 62 40 0e be
       -0.06670041 0.0948505 0.01051531 -0.13891748
0002c0 0e 39 b0 be 1c 6e 8a 3e 99 4f 34 bd 87 4e 0e 3d
       -0.3441853 0.27037132 -0.044021223 0.03474286
0002d0 5e f7 4c 3d e6 7d 9b 3e 55 be e0 3d 37 b6 55 3d
       0.050040595 0.3036949 0.10973803 0.052175727
0002e0 2f 21 cf 3e 20 08 9a be d0 86 b3 3b 11 63 10 3e
       0.40455005 -0.30084324 0.0054787174 0.14100291
0002f0 a6 e3 14 3e bb 0b 08 3e 56 95 7c bb 3f 2c 34 3e
       0.14539966 0.13285725 -0.003854116 0.17595004
000300 16 cf 84 3c 20 1d f2 bc 75 58 5a be 9e f1 d3 3d
       0.016212028 -0.029554904 -0.21322806 0.10348819
000310 fb 53 53 be ea 13 a2 be 45 18 14 be 98 69 49 3c
       -0.20637505 -0.31655818 -0.14462383 0.012293242
000320 77 fd d6 bd 84 62 71 3c 72 ab 8e be 84 79 a8 be
       -0.10497563 0.014732961 -0.27865177 -0.3290521
000330 6d 33 96 3d fe d6 7e 3e 9e 0b 09 3e a9 ef 87 be
       0.073340274 0.248867 0.13383338 -0.26550034
000340 fd 74 97 be 92 ec f4 3d eb 2f 82 be d8 97 91 bd
       -0.29581442 0.11959185 -0.25427184 -0.0710904
000350 45 73 21 3e 00 c9 6b 3e 1b 16 65 3d a5 5e ae be
       0.15766628 0.23025894 0.055929285 -0.34056583
000360 b4 0a 4d 3e 2c 23 0d 3e 97 00 ec 3d 6c 49 79 be
       0.20023614 0.13782948 0.1152355 -0.24344414
000370 32 9f a1 be a1 ad 46 be 8f 35 81 be f0 9b 90 be
       -0.3156677 -0.19402172 -0.25236174 -0.2824397
000380 4c 48 85 3e 10 99 e1 3d 3a 15 11 3d ad a7 9a bd
       0.2603172 0.110155225 0.035420634 -0.07551513
000390 66 56 46 3e d6 e6 7f bd 48 e3 59 3e 89 69 64 be
       0.19368896 -0.062476 0.21278107 -0.22305883
0003a0 5a f8 90 bd 1e 6a 2b be 87 4c 7b 3e 20 3e 37 be
       -0.07078619 -0.16739699 0.24540912 -0.17894793
0003b0 73 12 83 be 36 bf 83 be 27 05 7a 3e 19 e0 8e be
       -0.25600013 -0.2573182 0.24416028 -0.27905348
0003c0 04 eb 33 be ba 7b 3c 3d 89 92 d5 3d 1e 0b 08 be
       -0.1757012 0.046016432 0.1042834 -0.13285491
0003d0 0a d9 92 3e 26 1f 34 3e 0d 0b 75 3c 19 ce 1c 3e
       0.28681213 0.17590007 0.014956248 0.15312995
0003e0 00 31 2d b9 34 ba ed bd 97 a0 ec bd 67 3e c8 be
       -0.0001651682 -0.11607781 -0.115540676 -0.3911011
0003f0 55 3d 23 3e 81 04 c4 be 19 6e 25 3e b5 3e 50 be
       0.15941365 -0.38284686 0.1615528 -0.20336421

bias f4 [32]
000000 04 e3 59 3c 9e 8d eb bd 17 3a b2 3d 20 60 37 3d
       0.013298754 -0.11501621 0.08702486 0.044769406
000010 fb 66 b5 3e 5a f7 a6 3d 6d 6d 90 3d 63 46 ec be
       0.3543013 0.08152647 0.07052121 -0.4614745
000020 68 35 15 be 36 dc b9 3d 91 52 b3 bd 31 16 88 be
       -0.14571154 0.09075205 -0.08755983 -0.2657943
000030 10 b5 bc be 08 7d 63 be 16 b0 75 bb 90 fd 12 bf
       -0.3685689 -0.22215664 -0.0037488989 -0.57418156
000040 47 07 25 be a1 79 42 be ed 78 48 be b6 7e 0b be
       -0.16116057 -0.1899171 -0.1957738 -0.13622555
000050 79 e0 87 be 9a 48 b8 bd 79 f7 35 bd 5c 4f ac be
       -0.26538447 -0.08998223 -0.04442546 -0.33654296
000060 8e c0 11 3e b8 59 4a 3c ae 62 10 bd 70 0e 80 bc
       0.1423361 0.012350492 -0.03525036 -0.015631884
000070 5e a1 23 3e 8f d3 fe be 9e 87 93 3d 8b 0c c6 be
       0.15979525 -0.4977078 0.07203601 -0.38681445

weight f4 [60, 512]
000000 c1 b5 92 bd bb c5 3b 3d e0 79 b5 3b cd b5 45 3c
       -0.07163573 0.045842867 0.0055382103 0.01206727
000010 8a 25 b8 bc cd 66 08 3d a9 b0 83 3d 7d 3c 99 bd
       -0.022478838 0.033301163 0.064301796 -0.0748224
000020 72 bb 74 3d 38 3c 9f bd 73 e1 91 3d 87 36 20 bd
       0.059749074 -0.07775158 0.07123079 -0.0391145
000030 24 9d 86 ba 33 ec 43 bd 3b fc 8f 3d df 5a 32 bb
       -0.001027022 -0.04783268 0.07030531 -0.0027214808
000040 3f 06 70 bd 65 e1 3a 3c 50 a8 96 bd 27 3c 6f bd
       -0.058599707 0.011406277 -0.07356322 -0.058406975
000050 7c a8 53 3a 38 be ba bc 8f 77 6a 3d 68 77 02 bd
       0.00080741174 -0.022795781 0.057242926 -0.031852156
000060 95 ed 8d bd 5d 78 07 bc 0c 5c c2 3b 28 1a 27 3c
       -0.06930081 -0.008268443 0.005931383 0.010199107
000070 39 c7 7c bd bd 13 db bb 64 4e f8 bc 41 0c f6 ba
       -0.06171343 -0.0066857026 -0.030310817 -0.0018771962
000080 b4 ca 1e 3c f0 e5 3f 3d 90 a3 23 bd 1c eb fa bc
       0.009691883 0.046850145 -0.039950907 -0.030629687
000090 87 83 e2 bc ff 4b d4 3c 2b 73 8d bb 30 2f 28 bc
       -0.027650608 0.025915144 -0.0043167076 -0.010265157
0000a0 ac 4c 15 3d c2 68 cc 3c 3e d1 29 3d 2e be 12 bc
       0.036450073 0.024952296 0.041459315 -0.008956475
0000b0 43 7d 13 bb d6 4c 60 3d 01 94 2a 3c a0 92 66 bd
       -0.0022505082 0.054760776 0.010411263 -0.056292176
0000c0 d0 5c 18 3c 0a 4e 26 3c 86 ed 15 bd 75 62 52 ba
       0.009299472 0.010150442 -0.036603473 -0.00080255355
0000d0 e8 21 06 bd 34 89 5e 3d 3f b4 08 bb cf 84 3d bd
       -0.03274718 0.054330066 -0.0020859388 -0.046269234
0000e0 8d 04 70 3d f2 26 c6 bb 95 ac eb bc bd ef ea bb
       0.05859809 -0.006047123 -0.028768817 -0.0071696923
0000f0 2f d4 5b 3b fe 3d b1 bc f2 0f f1 bc ff 18 da bc
       0.003354322 -0.021636005 -0.029426549 -0.026623247
000100 69 00 a7 3b c4 58 19 3d a2 45 97 ba 7b 33 66 bc
       0.0050964844 0.03743817 -0.0011541138 -0.01405036
000110 43 f8 b0 3b f8 3c 90 3d a9 c0 57 3d bd 59 48 bd
       0.005400689 0.07042879 0.05267397 -0.048913706
000120 84 3d 6e bd 49 fc 93 3d c6 12 2a bb 2d 67 c5 bb
       -0.058164135 0.07225854 -0.0025951131 -0.0060242624
000130 ae 40 47 bc 0f 12 be 3c 77 8b 85 3c 3a 04 11 3d
       -0.012161417 0.02320197 0.016301854 0.03540442
000140 0b 9b 92 bc ff df 57 3d 35 32 b4 3c fa 7b 3b 3d
       -0.017896196 0.052703854 0.021996597 0.04577253
000150 ef b5 00 bd 65 50 40 3d a5 5d f3 3c 02 40 5b 3c
       -0.031423505 0.04695167 0.02970774 0.01338196
000160 8c 15 ea 3c d0 63 82 bc 15 a9 21 3d af 88 af bb
       0.028574727 -0.015916735 0.03946789 -0.00535687
000170 f1 fb 3a bd 82 e8 54 3d c9 ef ac ba 57 f1 af 3c
       -0.045650426 0.05197955 -0.001319402 0.021477384
000180 97 0b f4 ba c0 c5 9f 3c f6 16 11 3c 05 b5 80 3d
       -0.0018619177 0.019503474 0.008855572 0.06284527
000190 34 56 10 bc e3 76 b4 3c 58 59 5f 3c 9d 23 55 3d
       -0.008809615 0.022029346 0.013632141 0.052035917
0001a0 f7 54 95 bd 57 9d 85 3b 95 9e dc bb d1 6f 85 3d
       -0.072915964 0.0040775943 -0.0067327716 0.06515468
0001b0 23 17 1a bd 69 0d 2f 3d eb b7 52 3d a2 93 e2 3c
       -0.03761972 0.0427374 0.05144493 0.027658287
0001c0 d5 e2 58 ba 71 da 18 bb 4a 23 91 bd 31 f8 92 bc
       -0.00082735467 -0.002332356 -0.07086809 -0.017940613
0001d0 77 bd 1a 3d 63 f7 57 3d 4e 2b 8f 3d 1e cf 64 3c
       0.037778344 0.05272616 0.069906816 0.013965396
0001e0 e6 b9 23 ba 7f fb 81 3d ea 05 e3 bc bc 9d 4d 3d
       -0.00062456576 0.06346797 -0.027712781 0.050199255
0001f0 13 b6 89 bd 17 15 80 bd 4e 43 9f 3b ea 8f 0e bd
       -0.06724181 -0.062540226 0.0048603183 -0.034805216
000200 9a 07 86 bc eb 02 45 bc a6 4a 22 bd 92 40 d0 3b
       -0.016361047 -0.0120246215 -0.03962197 0.0063553536
000210 d4 11 ef bb e3 4a 48 bc 14 84 0f bd 36 f5 7e bc
       -0.0072958264 -0.012224886 -0.03503807 -0.0155613925
000220 e7 98 41 bb 01 ad 80 bd c6 a8 cf bc 11 24 77 bd
       -0.00295406 -0.06282998 -0.025349032 -0.06033713
000230 26 08 1d bc 86 40 64 bd 40 50 f6 3b 6c 3c 41 bd
       -0.009584462 -0.055725597 0.0075168908 -0.047176763
000240 2b 87 2a bd 55 f3 83 bd 28 fa 79 3c e8 cf 3c bd
       -0.041632812 -0.06442896 0.015257396 -0.046096712
000250 59 17 dc 39 ae 65 a4 bc 7c 0d 49 bd 70 59 a7 bc
       0.00041979065 -0.020068016 -0.049085125 -0.02042839
000260 33 02 33 3c a9 03 2b bd e9 40 a2 bc 60 f2 57 3c
       0.010925817 -0.041751537 -0.019806342 0.013180345
000270 d1 90 84 bc 27 b5 09 3c 69 51 04 3a 7b 93 18 bd
       -0.016182335 0.0084050065 0.00050475314 -0.037250023
000280 02 e6 4c bd a6 bb 5a bd 07 c1 d1 bc 4d e2 d1 3c
       -0.05002404 -0.05340161 -0.025604738 0.025620604
000290 df a8 49 bd d9 51 5c bd 18 30 85 bd 84 38 87 3d
       -0.049233314 -0.053788994 -0.06503314 0.066025764
0002a0 49 cd 93 bd 41 17 88 bd c9 8b de bb de 5b 0f 3d
       -0.072168894 -0.0664506 -0.006791566 0.03499972
0002b0 34 1d 83 ba 08 53 1a bd d5 2f c5 bc 29 49 37 3b
       -0.001000321 -0.03767684 -0.02407066 0.002796719
0002c0 6d 69 f6 bc 12 d8 e6 bb e5 6c 6a bd fb 63 60 bc
       -0.030079568 -0.0070448006 -0.057232756 -0.013695712
0002d0 27 c6 87 bd 87 a6 61 bb a3 dc 2a bb 0f e1 03 bd
       -0.066295914 -0.0034431533 -0.002607145 -0.032197054
0002e0 05 c8 40 bd 4b bc 17 bd 81 58 31 3c f5 5a e6 bc
       -0.047065753 -0.037044805 0.010824324 -0.028119544
0002f0 6c 04 68 3c 11 39 b6 bc 5e c8 45 bb d4 43 80 bd
       0.0141612105 -0.022244008 -0.0030179243 -0.06262937
000300 97 b4 0c bd 88 a4 ae bc ee 80 ad bc 1a 52 14 bd
       -0.03435191 -0.021318689 -0.021179643 -0.03621111
000310 e7 f2 cf bc 98 ce 72 bc b7 42 0b bd c6 08 bc 3d
       -0.02538438 -0.014819764 -0.03399917 0.09181361
000320 83 6c 85 bd 67 67 1b bd b3 22 d9 bb 74 dc 94 3d
       -0.065148376 -0.03794041 -0.006626451 0.072686106
000330 f6 da f8 bc fb c9 47 3d 81 08 96 bd a7 d2 90 bd
       -0.030377846 0.048776608 -0.07325841 -0.07071429
000340 f3 64 2b bd ea 9a d0 3a 6f a7 72 3b 51 2d d1 3a
       -0.04184432 0.0015915309 0.0037026068 0.001595894
000350 ec 60 12 3d d1 c8 4a bd 93 c3 25 3c 52 9e 03 3d
       0.035736963 -0.04950792 0.010117429 0.032133408
000360 43 b0 94 bd e1 03 00 bd ea db 4e bd 40 44 c2 bc
       -0.07260182 -0.0312537 -0.050502695 -0.023714185
000370 48 39 59 bd 6d 50 13 bd 24 5b 12 bc 4c 0d f1 ba
       -0.053033143 -0.035965372 -0.008932862 -0.0018390804
000380 88 d9 86 bd a8 2b bd bc 18 f2 f5 bc 9b 26 26 bc
       -0.065844595 -0.023092106 -0.030022666 -0.01014104
000390 88 a6 5f 3d 6d 0e 85 bc 72 40 6f bd f4 67 25 bd
       0.054602176 -0.01624223 -0.05841107 -0.04038234
0003a0 e0 9c 0b 3c 02 98 66 bc f3 37 09 bd 5a aa 8e bc
       0.008521289 -0.014074327 -0.033500623 -0.017415214
0003b0 06 ef 1f 3d 87 57 52 bd 0a d4 10 bc 23 74 8e bd
       0.03904631 -0.051353004 -0.008839617 -0.06955745
0003c0 94 22 84 bd 1d 1f 56 bd 9c 24 93 bd d7 9d c6 bc
       -0.06451908 -0.052275766 -0.07184717 -0.024245186
0003d0 63 f2 8d 3d ad d1 03 bd 51 1f 46 bd 3d d4 3c bc
       0.06930997 -0.032182384 -0.04836971 -0.011525211
0003e0 fe 17 58 3d d6 20 0c bd 67 9e 49 b9 08 e5 de bc
       0.052757256 -0.034211002 -0.00019227863 -0.02720882
0003f0 33 b3 10 bc 34 da 68 bd aa 68 ac 3d 34 41 cf bc
       -0.008831787 -0.05684872 0.084184006 -0.025299646

bias f4 [60]
000000 64 93 31 bd 01 d9 54 bc 89 17 8b bb d9 92 43 3d
       -0.043353453 -0.012991191 -0.004244749 0.047747467
000010 87 19 ea bb b9 e2 f9 ba 66 7b 12 bd b4 63 e4 3c
       -0.0071441564 -0.0019064761 -0.035762213 0.027879573
000020 cc d6 dc 3c 93 64 59 bd 55 c1 79 bd 7b f4 e3 3c
       0.026957892 -0.05307443 -0.06097539 0.027826538
000030 9a 53 5d 3c 15 70 26 bc 5e ea 19 3d 19 11 87 3c
       0.013508702 -0.010158558 0.037577026 0.016487645
000040 fa 1d 48 bc ef d6 90 3d 04 d9 72 bd ee 68 ab 3c
       -0.012214178 0.07072245 -0.059288993 0.020924058
000050 62 51 0b bd e4 12 28 3d 6d 64 83 3c b6 38 34 3d
       -0.03401316 0.04103364 0.016039098 0.043999396
000060 f1 cc 47 bc 9b b0 d3 ba 34 b6 24 3d 99 a2 2f bd
       -0.012194858 -0.0016150655 0.040212825 -0.042879675
000070 d6 a1 04 3d d7 38 6a 3c 78 7d 28 3c c9 19 32 bd
       0.0323809 0.014295778 0.01028382 -0.043481622
000080 c6 2c 50 bc 85 2b 02 3d a6 59 df bc e3 e0 84 3c
       -0.012705987 0.031779785 -0.027264427 0.016220516
000090 39 d5 c8 3c 1a d9 e2 3c 30 f0 4e 3b f6 df 06 bc
       0.024515735 0.027691413 0.0031576268 -0.008232107
0000a0 3e 1f 96 3c 22 c1 5c bd 43 b8 0d bd 6e 11 80 3d
       0.018325444 -0.053895123 -0.034599554 0.062533244
0000b0 74 04 3f bd 3a 22 25 3d 9c 9a 6b 3b 21 97 c0 3c
       -0.046635106 0.040315844 0.0035950309 0.023509564
0000c0 23 78 e0 3c 7c be c6 bc 55 cd f5 3c cc d6 09 3d
       0.027401036 -0.024260752 0.030005137 0.033652112
0000d0 0e 26 01 bc 9d e5 1c bd 86 ad 49 3d 04 88 63 3c
       -0.007882608 -0.038304914 0.04923775 0.013887409
0000e0 90 43 b4 3c f1 fd b3 bc 67 69 17 3d 3b 8c 8b bc
       0.022004873 -0.021971675 0.036965754 -0.01703464

weight f4 [10, 60]
000000 71 88 d5 bb f5 df 1e be 13 be 23 be fd fd 9b 3e
       -0.006516509 -0.1551512 -0.15990476 0.30467215
000010 fc bb 98 3e 41 68 9b bd 65 5f 33 be a0 ab 60 be
       0.2983092 -0.07588244 -0.17516859 -0.2194047
000020 cc a0 79 be ec 0f e3 3d 1d 07 4b 3c a2 91 90 3e
       -0.24377745 0.11087021 0.012391833 0.2823611
000030 b8 a4 20 3c d2 7b a9 3e 19 12 7b 3e 16 51 6e 3e
       0.009804897 0.3310228 0.24518622 0.2327312
000040 f8 41 98 3e 13 b8 a7 3d a1 5b e4 3d 82 21 ef bd
       0.2973783 0.08189406 0.11150289 -0.11676313
000050 ce 67 a4 3d 12 43 e6 3a 08 be 55 bd 41 bc 10 bd
       0.08027612 0.0017567596 -0.05218318 -0.035335783
000060 5f fd a6 3e 4f 8b de 3d b0 91 95 be 51 20 d5 3e
       0.32615182 0.10866415 -0.29212713 0.41626218
000070 5f 83 a9 3e dd 16 06 ba ac ee a9 3d 22 8c 98 3d
       0.3310804 -0.0005115101 0.08297476 0.07448603
000080 10 3a 65 bd 74 f1 97 bb 36 c9 6c be 5a da 80 be
       -0.055963576 -0.0046369378 -0.23123631 -0.2516659
000090 01 98 92 3d 7d 8f 1c 3e f7 8b 30 3d 02 63 0a 3e
       0.07157899 0.15289111 0.04310223 0.13514331
0000a0 a0 69 43 bc 9e 92 00 3d ff d8 dc bd 24 b5 a2 3d
       -0.011927038 0.031389825 -0.10783576 0.07944706
0000b0 d6 d8 52 3e de ac b0 3d 7c 86 2f 3b ec bf d8 bd
       0.20590529 0.08626722 0.002678304 -0.10583481
0000c0 74 08 61 bd f0 8d 1a be 95 2c ac 3c 0c 83 7c 3e
       -0.054939702 -0.15093207 0.021017352 0.24659365
0000d0 b4 bd da 3c ae a2 00 be a4 92 bb bc b7 89 28 bd
       0.026701786 -0.12562057 -0.022897072 -0.04114696
0000e0 ec 4c 62 3e a3 e5 6f be 96 64 d6 3d 82 f8 45 be
       0.22099656 -0.23427443 0.10468404 -0.1933308
0000f0 4a f7 eb 3d 99 41 9a 3e ae ab 1b be 5e f7 48 be
       0.11521776 0.30128172 -0.1520221 -0.19625613
000100 88 f4 a7 be 7d a1 03 be e1 aa 86 3e 5e f5 49 3e
       -0.3280375 -0.12854572 0.26302245 0.19722506
000110 63 77 b3 bc 39 32 65 3d 5e 2f 07 3d 53 51 9e be
       -0.021907514 0.0559561 0.033004157 -0.3092142
000120 96 8e 5c 3d 3b a1 a2 bc c3 5b f1 bc f5 28 94 be
       0.053846918 -0.019852271 -0.0294627 -0.28937498
000130 97 50 66 3e 14 d5 69 3e ca 0f 29 3d 41 53 9d 3d
       0.2249168 0.22835189 0.041274823 0.07681895
000140 90 dc d3 bd 0b c5 92 bd 7c 7d 42 be 41 11 4b 3d
       -0.10344803 -0.07166489 -0.18993181 0.049577
000150 3c ec 4e be 6b f4 a7 3e 49 6b 6d 3e c2 2f 8f be
       -0.20207304 0.32803664 0.23185457 -0.27966124
000160 fa f8 1e be 99 34 81 3d 46 6a 02 be eb b0 e7 bd
       -0.15524665 0.0630886 -0.12735853 -0.11313041
000170 ae d5 a7 3e bb 22 1a 3c 59 07 9e 3e f2 02 76 3e
       0.32780212 0.009407694 0.3086498 0.24024561
000180 de a6 b7 3e 7f 86 89 bd 90 89 df bd 86 21 66 3e
       0.35869497 -0.06715106 -0.1091491 0.22473726
000190 52 2a d8 3d a8 f2 1b bd 22 22 4e be 31 b2 a1 bc
       0.10554947 -0.038073212 -0.20130208 -0.019738289
0001a0 54 18 a1 be 8c b3 09 3c 9c d5 13 3d 26 fd 8e 3e
       -0.31463873 0.008404624 0.036092386 0.27927512
0001b0 9b 1a 03 bd b6 15 8a 3e 65 f9 95 3e cc 77 a2 be
       -0.032007795 0.2696969 0.29291835 -0.31732023
0001c0 22 60 05 3e c3 52 6d bd a1 ec bf bb cd d2 b3 3d
       0.13024953 -0.057940256 -0.005857066 0.087804414
0001d0 1f 00 9a be 4a c0 f5 bd 33 7a ba 3d 91 9f cf 3d
       -0.30078217 -0.11999567 0.09105339 0.10137857
0001e0 7a 8e b3 3a d0 10 d5 3d 08 98 a8 be 8a 3d 3d be
       0.0013699078 0.10403597 -0.3292849 -0.18480507
0001f0 db 25 af be 7e 5c 22 3d cc 69 09 be 57 b8 d6 3d
       -0.3420857 0.03963899 -0.13419265 0.10484379
000200 30 94 d6 3e 40 19 c9 3d 1a 8e 48 bd 0f d1 ec bd
       0.41909933 0.09819269 -0.048963644 -0.11563312
000210 40 52 f4 3c 4e 40 2c be 09 5e a7 be 8a ec fd bd
       0.029824376 -0.16821405 -0.3268893 -0.12398632
000220 07 92 5e 3e 6b ec 9f be e4 0c 04 be d8 6f 7a bd
       0.21735393 -0.3123506 -0.12895542 -0.06114182
000230 f2 d0 f2 3b 1d 0d c2 3d 69 2d 8b bd 8b 02 11 bd
       0.007410162 0.094751574 -0.06795771 -0.035402816
000240 1b 38 7f be 21 4c 73 be 5a 56 8b 3c 2b 04 8c 3e
       -0.24923746 -0.2375951 0.01700895 0.2734693
000250 fc 8f 7d 3e 66 d1 92 3d 86 7d 8a bd 41 39 d3 bd
       0.24761957 0.07168846 -0.06762223 -0.10313655
000260 bc 2c 59 bd e8 7f e0 3c c8 90 81 3e b0 29 3a bc
       -0.053021178 0.02740474 0.25305772 -0.011362478
000270 80 ff 7f be a4 3e 1d 3e c6 ed 42 be 4c 1a 91 be
       -0.2499981 0.15355927 -0.19036016 -0.28340375
000280 05 e7 18 be ea 9b 45 bd 02 23 70 3e 89 58 c5 bd
       -0.14931877 -0.048244394 0.23450854 -0.09636027
000290 fa cb 64 be 3a c6 bc bd 0c 99 43 3d 45 69 23 bc
       -0.22343436 -0.09217496 0.04775338 -0.009973829
0002a0 94 b9 e3 3b 12 e7 8f be 9b 02 2c be f6 1a 7a be
       0.006949613 -0.2810598 -0.16797869 -0.24424347
0002b0 cc b2 35 be 71 ad a7 3c c9 8d b2 3d b4 97 06 bd
       -0.17743987 0.020468445 0.087184496 -0.03285952
0002c0 29 e3 79 3e c8 7e a1 3d 5e 3b 48 3d a5 fb 59 be
       0.24403061 0.0788551 0.048884742 -0.21287401
0002d0 63 70 21 bd 1f 0d b7 bc 86 82 a6 3e bf a5 c5 bd
       -0.03941382 -0.022345124 0.32521456 -0.09650754
0002e0 ca 30 88 be bc c9 94 bd 3a 6b 0b be ac 32 ec bd
       -0.26599723 -0.0726504 -0.13615122 -0.115331024
0002f0 e3 0a 66 be 49 14 cb 3c 8c ab 2d 3d 54 d3 2f be
       -0.2246509 0.024789946 0.042399928 -0.17170459
000300 49 b2 6a 3c fa ef ca bd 6d 0a 2c bd 1a af 39 3e
       0.014324733 -0.09909053 -0.04200213 0.18133202
000310 27 6a d3 be 8a 64 92 be da 97 32 bd 25 28 4a 3d
       -0.41291925 -0.2859233 -0.04360185 0.04935469
000320 2f 5d 7a bd c3 96 48 3d 30 db c8 3c 76 08 07 bc
       -0.061124023 0.048971903 0.02451858 -0.008241763
000330 29 e2 aa 3e eb c9 84 be f4 a5 67 3e 20 42 98 3e
       0.33375672 -0.259353 0.226219 0.2973795
000340 66 eb ac bd 01 df fe 3d 22 9a 83 3d 98 99 89 3c
       -0.08443336 0.12444878 0.06425883 0.016796872
000350 0a 2d 8a be aa 44 a1 bd 28 e5 97 3e 94 20 89 be
       -0.26987487 -0.07874425 0.2966702 -0.26782668
000360 d9 67 17 be fa 5d b1 be ec 8e 54 3e 2d 8d 7d be
       -0.14785708 -0.3464201 0.20757645 -0.24760886
000370 1a d0 f4 be 12 90 44 bc 03 2b a6 bc a2 82 f5 3d
       -0.4781502 -0.01199724 -0.020284181 0.11987807
000380 28 3c 85 bc 8f 1b 83 bd a0 b9 a7 3d 37 86 6a 3e
       -0.016264036 -0.06401741 0.08189702 0.22902761
000390 53 7d 1f be f5 9b af be 2d 90 bb bd e8 16 81 be
       -0.15575151 -0.34298673 -0.09158359 -0.2521279
0003a0 35 11 44 bd 2a 3a e7 bc eb d2 fb 3c 26 6e 23 3e
       -0.047867972 -0.028225977 0.030740222 0.15959987
0003b0 f9 e3 8d be 64 2a b7 bd 79 d6 97 3e f7 6a 5d be
       -0.27712992 -0.08943632 0.29655817 -0.21622835
0003c0 73 34 d2 3c 65 da 3c 3e 0f 3a 9e bd c1 dc d1 3d
       0.025659775 0.18442686 -0.077259175 0.102471836
0003d0 3c 77 f0 3c 8c 83 24 3d 32 5b a7 3e 18 14 99 be
       0.02935373 0.040164515 0.32686764 -0.29898143
0003e0 53 f0 d8 3d 4e 08 b4 bc 0a c8 57 bc 2b 21 8b 3e
       0.10592713 -0.021976616 -0.013170252 0.27173743
0003f0 c4 76 cb 3d 7d 36 af 3e e9 7e 84 3e d2 ab 50 be
       0.09934762 0.3422126 0.25878075 -0.20378044

bias f4 [10]
000000 ce 5c 98 3d 7c eb 63 3c 47 5a b1 3d ae 29 d0 bc
       0.07439576 0.013911124 0.08659797 -0.0254105
000010 24 29 81 bc ba 4f f4 3c c2 0a 07 be 87 81 e0 bd
       -0.015766688 0.029823173 -0.13187698 -0.109622054
000020 f2 be 81 bd 15 34 1b 3e
       -0.06335248 0.15156586
