Computational Intelligence/aeh330_5/resultsclassifier_cnn_7.model (torch, 48535 bytes, 6 tensors)

weight f4 [32, 1, 3, 3]
0	0x3dfd7bb4	0.1237711
1	0xbc951442	-0.018198136
2	0x3e13438e	0.14381239
3	0xbe394187	-0.18091403
4	0xbd507e7d	-0.05090188
5	0xbe72be67	-0.23705445
6	0xbe5a6bf2	-0.2133024
7	0x3eb72208	0.3576815
8	0xbe700c77	-0.23442255
9	0xbc63cfe0	-0.013904542
10	0xbe9bfda8	-0.30466962
11	0x3e4348dd	0.19070764
12	0x3cd62825	0.02614219
13	0xbe17c8c7	-0.14822684
14	0x3de137ba	0.10996957
15	0x3de4cc8a	0.11171825
16	0xbe975dd3	-0.2956377
17	0x3e26b2e1	0.16279174
18	0x3e36d6ce	0.17855379
19	0xbc898dd0	-0.016791254
20	0xbe758665	-0.23977049
21	0xbebc0ec2	-0.3673001
22	0xbea2699f	-0.31721207
23	0xbe93c020	-0.28857517
24	0x3d34f74f	0.044181164
25	0x3e188d21	0.14897586
26	0xbe23f851	-0.16012694
27	0xbe640b10	-0.22269845
28	0xbe95587d	-0.29169074
29	0x3e0d9f07	0.13830195
30	0xbe23f498	-0.16011274
31	0x3d323313	0.04350574
32	0xbe0465c0	-0.1292944
33	0xbc8e0a93	-0.017339027
34	0x3eafae67	0.34312746
35	0xbdb36882	-0.08760168
36	0xbe8e3311	-0.27773336
37	0xbeb58a28	-0.35456967
38	0xbe330978	-0.17484081
39	0x3e48c7e7	0.19607507
40	0xbe9082d2	-0.28224808
41	0xbe8ca662	-0.2747069
42	0x3df3a4ec	0.11896691
43	0xbe089ef4	-0.13341886
44	0x3dc53c8e	0.096306905
45	0xbd916ade	-0.071004614
46	0xbe38a0ba	-0.18030062
47	0x3e98815b	0.2978619
48	0x3e29c49a	0.16578904
49	0x3e0de8bd	0.13858314
50	0xbd4613e5	-0.048358817
51	0xbc6ce354	-0.014458496
52	0xbebd6e1a	-0.36998063
53	0xbe831c30	-0.25607443
54	0x3bd1386c	0.0063849
55	0xbecb24ad	-0.3967642
56	0xbe585499	-0.21126021
57	0x3e60cf85	0.21954162
58	0x3e6357e9	0.22201504
59	0x3ec7bf03	0.39012918
60	0x3db987f9	0.09059138
61	0xbe20843f	-0.15675448
62	0xbd36587c	-0.04451798
63	0x3e6566ef	0.22402547
64	0xbdd4ddec	-0.10393891
65	0x3db7f998	0.08983153
66	0x3dc2357e	0.09482859
67	0x3ea5db21	0.32393745
68	0x3d4a1b49	0.049342427
69	0xbae4d914	-0.0017459714
70	0xbe83cf99	-0.25744322
71	0x3e036488	0.12831318
72	0x3cf4d2ec	0.029885732
73	0xbd31916d	-0.04335158
74	0x3d07af55	0.033126194
75	0x3cc7164c	0.024302624
76	0x3d21b2af	0.039477047
77	0x3deac349	0.11463029
78	0x3e3b45e4	0.1828838
79	0x3e6b35e4	0.22969776
80	0xbe52f40c	-0.20600909
81	0xbdab5238	-0.08365291
82	0x3e87cf63	0.2652541
83	0xbe0664ea	-0.13124433
84	0xbe732ff2	-0.23748758
85	0xbd99d2e1	-0.07510925
86	0x3e5ae017	0.21374546
87	0xbe39b37e	-0.18134877
88	0xbe8a8556	-0.27054852
89	0x3e6eaf92	0.23309162
90	0xbd71ab40	-0.059001207
91	0xbe89e496	-0.2693221
92	0xbeb703f1	-0.35745195
93	0x3dd328e1	0.103105314
94	0x3e2ae5f2	0.1668928
95	0xbde4531c	-0.11148664
96	0xbddb2d97	-0.10702055
97	0x3cc379ec	0.023861848
98	0x3db3b29c	0.087743014
99	0x3e45073a	0.19241038
100	0xbe291de3	-0.16515307
101	0x3e945a01	0.28974918
102	0xbe17f0ab	-0.14837901
103	0xbde808b1	-0.11329783
104	0x3e6de40b	0.23231523
105	0x3d44408a	0.04791311
106	0xbd90631c	-0.070501536
107	0x3eabf546	0.33585566
108	0xbc7cfb05	-0.015440707
109	0xbde957e7	-0.11393719
110	0x3de6c321	0.11267687
111	0xbd177d20	-0.036984563
112	0xbc982dd9	-0.01857655
113	0xbe570200	-0.20996857
114	0x3d380c29	0.04493347
115	0x3e7200eb	0.23633163
116	0xbdefb255	-0.11703936
117	0xbc180393	-0.009278196
118	0xbe69af4d	-0.22820778
119	0xbe8217e9	-0.25408867
120	0x3eafda77	0.34346363
121	0xbdd3acf3	-0.10335722
122	0x3e204ae5	0.1565357
123	0x3d812f0a	0.063078
124	0xbd76da70	-0.060266912
125	0xbe92f475	-0.2870213
126	0x3dfa286b	0.1221474
127	0x3ea9b4fe	0.331459
128	0xbe5a01f6	-0.2128981
129	0xbe2fd035	-0.17169268
130	0x3e26e1f7	0.16297136
131	0xbe26fd72	-0.16307619
132	0x3cc0c243	0.023530131
133	0xbed0966b	-0.4073976
134	0xbe6dfb4d	-0.23240395
135	0x3e6c1bcc	0.23057479
136	0x3e4db9eb	0.20090453
137	0x3e1640ba	0.14673129
138	0xbe7bb660	-0.2458129
139	0xbd9fb51c	-0.07798216
140	0xbeb50cd4	-0.3536135
141	0xbe67b42d	-0.22627325
142	0xbe7bd7a9	-0.24593987
143	0xbde75085	-0.11294655
144	0xbe33bea7	-0.17553197
145	0xbb44feca	-0.0030059093
146	0xbcde8e10	-0.02716735
147	0xbe68d766	-0.22738418
148	0x3d82291e	0.06355499
149	0x3e242406	0.16029367
150	0x3e4b294d	0.19839974
151	0x3ecea5b8	0.40360808
152	0x3d9756c1	0.07389594
153	0xbdbaac8e	-0.091149434
154	0x3c139d3a	0.009009654
155	0x3e2e8690	0.17043519
156	0xbe8c72fe	-0.27431482
157	0x3c2b67b4	0.0104617365
158	0x3e47f65a	0.1952757
159	0xbdf74e94	-0.120755345
160	0xbd230e27	-0.03980842
161	0xbdd47d75	-0.103754915
162	0xbb615e3b	-0.003438844
163	0xbe25a95b	-0.16177885
164	0x3ea57876	0.32318467
165	0x3d3822f0	0.044955194
166	0x3e603c38	0.21897972
167	0xbe6999cc	-0.22812575
168	0xbdc00e63	-0.09377744
169	0xbe76f2de	-0.24116084
170	0xbd5c0ee5	-0.053725142
171	0xbda1369e	-0.078717455
172	0x3dccb674	0.09995738
173	0x3cc5da1d	0.024151856
174	0x3df40ccb	0.119165026
175	0x3e9d9525	0.3077785
176	0x3e5e8dd7	0.21733795
177	0xbb14b18e	-0.0022688839
178	0xbba83f66	-0.005134511
179	0x3e9ab0bb	0.3021296
180	0xbe20032d	-0.15626211
181	0x3e46ca63	0.19413142
182	0x3da060f3	0.078309916
183	0x3e66f3a2	0.22553876
184	0xbe626fc3	-0.22112946
185	0x3e92fb36	0.28707284
186	0xbdf54006	-0.11975102
187	0x3d17baf4	0.037043527
188	0x3d31b438	0.04338476
189	0x3bf12038	0.007358577
190	0x3e8a22e5	0.26979747
191	0xbeabf4aa	-0.335851
192	0xbeb92e03	-0.36167917
193	0xbe21ff5b	-0.15820067
194	0xbba6cfee	-0.005090705
195	0x3e24f377	0.161085
196	0x3e94e634	0.2908188
197	0xbea2e663	-0.31816396
198	0xbeeefc17	-0.46676704
199	0xbeba5232	-0.36390835
200	0x3e282d1b	0.16423456
201	0x3d56842f	0.052372154
202	0xbe018ed0	-0.12652135
203	0xbe94e388	-0.29079843
204	0x3d3844a9	0.044987354
205	0x3e2ad9f8	0.16684711
206	0x3e05d91b	0.130711
207	0xbe7fca12	-0.24979427
208	0x3e5f772b	0.21822803
209	0x3e51e3ab	0.20497005
210	0xbe8fdba4	-0.2809726
211	0x3e3ffb41	0.1874819
212	0xbe1cfd35	-0.15330966
213	0x3e755364	0.23957592
214	0xbe830a8c	-0.25593984
215	0xbe2ae283	-0.1668797
216	0xbd27d5d1	-0.040975396
217	0x3ea8b7fc	0.3295287
218	0xbe57d28f	-0.21076415
219	0xbec240e2	-0.37940127
220	0xbe3e5e21	-0.18590595
221	0x3e485500	0.19563675
222	0x3ced8dc9	0.028998272
223	0xbe241ea4	-0.16027313
224	0xbdb6e79a	-0.08930893
225	0x3ec03acf	0.37544867
226	0x3dd04569	0.10169489
227	0xbe1e13bb	-0.15437214
228	0xbe830c28	-0.25595212
229	0xbebb4aa1	-0.36580375
230	0x3db4ed67	0.088343434
231	0xbe4322e0	-0.19056273
232	0x3bad8472	0.0052953297
233	0xbd8af8f2	-0.06785764
234	0x3c4a80a7	0.012359775
235	0x3e90edef	0.2830653
236	0xbe2a69b6	-0.16641888
237	0xbe085070	-0.13311934
238	0xbeeb25a6	-0.4592716
239	0xbe952314	-0.29128325
240	0x3dbd16e9	0.092328854
241	0x3dd493a6	0.10379724
242	0x3e82c318	0.2553947
243	0x3dfde3bb	0.12396952
244	0x3e4342cd	0.19068451
245	0x3dd60380	0.10449886
246	0xbd299a3a	-0.041406848
247	0x3eaa1075	0.3321568
248	0xbdd66d06	-0.10470013
249	0xbde2c76d	-0.11073194
250	0xbe21eaed	-0.15812273
251	0xbeb70fed	-0.35754338
252	0xbec2c225	-0.38038746
253	0xbded1412	-0.11576094
254	0xbe055c2b	-0.1302344
255	0x3e8438e4	0.25824654

bias f4 [32]
0	0xbe70594d	-0.23471566
1	0xbe65e4d6	-0.22450575
2	0x3e513dc1	0.20433713
3	0xbe25a1cf	-0.16175006
4	0xbe38fe2b	-0.18065707
5	0xbce15ee8	-0.027511075
6	0xbe0babbb	-0.13639729
7	0xbe4f5e4e	-0.20250818
8	0xbf1da5a6	-0.61580884
9	0x3e3b05cf	0.18263935
10	0x3a21b584	0.00061687105
11	0xbd29f7c8	-0.04149607
12	0xbd33d1af	-0.04390114
13	0x3d63eb20	0.055644155
14	0xbda55e9b	-0.08074685
15	0x3e63a63c	0.22231382
16	0x3ccc9e70	0.024977893
17	0x3cef88ea	0.02924009
18	0xbe51a39e	-0.20472571
19	0xbea3d2e4	-0.31996834
20	0xbe02006d	-0.12695475
21	0x3dd91536	0.10599749
22	0xbe3d5da4	-0.18492752
23	0xbe04331e	-0.12910125
24	0xbe54dfd3	-0.20788507
25	0x3db0cea1	0.08633161
26	0xbeae708a	-0.34070235
27	0xbe4ce215	-0.20008118
28	0xbe5689ce	-0.20951006
29	0xbe10c4a9	-0.1413752
30	0xbd1c4161	-0.038148288
31	0xbf0f2542	-0.55916226

weight f4 [20, 512]
0	0xbd47d59d	-0.048787702
1	0xbe816f2d	-0.25280133
2	0x3ded829f	0.115971796
3	0xbdb3dd4e	-0.08782445
4	0xbb9dbb8a	-0.004813616
5	0x3e422720	0.18960238
6	0x3e1a854b	0.1508991
7	0x3d1ce45b	0.038303714
8	0xbdfe43a0	-0.12415242
9	0x3d97e826	0.07417326
10	0x3dad7866	0.0847023
11	0xbbf692dc	-0.007524831
12	0xbd716a13	-0.05893905
13	0x3c6b21b6	0.014351299
14	0xbe295c5c	-0.16539139
15	0x3dc8e01c	0.098083705
16	0x3b295c9e	0.0025842558
17	0xbd7fa99f	-0.062417623
18	0x3c2b5d8f	0.010459318
19	0xbd5f46b1	-0.054510776
20	0x3caf687a	0.021412123
21	0x3b598c7f	0.0033195314
22	0xbd8d9725	-0.06913594
23	0xbd57cc8d	-0.05268531
24	0x3be862bf	0.0070918496
25	0xbc5a7333	-0.01333313
26	0xbc36a479	-0.011147612
27	0xbcdb7e1c	-0.026793532
28	0x3bb79c06	0.0056033162
29	0xbd76222f	-0.060091194
30	0x3d9f7df2	0.07787694
31	0xbd36a35a	-0.044589378
32	0xbcb470a6	-0.022026371
33	0xbd4d0fd9	-0.05006394
34	0x3b1a7b13	0.0023571893
35	0xbe659049	-0.22418322
36	0x3d59efd0	0.05320722
37	0x3bd2282d	0.0064134807
38	0x3d766d94	0.060163096
39	0x3da6c379	0.08142752
40	0xbc819608	-0.01581861
41	0xbe31f43f	-0.17378329
42	0x3da39026	0.079864785
43	0x3df5f1c2	0.12009002
44	0x3e43e506	0.19130334
45	0xbcd11e7d	-0.025527233
46	0x3d4b9ddc	0.049711093
47	0x3d3ad966	0.045617484
48	0x3cf867d2	0.030322943
49	0xbdb62b5c	-0.08894989
50	0xbda439e3	-0.080188535
51	0x3daa2b6d	0.08309064
52	0x3d034002	0.032043464
53	0x3e2fa5c8	0.17153084
54	0x3e23426c	0.15943307
55	0xbd636cf2	-0.05552382
56	0xbe17f9a7	-0.14841329
57	0x3dc047c5	0.09388689
58	0xbc7cf07b	-0.015438194
59	0xbcd9fb27	-0.026609017
60	0x3cfef4d8	0.03112261
61	0xbdaa1c78	-0.08306211
62	0xbcf32547	-0.029680861
63	0x3ac475c7	0.0014988714
64	0xbce9dd31	-0.028547855
65	0xbd1a2bd6	-0.03763946
66	0x3bbb1c70	0.005710177
67	0xbbcff0a1	-0.006345824
68	0xbc677f2b	-0.01412944
69	0xbd1a14eb	-0.037617605
70	0xbe0accbf	-0.13554667
71	0xbd851cdb	-0.06499644
72	0xbcc58106	-0.024109375
73	0xbd81f0fd	-0.06344793
74	0xbdb8f120	-0.09030366
75	0x3d171f9c	0.03689538
76	0x3dec8097	0.11547964
77	0xbd3880d3	-0.04504473
78	0xbd096734	-0.033545688
79	0x3dfb16b0	0.12260187
80	0x3e081f50	0.13293195
81	0x3dbd74f3	0.09250822
82	0x3da2c9f1	0.079486735
83	0xbc91615c	-0.01774662
84	0x3d339d8d	0.043851424
85	0x3e022a84	0.12711531
86	0xbdfb9ea5	-0.122861184
87	0xbb52653b	-0.0032103795
88	0xbd8d9e38	-0.069149435
89	0xbdfa4766	-0.122206494
90	0xbe25cfac	-0.16192502
91	0xbd8cb9c6	-0.06871371
92	0x3babc4cf	0.0052419673
93	0x3d6c18e5	0.05764093
94	0xbc8c99a6	-0.017163109
95	0xbb99aaad	-0.0046895356
96	0x3d708c7e	0.058727734
97	0xbce1e411	-0.02757457
98	0x3cad530f	0.02115777
99	0xbd59be55	-0.05316003
100	0xbce0aa74	-0.027425028
101	0xbcd406b1	-0.025882097
102	0x3b1b1e81	0.0023669305
103	0x3d78cc98	0.06074199
104	0x3de0c758	0.10975522
105	0x3d3b8b8b	0.045787375
106	0x3d8c244c	0.068428606
107	0xba84acf8	-0.001012235
108	0xbd86558a	-0.06559284
109	0x3d6d9d1b	0.058011156
110	0xbc30684a	-0.010767052
111	0x3ceaaa99	0.0286458
112	0x3cdf84d3	0.027285015
113	0xbd105a15	-0.03524216
114	0xbd05879c	-0.03260003
115	0xbd4a46fc	-0.049384102
116	0xbd64a524	-0.055821553
117	0x3c76ff08	0.015075453
118	0xbccadc5e	-0.024763282
119	0xbd02eee0	-0.03196609
120	0xbcd4025a	-0.025880028
121	0xbc74433e	-0.01490861
122	0xbd1f84f0	-0.03894514
123	0x3d376701	0.044775967
124	0x3a12be66	0.00055978296
125	0xbd3822b3	-0.044954967
126	0xbb8a4a17	-0.004220258
127	0x3c0854e8	0.0083210245
128	0x3e01e91b	0.12686579
129	0xbc515c1e	-0.01277831
130	0x3c9e6d5c	0.019339256
131	0xbcb8b67a	-0.02254795
132	0xbcc308de	-0.02380794
133	0xbd9969c2	-0.07490875
134	0xbd1b9cf0	-0.037991464
135	0x3d88555a	0.066569045
136	0xbe0e9fba	-0.13928118
137	0x3cd4d242	0.025979165
138	0x3bbc4841	0.005745918
139	0x3d837265	0.064183034
140	0x3e0027c1	0.12515165
141	0xbb07e424	-0.0020735348
142	0x3b98c64c	0.0046623107
143	0x3b0f2296	0.0021840683
144	0xbc3bea0f	-0.011469378
145	0x3dda4d62	0.10659291
146	0xbc49f6fa	-0.01232695
147	0xbd38a7a3	-0.045081746
148	0xbd70f085	-0.058823127
149	0x3ccaba8d	0.024747157
150	0x3dd2354a	0.1026407
151	0x3aca8e9f	0.0015453881
152	0xbd34d5c1	-0.044149164
153	0xbdcf6d89	-0.10128314
154	0x3dd7a7cf	0.10530054
155	0xbd0fc300	-0.035098076
156	0xbd0d2a39	-0.034464095
157	0xbd461bae	-0.04836624
158	0xbd5a870c	-0.053351447
159	0xbd4a9480	-0.049458027
160	0x3da461c7	0.08026462
161	0xbb53f473	-0.0032341748
162	0xbcd4fb71	-0.025998803
163	0xbc885ddd	-0.01664632
164	0xbd42bf1a	-0.04754553
165	0x3d784f6c	0.060622618
166	0xbbfa25f0	-0.007633917
167	0x3ca5c1b0	0.020233959
168	0xbc9d1daa	-0.019179184
169	0x3dbf21bc	0.09332606
170	0x3e27a478	0.16371334
171	0x3dc6823c	0.09692809
172	0xbcbbe0c9	-0.022934334
173	0xbd349088	-0.04408315
174	0xbd9c5782	-0.07633878
175	0xbd32ffc4	-0.04370095
176	0xbccf6a79	-0.025319325
177	0x3b0bce72	0.0021332768
178	0xbd704f86	-0.05866959
179	0xbc4794ba	-0.012181455
180	0x3d0b2452	0.033970185
181	0xbd53e219	-0.051729295
182	0x3d177244	0.036974207
183	0xbd0cd2d2	-0.03438074
184	0xbc9276ce	-0.017878916
185	0xbcdc39bb	-0.026882997
186	0x3ced1c50	0.028944165
187	0xbc0ba17d	-0.0085223885
188	0xbcbcbf90	-0.023040563
189	0xbd26089e	-0.04053556
190	0xbd048764	-0.03235568
191	0xbd919591	-0.07108606
192	0x3d42f31e	0.047595136
193	0xbd834781	-0.06410123
194	0xbc5adb1b	-0.013357903
195	0xbc524e36	-0.01283603
196	0x3c22b078	0.009929769
197	0xbd39d84d	-0.045372296
198	0xbc31896c	-0.010835987
199	0x3d1c7afa	0.038203217
200	0xbd18368e	-0.037161402
201	0x3e03f615	0.12886842
202	0x3c1c9dc8	0.009559102
203	0x3c8624d6	0.016374987
204	0x3d0e186e	0.034691267
205	0x3c34228a	0.010994563
206	0xbb85c16e	-0.0040818965
207	0xbc219e9c	-0.009864476
208	0xbd9afaed	-0.075673915
209	0xbddef101	-0.108858116
210	0xbccacbe4	-0.024755426
211	0x3bc039b1	0.0058662524
212	0x3d9dad65	0.07699088
213	0xbd19be3e	-0.037534945
214	0x3d3b3d7e	0.04571294
215	0x3c109180	0.008823752
216	0x3dcaf35e	0.099097
217	0x3dd95ddf	0.106136076
218	0x3d05e7ce	0.03269177
219	0x3c40937e	0.011753915
220	0xbdfd3851	-0.12364257
221	0xbdafa2c9	-0.08575971
222	0xbd8721a9	-0.06598217
223	0x3d30b24d	0.04313879
224	0xbd359cad	-0.04433887
225	0xbd617d35	-0.055051047
226	0xbd039389	-0.032123122
227	0xbd14bbe9	-0.036312018
228	0x3dad8991	0.08473504
229	0x3da35ad5	0.07976309
230	0x3d94d034	0.07266274
231	0x3cabdc64	0.020979114
232	0x3cc72df1	0.024313899
233	0xbd7da02d	-0.061920334
234	0xbdb3da49	-0.08781869
235	0x3da40bb2	0.08010043
236	0xbd8a7678	-0.06760877
237	0x3e6f85a6	0.23390827
238	0x3ce96e60	0.028495014
239	0xbb04b4c5	-0.0020249349
240	0xbd744013	-0.05963142
241	0x3d4318e0	0.047631145
242	0xbc0f2118	-0.0087359175
243	0xbd49f1d9	-0.04930291
244	0x3d53f818	0.051750273
245	0x3e7bb86c	0.2458207
246	0x3dfe10a6	0.12405519
247	0x3ded5bee	0.115898
248	0x3ccf24de	0.025286134
249	0xbdd5566c	-0.10416874
250	0xbdc94fae	-0.09829651
251	0xbc37d989	-0.011221298
252	0xbc8cb70f	-0.017177133
253	0xbdc1c5f8	-0.09461588
254	0xbd1245c3	-0.03571106
255	0x3c36956b	0.011144022

bias f4 [20]
0	0xbc4008d3	-0.011720854
1	0x3c8e8ab3	0.017400121
2	0x3c44007b	0.011963005
3	0x3c80ff3f	0.01574671
4	0xbcefe2f0	-0.029283017
5	0xbd88894d	-0.06666813
6	0x3d84fd4c	0.06493625
7	0xbc1abd24	-0.009444509
8	0x3c1ccdef	0.009570583
9	0xbce13810	-0.027492553
10	0x3b3b4ac8	0.0028578509
11	0xbd33e05e	-0.043915145
12	0x3cb332ee	0.021874871
13	0x3d313804	0.04326631
14	0xbd0d5964	-0.034509078
15	0xbc7b771c	-0.015348222
16	0x3d5f14b7	0.054463115
17	0xbc021c91	-0.007941381
18	0xbbd6fdd6	-0.0065610213
19	0x3b95e803	0.004574777

weight f4 [10, 20]
0	0x3e6d2364	0.23158032
1	0x3eeb0c0f	0.45907637
2	0xbf0b4b72	-0.54411995
3	0x3e9e7b58	0.3095348
4	0xbeeccaaa	-0.4624837
5	0x3e2f6527	0.1712843
6	0x3dadf209	0.0849343
7	0x3bb7e7ba	0.0056123408
8	0xbe618590	-0.22023606
9	0x3f1d23fb	0.61383027
10	0x3eef5177	0.4674184
11	0x3f0c6204	0.5483706
12	0xbea09574	-0.31364024
13	0xbd3f62fe	-0.046725266
14	0xbf08667a	-0.53281367
15	0x3ccaba9e	0.02474719
16	0xbe268a23	-0.16263632
17	0xbf01579b	-0.505243
18	0xbe36af77	-0.17840372
19	0xbef16bf7	-0.47152683
20	0xbf22f771	-0.63658816
21	0x3f04129c	0.51590896
22	0xbe722b2b	-0.2364928
23	0xbf02daa9	-0.511149
24	0xbf03841d	-0.51373464
25	0x3df5e4db	0.12006541
26	0xbe05f5db	-0.13082068
27	0x3c1a0ffa	0.009403223
28	0x3d665856	0.056236587
29	0x3d85f91d	0.06541655
30	0xbe8cf6d8	-0.27532077
31	0xbe119c4e	-0.14219782
32	0x3ec6a7f0	0.388
33	0xbde92d8b	-0.1138564
34	0x3f0bcff3	0.5461418
35	0xbd38b877	-0.045097794
36	0x3dc04e8b	0.09389981
37	0x3ef3522b	0.47523627
38	0x3f08a3ed	0.5337513
39	0xbe969757	-0.29412338
40	0x3e65f586	0.22456941
41	0xbed471e8	-0.41493154
42	0x3f36644d	0.71246797
43	0xbec7a436	-0.3899247
44	0x3f05cb37	0.52263206
45	0x3de87d9b	0.11352082
46	0xbe2222d4	-0.15833598
47	0x3c92b99a	0.017910767
48	0xbe16aafb	-0.14713661
49	0xbef3e5ea	-0.47636348
50	0xbf0992e1	-0.53739744
51	0x3ef4e92a	0.4783414
52	0xbeb85199	-0.35999754
53	0x3dbb36fb	0.09141346
54	0x3e81a626	0.25322074
55	0xbe47630f	-0.19471382
56	0xbd8c36ef	-0.06846415
57	0x3eead284	0.45863736
58	0xbe535d9f	-0.20641182
59	0x3e88fed4	0.26756918
60	0x3e8df8cd	0.27728882
61	0xbee954c3	-0.4557248
62	0x3f24b4c8	0.6433835
63	0xbf0385e8	-0.513762
64	0xbf00969b	-0.50229806
65	0x3ae47573	0.0017430022
66	0xbe37138f	-0.17878555
67	0xbcb5f5b0	-0.02221188
68	0xbd98eff1	-0.0746764
69	0x3e8b833c	0.2724856
70	0xbedff44c	-0.4374107
71	0xbf2c2a76	-0.6725229
72	0xbef71f93	-0.48266277
73	0xbe228812	-0.15872219
74	0x3ee8bffd	0.45458975
75	0x3d970f8f	0.073760144
76	0x3d915b02	0.070974365
77	0xbef92b82	-0.48666006
78	0xbe656826	-0.2240301
79	0xbd366e5d	-0.044538844
80	0xbe9b7cfa	-0.30368787
81	0x3f092858	0.53577185
82	0xbe8069a4	-0.25080597
83	0x3ebcb318	0.36855388
84	0x3f3e87b5	0.7442582
85	0x3b6f5efc	0.003652512
86	0x3e0bcecc	0.13653105
87	0x3e59b6f3	0.21261196
88	0xbc8af995	-0.016964713
89	0xbee59d0d	-0.44846383
90	0xbe911854	-0.28338873
91	0x3f0f3c30	0.55951214
92	0x3ec75084	0.38928616
93	0xbc3a1792	-0.011358159
94	0xbeeb2653	-0.45927677
95	0xbe060eac	-0.13091534
96	0xbcee4400	-0.02908516
97	0x3f076730	0.52891827
98	0x3f263941	0.6493111
99	0xbe3aeed9	-0.18255176
100	0xbe1edc22	-0.15513662
101	0x3ed93472	0.42422825
102	0x3f044da1	0.5168095
103	0xbf0c035a	-0.54692614
104	0x3eccb163	0.39979085
105	0xbdb7dd15	-0.08977715
106	0xbe20bc90	-0.15696931
107	0x3d87c618	0.0662958
108	0xbd883f17	-0.066526584
109	0x3e66a573	0.22524051
110	0x3f13c829	0.57727295
111	0xbed269a0	-0.4109621
112	0x3e26b2d4	0.16279155
113	0x3e07904c	0.13238639
114	0xbeca597b	-0.39521393
115	0x3d557265	0.05211105
116	0x3dbd8da6	0.09255533
117	0xbedc7420	-0.43057346
118	0xbe1cc77f	-0.15310477
119	0x3eded290	0.4352002
120	0x3ecd5c7b	0.4010962
121	0x3eb98875	0.3623692
122	0xbed5b981	-0.4174309
123	0x3ef876f3	0.4852825
124	0x3cc67a69	0.024228292
125	0xbd855dd3	-0.06512036
126	0xbe8297b4	-0.25506365
127	0x3cc9e13d	0.024643535
128	0x3dc40b7b	0.09572502
129	0xbd767f50	-0.06018001
130	0xbe8162ad	-0.25270596
131	0xbf215241	-0.63016135
132	0xbedbb5ff	-0.4291229
133	0xbcd2ecc9	-0.025747674
134	0xbede92d1	-0.43471387
135	0x3bfc3542	0.0076967785
136	0x3d9037bf	0.07041883
137	0x3ef424ac	0.47684228
138	0x3f33a300	0.70170593
139	0x3e901d1c	0.2814721
140	0x3e369329	0.17829575
141	0xbe1b777e	-0.15182301
142	0xbe04abd7	-0.12956177
143	0x3ef29a8b	0.47383532
144	0x3ed9166c	0.4239992
145	0x3d209ce6	0.03921213
146	0xbde06d05	-0.10958294
147	0xbd00a1d0	-0.031404316
148	0x3d8a8891	0.06764329
149	0x3e403d05	0.18773277
150	0xbf0f6e2f	-0.560275
151	0xbee952b4	-0.4557091
152	0x3ed3b9a2	0.41352564
153	0xbc612b0a	-0.0137431715
154	0xbf0aa8e6	-0.5416397
155	0xbdcd19b2	-0.100146666
156	0xbd3d676d	-0.046241213
157	0xbf2371a7	-0.63845295
158	0xbe7c2f7b	-0.24627487
159	0xbf01c428	-0.50689936
160	0x3e15a131	0.14612271
161	0xbf17ca44	-0.5929301
162	0xbf2bc763	-0.67101115
163	0xbe07443d	-0.13209625
164	0xbebe88dd	-0.37213793
165	0x3cb77ba2	0.02239782
166	0x3d59b763	0.053153407
167	0x3d3ecd31	0.046582405
168	0xbe2d6a28	-0.16935027
169	0x3f0f97d7	0.56091064
170	0xbeda7cce	-0.42673343
171	0x3f119d81	0.56880957
172	0xbeadb349	-0.33925846
173	0xbe524b98	-0.20536649
174	0x3f0179b5	0.50576335
175	0x3cc5c576	0.024142008
176	0xbd02a5c1	-0.031896356
177	0x3e8854fe	0.26627344
178	0xbe0cc56e	-0.13747188
179	0x3e99ac5d	0.30014315
180	0xbf12ce65	-0.57346183
181	0x3dc87b32	0.09789123
182	0x3f1a41ff	0.6025695
183	0x3d977109	0.073946066
184	0xbeb21b0a	-0.34786254
185	0x3dc10341	0.09424449
186	0xbe06bff3	-0.1315916
187	0x3d2093bc	0.03920339
188	0x3e2a4c1d	0.16630597
189	0xbe696f8a	-0.22796455
190	0x3ee0f21f	0.43934724
191	0x3f1158e8	0.56776285
192	0xbe785048	-0.24249375
193	0x3d41e767	0.047339823
194	0x3eef4567	0.46732637
195	0x3db9a3bb	0.09064432
196	0x3d98c687	0.07459741
197	0xbee4cb96	-0.44686574
198	0xbeac68e5	-0.33673778
199	0xbed7dfcd	-0.42162934

bias f4 [10]
0	0xbe816b0b	-0.2527698
1	0x3e8d7d24	0.27634537
2	0x3e3e9440	0.1861124
3	0xbe8a2023	-0.26977643
4	0xbe086533	-0.13319854
5	0xbd8d7049	-0.06906182
6	0xbe80a752	-0.25127655
7	0xbdcfbe5b	-0.10143729
8	0x3db4ba94	0.088246495
9	0xbe1436a6	-0.14473972
