Computational Intelligence/aeh330_5/resultsclassifier_cnn_0.model (torch, 111383 bytes, 6 tensors)

weight f4 [32, 1, 3, 3]
00000000: a1e3 9cbb 8b5d 913e ad0b 8d3e c0a9 fc3d
00000010: 55b0 9f3e 6163 4dbe b6a8 cdbd abfc b7be
00000020: aea9 39be a73a 0dbe 62e4 22be 114d 913e
00000030: a9b1 3ebe 306d 843e f75c c23d be68 5f3d
00000040: 05ac 86be f934 a5be a6e4 293d d726 a23e
00000050: 1df3 adbd d105 bfbd 3b11 9dbe 5d4b a1be
00000060: 0cff 6f3e 63e2 9d3e 5dd1 aabc 6eb2 eabd
00000070: e1b3 21be 3ed6 313d 42e4 94be 315c a5be
00000080: ef9a 55be ed6b d73e e000 3c3e 2f62 1b3e
00000090: 604f 9c3e 3b50 903e c255 83be 1f6a 8a3d
000000a0: 57be e73b bef0 a13e 91ad 7bbe 3b90 c63d
000000b0: 1a5c a4bd 7343 3d3e 6f20 ef3d cbb5 673e
000000c0: f89e 913e 1c52 cf3d dd52 75be 769e 53be
000000d0: 90f3 f93c 46ea 183e c820 533e 640c 33be
000000e0: b139 2cbe 597a 923e 67c7 de3d aa22 d03d
000000f0: 6b45 883e eca5 4cbe 77c7 89bd 60af 283e
00000100: 701b 233e 3efb 923e 2564 493e 6aeb 9a3e
00000110: 5678 eebc 9d14 b4be 9a66 613d 3641 d6bd
00000120: 1d13 0cbd c923 3cbe edc4 78be 69e8 38bd
00000130: 68d0 c9bd a21b 1cbd 3807 6e3c 9e0a 9d3e
00000140: 573f 723e 1936 c93c 7e46 523e a510 eb3e
00000150: 244f 0cbe 4e0d 133d 304e 67be 5008 233e
00000160: 5b4c 3ebd 2f75 ccbe 6487 993e bc27 63bd
00000170: fcce fa3e 1868 a13e 8bc1 f33e 348e 5bbe
00000180: f817 9e3c db19 31be 1362 7dbe 2b52 6c3e
00000190: 2bbe 2e3e 3c16 55bd 1e2c 853e 58c4 8abe
000001a0: 36d6 d23b 2b59 21be 8255 69be be3b 163e
000001b0: 97eb 28be 2d42 b13e b8b0 a83e 761c 12be
000001c0: a4e2 93bd 8e2f afbc adb1 89be 9cbd c23c
000001d0: 67a9 9dbe ee0e 833e 3353 463e c697 f6bd
000001e0: c944 8d3e c9ce ab3e e469 013b 01f0 dbbd
000001f0: 570b 23be 00bc 7fbe 752b 5a3e 6fef 973e
00000200: be35 6dbd d11d 943e df76 663e 789c 44be
00000210: 4aab 5f3e b8d9 36be 3d87 953d ec39 49be
00000220: 3c92 d93d 457f 09be 047c 433e 24b9 ce3d
00000230: b2e1 bd3c d9a2 a43e ee6b b03c 7223 94be
00000240: a260 9b3a 4f46 563e 9027 7b3e 6498 9dbe
00000250: 9315 27bd d43a 773d bacb 943e e3cd c73d
00000260: d807 e33d 8ae2 bf3b 904f 073e f52e babe
00000270: 00f5 013c b45d 1bbe de97 1abe 960b ae3e
00000280: ee22 d23d 6e77 0dbc 55ad aebe 7595 9c3e
00000290: cc6e 583e 8f7c 4a3e e729 903e d1d3 883e
000002a0: e835 893e aca3 99bc 4bf5 93be a1e1 03be
000002b0: 27ab a1be 80f3 a63e 4fc6 d33d bf7f 5ebd
000002c0: 8a04 9e3e c330 403e 3069 c33a 8cc5 8bbe
000002d0: 2c09 2a3c 3cf1 593e fd0b 4bbe b44a 9a3c
000002e0: 1f99 733c 307f 80be e968 2d3e 0837 a4b8
000002f0: 68f8 803e c252 3fbe 7ea6 383e 1d00 813d
00000300: 2b20 b93e 9279 2d3e f461 e5bd b570 b03e
00000310: 77c3 ee3d a72c 92be d845 403e f5a5 bfbc
00000320: f743 3f3e cd44 7e3e 90cd 25be 7728 793d
00000330: fe29 0dbe d79a 1e3e 9a13 153e 0f1c 73be
00000340: 4b4a 093e 219e 8c3d 1907 a73e 40bf 893e
00000350: e4f4 b8bd 2f32 afbd 9b2c 3bbe 5db8 593d
00000360: 3dd0 7abe cfb0 7f3e 6e15 3f3e 728d 84be
00000370: d74c a63e a018 bcbd 0ab5 00be cb20 2e3e
00000380: 1ff4 a9bd 9865 0d3e 9743 cd3d b3f0 193e
00000390: 81f7 3c3d e832 ab3c 8586 51be 93d2 8c3c
000003a0: ecd9 fe3c 60e5 b1be b69f acbd 29d2 a63e
000003b0: 1dbc 89be 383c 74bd bf4b 203c 4f50 d63e
000003c0: 908f 90be 50e5 3abe 5da8 bfbd 86e9 81be
000003d0: 7b1c a0be da92 433e f0ca 92bd a1e8 a43e
000003e0: 6c11 b23e ba00 c43e 498c 96be 8530 313e
000003f0: a29c e23e f305 1dbd 6a7b 04be 0f15 6dbe
-0.0047878777 0.2839168 0.2754797 0.12337065 0.31189218 -0.20057441 -0.10041945 -0.35934958
-0.18131134 -0.13791905 -0.15907434 0.2837911 -0.1862246 0.25864553 0.09490388 0.05454325
-0.26303115 -0.32266977 0.04147782 0.31670257 -0.08493636 -0.09327281 -0.30677208 -0.3150281
0.23437136 0.30836782 -0.020851785 -0.11459814 -0.15791275 0.043417208 -0.29080397 -0.322969
-0.20859884 0.42074528 0.18359709 0.15174173 0.30529308 0.2818621 -0.25651366 0.06758522
0.007072251 0.31628984 -0.24577929 0.096954785 -0.080253795 0.18482761 0.11676108 0.22627942
0.28441596 0.10123083 -0.23957391 -0.20665917 0.030511647 0.14933118 0.20617974 -0.17485195
-0.16818883 0.2860897 0.10877877 0.10162862 0.26615462 -0.19985169 -0.06727498 0.1647315
0.15928435 0.28707308 0.19667108 0.30257732 -0.029110115 -0.35171977 0.05502949 -0.10461657
-0.034197915 -0.18373026 -0.24293871 -0.04514352 -0.098542035 -0.03811229 0.014528088 0.30672163
0.23656975 0.024561929 0.20534703 0.45911136 -0.13702065 0.03590136 -0.2258842 0.1592114
-0.046459537 -0.39933154 0.29986107 -0.055457816 0.48986042 0.3152473 0.476086 -0.21440965
0.019298539 -0.1729502 -0.24744444 0.2307822 0.17064731 -0.052023157 0.2601022 -0.27102923
0.0064342273 -0.15756671 -0.22786525 0.14671227 -0.1649612 0.346208 0.32947326 -0.1426867
-0.07220963 -0.02138498 -0.26893368 0.023772053 -0.30793306 0.25597328 0.19367675 -0.12040667
0.2759154 0.33556202 0.0019746954 -0.107391365 -0.15922295 -0.2497406 0.2130564 0.2967486
-0.05791258 0.28928998 0.22506283 -0.19200313 0.21842685 -0.1785649 0.07301185 -0.19651002
0.10623595 -0.13427456 0.19090277 0.100939065 0.023178909 0.32155493 0.02153584 -0.28933293
0.001185436 0.20925258 0.2452681 -0.30780327 -0.04079206 0.060358837 0.2906168 0.09756067
0.110854805 0.005855863 0.13213944 -0.3636395 0.007931948 -0.15172464 -0.15096995 0.33993214
0.102605686 -0.008634431 -0.34116617 0.30582777 0.21136016 0.19774078 0.2815697 0.26724103
0.2679894 -0.018754803 -0.2889808 -0.1287904 -0.3157589 0.3260765 0.10340559 -0.054321047
0.30862838 0.18768601 0.0014908668 -0.27299154 0.010378163 0.2128343 -0.19828792 0.01883445
0.01486805 -0.25097036 0.16934551 -7.83038e-05 0.2518952 -0.18683913 0.18032262 0.0629885
0.36157355 0.16940907 -0.11200324 0.3446099 0.11658376 -0.28549692 0.18776643 -0.023394564
0.1867827 0.24830933 -0.16191697 0.060829606 -0.1378555 0.15488754 0.14558259 -0.23741172
0.13407247 0.06866098 0.32622603 0.26903725 -0.09031084 -0.08554494 -0.18278734 0.05315434
-0.24493499 0.24969791 0.18660519 -0.25889164 0.324805 -0.09184384 -0.12569061 0.17004697
-0.082985155 0.13808286 0.10022657 0.15033226 0.046134476 0.020898297 -0.20461471 0.017190253
0.031109773 -0.34745312 -0.084289 0.32582214 -0.26901332 -0.05962774 0.009783684 0.41858146
-0.2823453 -0.18251538 -0.093582846 -0.25373477 -0.3127173 0.19098988 -0.071676135 0.32208732
0.34778917 0.38281804 -0.29403904 0.17303665 0.44260126 -0.03833575 -0.12937704 -0.23152564

bias f4 [32]
00000000: a540 d3bd b14d 98bb 9172 5dbe 0741 173e
00000010: 5563 73be 305f 5e3e 37ae 6dbb bec2 f1bd
00000020: aa71 45be b320 9c3d 81c4 a0bd 85a3 ff3d
00000030: 8780 9d3e c562 07be 8dcf 753d b109 f33d
00000040: 2cf9 a73d 1e14 8bbe 061b aebe 3ef6 4e3e
00000050: 2456 5ebe 66a7 43bd 3539 d93d 6dde 96be
00000060: a8c6 32be 9646 6f3e d03e 39bd 58d1 493b
00000070: 846d 873d 3f00 8abd 4881 723e ff68 8a3e
-0.10315064 -0.0046479334 -0.21625735 0.147709 -0.23768361 0.21715999 -0.003626717 -0.11804722
-0.1928164 0.076234244 -0.0784998 0.12482361 0.3076212 -0.13221271 0.06001239 0.11867083
0.08201823 -0.27163786 -0.34004992 0.20211121 -0.21712548 -0.047767065 0.106066145 -0.29466572
-0.17458594 0.2336677 -0.04522592 0.0030794945 0.06612685 -0.06738328 0.2368213 0.2703323

weight f4 [50, 512]
00000000: 0b76 3dbe 84ed 00bd e501 b0bd 9a64 7d3d
00000010: fb15 c9bd 7218 e13d 6d3d 5dba 7292 97bc
00000020: 00e9 4b3e 24ac d83d 6907 863e e09b d33d
00000030: 2c83 2e3e 4465 b23b 3521 55bd f604 e43c
00000040: 9cac f0bd 5f95 153e df92 563c 0303 78bc
00000050: 3cc8 bd3d e036 aa3c 10fb d2bc 678e b13b
00000060: 10e1 143e 78fe 293c d315 c3bc 9bb2 efbc
00000070: 49cf efbd 646f bd3d d7ab e7bd d6de 85bc
00000080: 2b74 a6bd 4e70 1ebe 2871 0c3e e2ff b03d
00000090: a718 1ebe ee5c 963d 8b7c d1bd 130b 0f3e
000000a0: fc76 09be d5a3 193e 40c7 afbd 1260 d03c
000000b0: e79e 473e ebb3 2d3e 036f 673d 1097 2bbc
000000c0: f5b3 9e3d 6e60 dcbd afa2 2e3e fd97 633e
000000d0: 02b0 99bd 9ab1 a63c 1695 28be 457c 8dbd
000000e0: 2e9b 9b3d 6aec 4f3e a558 6b3c f515 acbd
000000f0: 5938 383d abf7 a33d bd1d 2f3e 1c45 f4bd
00000100: 5edc fdbc 4f30 5e3d 646b babb 7347 edbc
00000110: 120c ed3d 3ffc 543d 10a8 993d cbe1 ee3b
00000120: 800e 083e 053f cc3c 0fbe bebd 7d9b 6b3e
00000130: bf05 613e 6b25 bfbd cdd1 ccbd 2acc bfbd
00000140: 9046 b73b fb57 f1bc e62c 813d 5ffe 9fbd
00000150: 04c8 e0bc b152 523d 19dc 213d 09b0 dd3d
00000160: 4d8d dd3d 5ae5 64bc cfe0 14bc 9a49 1c3e
00000170: 886a 7d3d 0bd9 2dbd 1702 79bc 73d0 9bbd
00000180: 8d2d 97bd ab7c 0b3d 7401 503d 7dd6 d8bc
00000190: c5ae 0cbe 4aac fa3d 48c3 b1bd d40c 003e
000001a0: 6f0a ab3d e3dd ae3d 3336 63bd db8d 4e3d
000001b0: 90b8 733e 6eb2 293c c97c b03c b1c2 13be
000001c0: c288 d23b f70c 1d3c 7cab 2d3c 1081 adbc
000001d0: f1ab a13d 46aa 1c3d 5aba 933d 4a23 7d3d
000001e0: c144 003e 8662 fbbc d33b 12bc 40af 5a3e
000001f0: e9ef 16bb b8fc 4cbd 96da c6bd f003 b5bd
00000200: c9fc 063d 5270 8f3d 3f69 9c3d 7b5e 363d
00000210: 85ea e73d eda3 303d 65d5 cfbd 2b33 2e3c
00000220: aeb6 393d 91c1 1a3e 732d 893d c0f0 413b
00000230: 5ee0 8abd 93ae c63d 710e 343e e6fd 92bd
00000240: 58ee 1fbe d004 1ab9 af03 193c 42ef 083e
00000250: b371 dabd 1eda 0a3e 1d3b 30be 0a94 c8bc
00000260: 67b6 173e ca0b 8e3d a087 2f3e cd35 bebd
00000270: e8fa bf3d f3de 3b3e 506d 6b3d c0fd 50bb
00000280: 6e98 67be a2cc c83b 8d8b afbd 4011 e8bd
00000290: e6c0 7abb 4211 403e d4c7 303c a1e6 c63c
000002a0: a149 213e 3e5b 4f3c 45d8 903d 4b10 0d3e
000002b0: a95a 013d 8cf1 8a3c f8f9 a7bd 3682 abbd
000002c0: a76c 823d 81fe fabc 6207 1f3d b2d4 94bd
000002d0: e9bc 433c 1268 c63d 8d46 893d 9024 053d
000002e0: 85d1 bcbd 5ec8 8b3d a770 87bc ff1f 063e
000002f0: 9fde 243e dbc6 9c3b bdbb 073e 7433 dabd
00000300: 6863 acbd ea1f 5e3d efea 9fbd 7d9c 7f3d
00000310: aba2 99bc 5966 0c3e dbed e539 e9ff b6bd
00000320: 281f 233e fe85 053e 5c9d 2c3e 5c90 1abe
00000330: 5229 4a3c f815 f63c 427d bbbd d269 623e
00000340: 58cb 78bd d205 40bb c891 f2bc c94f 30bd
00000350: 879e 28be 0f7a ea3d 3b24 023d 58ae d93d
00000360: 6eaa 963e aacf c13d 47e9 f8bc 49c1 2e3e
00000370: fc39 4a3e f4f0 833c d6fb 18bb 3afd 9bbd
00000380: 87f3 863d c7ac 853d 63e5 efba 39ce 8dbc
00000390: 79ad 91bd c32b c83d 49e9 943c f7c6 aa3d
000003a0: a56a e43d 29a4 103c e113 42bd 7df1 aa3d
000003b0: 788e 6f3e 7df1 45bc 743c 19bd 68fb 57bd
000003c0: 3f83 4b3b dd1b 2c3d ec6b 6c3d 5a5e 073d
000003d0: 16d2 38be b0c9 cc3d 107c 0dbe 9948 003e
000003e0: ae82 c33b d69e 70bd c9e2 c23d 07fa 52bd
000003f0: d71e fa3d fe44 a83d 044c 92bd 2438 65bd
-0.18502061 -0.031476513 -0.08594111 0.06186352 -0.098186456 0.10990991 -0.0008439634 -0.018502448
0.19913101 0.10579708 0.26177529 0.10332465 0.17042226 0.0054442007 -0.05203362 0.027834397
-0.117516726 0.14607762 0.01309654 -0.015137437 0.09266707 0.02077812 -0.025754482 0.005418587
0.1453898 0.0103756115 -0.023814118 -0.02925997 -0.117094584 0.09249762 -0.11312073 -0.016341608
-0.08127626 -0.15472528 0.1371504 0.08642556 -0.15439092 0.07341944 -0.10228833 0.13969068
-0.13424295 0.15003903 -0.08582926 0.025436435 0.1949421 0.16963165 0.056502353 -0.010473028
0.07749168 -0.1076058 0.17054246 0.22225948 -0.07504274 0.020348359 -0.16463122 -0.06908468
0.075979576 0.20305029 0.014364396 -0.084026255 0.044975612 0.08006223 0.17101188 -0.11927244
-0.030988868 0.05424529 -0.0056890715 -0.028964734 0.11574568 0.051998373 0.075027585 0.0072901
0.13286781 0.024932394 -0.093135945 0.23008533 0.21974848 -0.09333309 -0.10000954 -0.09365113
0.0055931285 -0.029460898 0.06307392 -0.07812189 -0.027439125 0.051348392 0.039516542 0.10824592
0.108179666 -0.013970697 -0.009086802 0.15262452 0.061869174 -0.042443316 -0.015198252 -0.07608118
-0.07381735 0.03405444 0.050782636 -0.026469463 -0.13738544 0.12239893 -0.08679825 0.12504894
0.083515994 0.08538415 -0.05547161 0.050428253 0.23800874 0.010357482 0.021543877 -0.14429738
0.006424994 0.009585611 0.010599967 -0.021179706 0.07894123 0.038248323 0.07213278 0.061801232
0.12526228 -0.030686628 -0.008925396 0.21355915 -0.0023031181 -0.0500457 -0.09709661 -0.08838642
0.03295592 0.07003845 0.076372616 0.044523697 0.11324028 0.04312508 -0.10148124 0.010632317
0.045340233 0.15112902 0.06698122 0.002959296 -0.06781076 0.09701266 0.17583634 -0.071773335
-0.15618265 -0.00014688377 0.009339257 0.1337252 -0.10666218 0.13559768 -0.1721005 -0.024484653
0.14815675 0.06935842 0.1714158 -0.092876054 0.093740284 0.18346767 0.057477295 -0.0031889528
-0.22616741 0.0061279098 -0.08571539 -0.11331415 -0.003826195 0.18756583 0.01078983 0.024279894
0.15750743 0.012656031 0.070725 0.13775747 0.0315806 0.016960882 -0.08201975 -0.08374445
0.0636838 -0.030638935 0.0388254 -0.07267131 0.011946895 0.096878186 0.067029096 0.03250557
-0.0921965 0.068253264 -0.016533209 0.13098143 0.16100548 0.0047844476 0.1325521 -0.10654345
-0.08417398 0.054229654 -0.07808482 0.0624051 -0.018754324 0.13710918 0.000438555 -0.0893553
0.15929854 0.13039395 0.16856903 -0.15094131 0.012338953 0.030039772 -0.091547504 0.2211068
-0.0607408 -0.0029300344 -0.02961053 -0.04304484 -0.16466723 0.11449062 0.031772833 0.106289566
0.29426903 0.09463437 -0.030384673 0.1706592 0.19748682 0.016106106 -0.0023343465 -0.076166585
0.06589418 0.06527095 -0.0018302615 -0.017310249 -0.071131654 0.09773972 0.018177645 0.08338731
0.11153153 0.008828201 -0.04738224 0.083468415 0.23394191 -0.012081501 -0.03741117 -0.052729994
0.003105357 0.04201876 0.05772011 0.033048965 -0.18048891 0.09999406 -0.13816857 0.12527694
0.005966506 -0.058745228 0.09515912 -0.051507976 0.122129135 0.08216284 -0.07143405 -0.055961743

bias f4 [50]
00000000: 955f 8d3c 12e4 e9bc 8a7c c6bc 0378 dcbc
00000010: cbfa 9e3c 9dd4 cabc 403e 93bd f62a f7bb
00000020: 339c 3abd e603 d7bc 1296 0fbc 88fc 8d3c
00000030: 23b3 bbbb 6cee 84bd 8389 9bbc 24d2 1cbc
00000040: c768 5bbc bf46 1dbc 9cc7 2a3d d2ee 45bc
00000050: 0e8a 80bb 04be b53b 54bb adbc a86b 3b3a
00000060: c0fd aebc 70ac f3bc 433b d539 ac7b 3cbb
00000070: ce4a 20bc d20e 4d3c 2fba 4f3c 806c cebc
00000080: f564 9b3a 2b92 d3bc fa38 56bb fd24 67bd
00000090: 3f7d 25bd 71dc 12bd e497 bd3c ca42 b5bc
000000a0: 352e 7fbd 4960 b73c 8704 21bb 1037 e1bb
000000b0: 2101 7fbc 0d4d 4bbb fd60 a03c 9b97 b4bc
000000c0: 8efb 363b 254e 21bd
0.017257491 -0.028551135 -0.024229307 -0.026912695 0.019406697 -0.024759585 -0.071896076 -0.007542963
-0.04555912 -0.026246976 -0.008763807 0.01733233 -0.005728142 -0.06490788 -0.01898647 -0.009571586
-0.01339168 -0.009599387 0.04169427 -0.012080865 -0.0039227074 0.0055463333 -0.02120749 0.0007149526
-0.021361232 -0.02974531 0.0004067068 -0.0028760238 -0.00978346 0.0125157405 0.012678667 -0.025198221
0.0011855649 -0.025826534 -0.003268777 -0.05643176 -0.040402647 -0.03585476 0.023143716 -0.022126574
-0.062299926 0.02238478 -0.002456935 -0.006873019 -0.015564234 -0.0031021268 0.019577498 -0.022044947
0.0027920934 -0.039381165

weight f4 [10, 50]
00000000: 7900 c93d 3456 e63c f818 24be 67a0 3b3d
00000010: b37b a1bd a046 9fbd c93c 903c 27e2 0cbd
00000020: 0470 c53d d0bf a63d e929 1d3d b5ef ffbd
00000030: 994c a9bc dcf7 88bd a6bc 113e afcc b4bd
00000040: bd2a 953d c83a 28be 85ed 4ebe d4e0 1bbb
00000050: 3211 833c 7043 e4bd 4db6 b93d 5431 c4bd
00000060: ec2c 463d 6692 273d acc5 483d 8913 50bd
00000070: 9dff 00be f76b 983c 5cc9 073d 45d9 b63d
00000080: 320f e139 186a 143e fab9 283d 56a0 1abe
00000090: 9a76 6ebd f91b 683d f915 263d 5bd1 9a3d
000000a0: c86d 1ebd 1450 cb3d afdb babd b6fc aabd
000000b0: 9c92 65bd ce8f dd3c 895e f73d 9c82 a43c
000000c0: 1b6e 19be dbab 293d 6adf 2dbe 13b9 f13d
000000d0: 09be d63c a118 b3bc 5060 de3d 08ab 3dbd
000000e0: 8543 8d3d 8fbd 613d 9109 143e 09a3 bd3d
000000f0: acb7 cbbb 6d68 f7bd dfc0 113d e22b 013d
00000100: f797 053d a108 a9bd 8565 9dbd 2d5d 853d
00000110: 09b9 a8bc fea1 433c 055a fdbb 5d7a 54bd
00000120: 4d78 993d 6ac6 dcbc 4a5c 883d a647 523c
00000130: 2f01 8cbd f203 acbd 3c53 bf3d 6123 0e3d
00000140: 1cb4 ab3d af55 57be b7f6 143d 1696 27bb
00000150: 36ac 93bb 57c6 183d aa7f 65bc a395 12be
00000160: c09d 28be 89a6 b73d e4b4 f53b 9adc 183e
00000170: 14e3 76bd 1c8b 223d d57a adbd 4e8b 123e
00000180: 3cf9 283d b51b 83bd 3f07 633e f991 bfbd
00000190: 0984 05be c7ba cfbd 5c11 92bc c6c1 88bd
000001a0: ab50 e53d 9b34 bd3d 9e2e c6bd 7fc9 573c
000001b0: 120f 2dbd 9e2b 583d 2da5 af3d e396 ad3d
000001c0: 65c3 8ebd b5db cf3b a2e3 df3d 2bce 16bc
000001d0: 287f e43c b271 7a3d 21e8 933d 73cd 68bb
000001e0: a9bd 31bd 6e28 493d 6327 f43d 5458 293d
000001f0: ee23 ba3d 89f8 9ebd c6f8 e63d 0fac 883c
00000200: ad6c cabc 7d3d a0bc 69c5 f8bc 94b9 103d
00000210: 8c00 e03d 07bd 06be 642d c43c 10b3 febc
00000220: 2837 59bd 713b babd 3b51 45be cb0b e5bd
00000230: 92c1 c1bc e57f 27be b61b 92bd e8e2 52be
00000240: 43ff 43bd 2e8c 71bd 90e2 8e3d 2792 123e
00000250: 13c9 c73d 1b40 abbd cdab 56be 0768 34ba
00000260: 8319 0ebd e00a 9b3d 9949 883d 8d2b f73d
00000270: 2cbf c5bb b1ff 89bd 57bf ae3d 0e10 b0bc
00000280: 8c4e 1fbe ae94 cfbd 5138 503c b93d cd3d
00000290: 2d98 913b 5586 483d e203 3fbc 6861 7abd
000002a0: b6a9 31bc e3c8 d73b 95d9 583d 7f0f aebd
000002b0: fa8f 763d 7b6b 343d c158 0fbc 91f1 ff3b
000002c0: acd5 7ebc 5475 f4bd bd39 203e 3137 a5bd
000002d0: 7090 103d 8387 823e 7b0b d33c 1f35 96bb
000002e0: a0c2 8c3c 7836 723d 3b60 d6bd 2529 c1bd
000002f0: f86f 9cbd 5bcd 983d 7298 eb3c 738e e4bd
00000300: f9e9 bfbd 886f 06bd 8af7 9f3d b357 2ebd
00000310: 8e11 74bd 183b d9bd 285f 07be 020f 02ba
00000320: b621 463d 412e 7f3b b464 493c dfac 3d3d
00000330: 9b86 bebd 39d0 52bd ba0e b3bd 3cac 903d
00000340: f7c7 d43d 104a 94bd b511 f93d da9f dc3a
00000350: 7aa4 e93d 0a0a 7d3d c3ad f23d 5936 70bd
00000360: 8a72 05be a389 0cbd a2a4 85be 4581 bbbd
00000370: 5f8f bdbd 9536 01bc c435 543d f9eb 10bd
00000380: 6b64 d33d fd1e 4fbd acb5 2b3c bcab 293e
00000390: 6537 9abd f5ac 983d f1e4 623d 0ab6 c1bd
000003a0: 4d57 fdbc 3e84 85bd 57f2 17be 88b1 b73d
000003b0: 2fb6 18be 3629 e4bd 8ed3 113e 1972 c5bb
000003c0: 3a5a 21bd 4a0d 80be 752f 113d e5de c2bd
000003d0: 1813 bcbd 5e64 853d c69e f83d 8f5e b73d
000003e0: 31b2 643e c5df 4cbb 4ab8 5bbd 110c a53b
000003f0: 9500 55bd bc62 c53d 2e3c 0d3e ffcf 693d
0.09814543 0.028117277 -0.1602515 0.04580727 -0.07884922 -0.077771425 0.01760711 -0.034395363
0.09640506 0.08142054 0.038370047 -0.12496892 -0.020666407 -0.066879004 0.1423212 -0.08828103
0.07283542 -0.16428673 -0.20207794 -0.002378513 0.01599941 -0.11145675 0.09067974 -0.09579721
0.048382685 0.0409111 0.04901664 -0.05079988 -0.12597509 0.01860617 0.033151016 0.089281596
0.00042926666 0.14493597 0.041192986 -0.15100226 -0.058218576 0.0566673 0.0405483 0.07559463
-0.038678914 0.09927383 -0.091239326 -0.08348982 -0.05604802 0.02704611 0.12078578 0.02008181
-0.14983408 0.04142366 -0.16979757 0.11802878 0.026213663 -0.02186233 0.10858214 -0.046305686
0.06897644 0.055112418 0.14456774 0.09259612 -0.0062169638 -0.120804645 0.035584327 0.03153599
0.032615628 -0.08253599 -0.07685379 0.065119125 -0.020596044 0.011940477 -0.0077316784 -0.051874507
0.07493649 -0.02695008 0.06658228 0.012834465 -0.06836163 -0.0839919 0.093420476 0.03470171
0.083839625 -0.2102878 0.036368098 -0.0025571636 -0.004506613 0.037298527 -0.014007488 -0.14314894
-0.16466427 0.08967311 0.0074983705 0.14927903 -0.060275152 0.039683446 -0.08470694 0.14310953
0.041253313 -0.06401769 0.22170733 -0.09354014 -0.13038649 -0.10143047 -0.017830543 -0.06677584
0.11197027 0.09238549 -0.0967686 0.013170599 -0.0422507 0.05277597 0.08576427 0.08476045
-0.06970862 0.00634333 0.109320894 -0.009204428 0.027892664 0.061143585 0.072220095 -0.0035522848
-0.043393765 0.049110822 0.11921575 0.041344002 0.09088884 -0.07762248 0.112779185 0.016683606
-0.024710024 -0.01956057 -0.03036757 0.03533323 0.10937604 -0.13158046 0.023947425 -0.031091243
-0.053031117 -0.09093369 -0.19269268 -0.1118389 -0.023651872 -0.16357382 -0.07134192 -0.2059437
-0.04785086 -0.058971576 0.06976807 0.14313565 0.09755149 -0.083618365 -0.20963974 -0.00068819564
-0.0346923 0.075704336 0.06654663 0.120688535 -0.0060347524 -0.067382224 0.08532589 -0.02149203
-0.15557307 -0.1013578 0.012708739 0.10021538 0.0044431896 0.048956234 -0.011658641 -0.06112805
-0.010843685 0.006585227 0.052941877 -0.084990494 0.0601959 0.044047814 -0.008749188 0.0078107794
-0.015553873 -0.11936441 0.15647025 -0.080671676 0.035293996 0.25494012 0.02576231 -0.0045839692
0.017182648 0.059133977 -0.10467573 -0.09431676 -0.07638544 0.074610434 0.028759215 -0.111599825
-0.093707986 -0.03282121 0.07810886 -0.042564105 -0.059587054 -0.10606974 -0.13219893 -0.0004961343
0.048371993 0.0038937482 0.012292076 0.04630744 -0.09303018 -0.051468108 -0.08743043 0.07064101
0.10389703 -0.07240689 0.121615805 0.0016832307 0.114083245 0.061777152 0.11849549 -0.05864558
-0.13031974 -0.034310948 -0.26102167 -0.091555156 -0.092558615 -0.0078865485 0.051809087 -0.03538129
0.103218876 -0.050566662 0.010480326 0.16569418 -0.07530097 0.07454864 0.055394117 -0.09458549
-0.030925417 -0.06519364 -0.14838539 0.08969408 -0.14913248 -0.11140673 0.14240858 -0.0060255644
-0.039392687 -0.2501014 0.03544565 -0.0951517 -0.09183329 0.06513284 0.12139659 0.089535825
0.223336 -0.0031261307 -0.05364255 0.005036839 -0.05200251 0.09637973 0.13792488 0.057083126

bias f4 [10]
00000000: c80a 6ebd 9684 86bd d6c4 fb38 dff1 2a3e
00000010: 4b34 1d3d a183 d63d 2445 10be 9b2b 0a3d
00000020: 4b02 bf3d 3210 053e
-0.05811575 -0.065682575 0.00012005276 0.16693829 0.03837995 0.10474325 -0.14088875 0.03373299
0.09326609 0.1299446
