Computational Intelligence/aeh330_5/resultsclassifier_cnn_12.model (torch, 111327 bytes, 6 tensors)

weight f4 [32, 1, 3, 3]
000000 81 91 95 bd 34 8f 83 3e ea 2d 97 be 5b de 31 bd
       -0.07303143 0.25695193 -0.29527217 -0.043424945
000010 63 63 b3 bc df a5 e1 3d 49 e9 02 3e 36 83 b6 be
       -0.021897977 0.110179655 0.12784304 -0.3564698
000020 e7 3d fc 3d 17 70 e8 bd 6a de a5 3c 40 01 c1 3d
       0.123164944 -0.113495044 0.020247657 0.094240665
000030 22 9f 0f be 06 aa 1d 3e 32 56 07 3e f3 25 36 3e
       -0.14025548 0.1539689 0.13216475 0.17787914
000040 4d f6 54 3e a0 1a 74 be 14 d0 d1 ba cd ce 67 3e
       0.20797081 -0.23838282 -0.0016007447 0.22637482
000050 86 bb c6 be 28 e6 51 be 34 e4 96 3e b9 bb a4 be
       -0.38814944 -0.20497954 0.2947098 -0.3217447
000060 59 0b 99 3e ea 96 15 3e aa 0e 64 3e 16 67 5c be
       0.2989147 0.1460835 0.22271219 -0.21523699
000070 e8 82 d8 39 98 36 6d 3e 30 34 2c be 4b e1 e7 3d
       0.00041296263 0.23165357 -0.16816783 0.11322268
000080 07 9b d1 3e 32 a0 c6 be 68 48 d7 3d b9 5d 46 3c
       0.4093859 -0.38794094 0.10511857 0.012107306
000090 d1 c8 95 be ca b2 8a be 98 9f cb bc 11 c8 54 3d
       -0.29254773 -0.2708953 -0.024856374 0.05194861
0000a0 3d cd 48 3e 00 03 10 3e c7 cc 9d 3e 08 03 dd bd
       0.19609542 0.14063644 0.30820295 -0.10791594
0000b0 b3 eb 1a 3e 99 8c 80 3e 8d a7 c8 bb 1b e8 b0 3e
       0.15128975 0.25107267 -0.0061234892 0.34552082
0000c0 ce 49 e4 3c 32 15 8d be 5a 34 56 be d2 52 d3 be
       0.027867224 -0.27555233 -0.20918408 -0.41274124
0000d0 73 df 86 be 3b 17 c8 bd 4a 2b 41 be e2 b2 8f be
       -0.26342353 -0.09770056 -0.1886417 -0.28066164
0000e0 29 ca 83 be aa 3c 0f 3e 54 e7 98 3e 56 a6 44 be
       -0.25740173 0.13987985 0.2986399 -0.19204077
0000f0 0d b4 7c be 83 4d 86 3e 82 02 40 be 3d b9 1f be
       -0.24678059 0.26231012 -0.18750957 -0.15598007
000100 2b be db be c9 ce a2 bd f4 3d d1 bb 38 b9 be bd
       -0.42918524 -0.079495974 -0.006385559 -0.093126714
000110 b6 95 49 be 55 01 8b bc 7c b7 4b 3e f7 78 61 3e
       -0.19686016 -0.016968409 0.19894212 0.220188
000120 53 2a b2 be a1 fe 62 be d9 2b 77 be ca 0c 95 3d
       -0.34797916 -0.22167446 -0.2413782 0.0727783
000130 d2 75 27 be 94 a9 4b be 14 a2 5a bd ed 7b 9e 3e
       -0.16353539 -0.19888908 -0.053377226 0.30953923
000140 7e 59 41 3e 1b 8e 34 be 63 d0 50 3d 95 21 c8 3d
       0.18881795 -0.17632334 0.050979983 0.0977203
000150 a3 5c 45 be 21 3d 80 3e 9a c8 91 be 1a c5 4f 3e
       -0.1927362 0.25046638 -0.2847336 0.20290032
000160 32 61 8c be d8 20 56 be 9b a2 2d 3e 51 32 69 be
       -0.27417904 -0.20910966 0.1695656 -0.227731
000170 48 f9 35 be 02 4d 95 be 78 c6 70 3e 02 68 a3 3d
       -0.17770875 -0.29160315 0.2351321 0.07978822
000180 80 38 82 3d 04 30 35 be 87 42 33 3e 55 9f 0c 3e
       0.06358433 -0.17694098 0.17505847 0.13732655
000190 7b 0d 8b be d7 79 86 3e 47 bc 85 3d e3 f6 3d be
       -0.27158722 0.2626483 0.06530052 -0.18551211
0001a0 dc 18 45 3e 72 41 86 be 76 80 8d bd e5 a3 99 bd
       0.19247764 -0.26221806 -0.069092676 -0.075019635
0001b0 ea 6b 84 be 2b d5 41 3e 84 e6 a3 be ee 53 85 3e
       -0.25863582 0.18928973 -0.32011807 0.26040596
0001c0 8a ac 8a 3b 20 46 83 bd d2 72 26 bd 62 37 5d 3e
       0.004231994 -0.0640986 -0.040636845 0.21603158
0001d0 8c 13 22 3e cf db d8 3d ee 24 b0 3b f0 04 3c be
       0.15827769 0.105888 0.005375496 -0.18361259
0001e0 c1 08 a6 be 3c a5 48 be 69 2e 88 3e 41 ea 78 3e
       -0.32428554 -0.19594282 0.26597908 0.24308111
0001f0 8b 91 b9 3d ce e2 b8 3e 36 21 c0 bc 4c b0 8c be
       0.09060963 0.36110538 -0.023453336 -0.27478254
000200 83 7d 0a be 49 74 8a 3e 55 9f 0a be 3f 7b cf be
       -0.13524441 0.27041844 -0.13537343 -0.40523717
000210 cc 9d 71 bd b1 34 de 3d 02 5e fb 3d 86 3a a3 be
       -0.058988377 0.10849894 0.1227379 -0.31880587
000220 da 60 6d be 18 86 d5 3d 62 69 56 3d ec a9 9e 3c
       -0.23181477 0.10425967 0.052346595 0.019368134
000230 37 c0 a5 3d 42 55 20 3e bc 37 10 3e 06 e1 fc 3d
       0.08093303 0.15657523 0.14083761 0.12347607
000240 75 7e 5f 3d ba c2 75 3e b5 b5 45 3d d1 58 30 3e
       0.05456396 0.24000064 0.048268992 0.17221381
000250 8a 72 2f be 0d 2f 5e be bd f9 07 3e c2 98 a2 be
       -0.17133537 -0.21697636 0.13278861 -0.3175717
000260 1a dd 98 3d 7e 1a 73 3e 46 64 9a bd 70 34 90 be
       0.07464047 0.23740575 -0.07538657 -0.28165007
000270 60 f3 d0 bd 9f f6 8b 3e 8e 7d d7 bd 4a 36 9d be
       -0.1020267 0.27336594 -0.105219945 -0.30705482
000280 13 34 07 be 86 3f 30 bd a9 5e 95 be 0a c2 ce bd
       -0.13203458 -0.04302933 -0.29173782 -0.10095604
000290 ff 1b 92 3e 92 08 1b be 5b ab a8 be ce c8 2d bb
       0.28536984 -0.15139988 -0.32943234 -0.0026517394
0002a0 69 e7 b8 3e 36 15 2b be d4 b7 81 be 08 1e 83 3e
       0.36114052 -0.1670731 -0.25335562 0.2560885
0002b0 e4 6f 9b be 20 33 ee 3d f1 06 b8 bd fe 1e b7 be
       -0.30358803 0.11630845 -0.08985699 -0.35765833
0002c0 1f 51 bb be b3 af 61 3e 9e 98 79 3e 19 8a 64 be
       -0.36585328 0.2203968 0.24374625 -0.22318305
0002d0 79 b7 d9 bd 08 4a c9 bd f6 93 19 3e af 69 91 3e
       -0.10630698 -0.098285735 0.14997849 0.28400943
0002e0 8f 37 d7 bd 57 25 a3 be 74 03 a1 3e da 7d 0a 3e
       -0.10508644 -0.31864426 0.31447947 0.13524571
0002f0 96 4c ad be 2e e6 95 be fe 12 3b be 68 1a bd be
       -0.33847493 -0.29277176 -0.18268964 -0.3693421
000300 59 08 6d 3e 15 aa ef 3d 99 0d c3 3d 94 46 fe bd
       0.23147716 0.117023624 0.09524078 -0.124158055
000310 f7 90 0c 3e e6 06 21 3e cd 6e c1 be c7 49 b4 3c
       0.13727175 0.15725288 -0.37779847 0.022007836
000320 c6 af 0a be 44 de df bc 75 4d 72 3e ff 95 12 3e
       -0.13543615 -0.027327664 0.2366236 0.14315031
000330 d6 c0 87 3c 82 36 38 3e 58 61 24 be c7 61 81 3e
       0.016571444 0.17989543 -0.16052759 0.2526991
000340 97 ef 85 be 96 83 34 be cf 82 98 3a 61 0f 51 3e
       -0.26159355 -0.17628321 0.0011635664 0.20416023
000350 b5 b4 d3 be c5 e0 2d 3e 70 eb 73 3e 0a c3 54 bc
       -0.41348806 0.16980274 0.23820281 -0.012985954
000360 af d1 cb be 53 65 c8 bd 83 c6 d2 bc 2f 1b ca bd
       -0.39808413 -0.09784951 -0.025729423 -0.09868466
000370 7b b5 24 3e 6a ea d5 be 1f de 95 be 91 36 49 3e
       0.16084854 -0.41780406 -0.29271027 0.19649722
000380 e8 07 26 3e ef 32 ad 3e 27 5f e7 3d eb 7d 38 be
       0.16213953 0.33827922 0.11297446 -0.18016784
000390 ab 20 8b be a0 da b6 be 41 7c 06 3e d2 d5 c0 bd
       -0.2717336 -0.35713673 0.13133337 -0.09415783
0003a0 64 2c 32 be 28 2b ff 3c c1 f1 07 bd fb 3b 07 be
       -0.17399746 0.031148508 -0.03318954 -0.13206474
0003b0 49 21 b7 3e ac 2c 20 3e 29 de fc 3d b8 3d ec bd
       0.35767582 0.15642041 0.12347061 -0.115352094
0003c0 bc 9d 66 be 36 32 06 be 6b 7e ac be 6e a7 14 be
       -0.22521108 -0.13105091 -0.336902 -0.14516994
0003d0 0b 18 2a 3e 7d 40 8c 3d d8 22 89 3e 9a 2d 63 3d
       0.16610734 0.06848238 0.26784396 0.05546341
0003e0 00 de 67 3d 8f 0d 94 be b7 64 05 be df a3 d3 bd
       0.0566082 -0.28916594 -0.13026701 -0.1033399
0003f0 aa 1a 63 be b1 53 ef 3c f0 f8 41 3e 44 08 5e be
       -0.2217814 0.029214712 0.18942618 -0.2168284

bias f4 [32]
000000 5d c8 ce be d9 69 02 bf 88 b3 ed 3d b1 f7 02 be
       -0.4038724 -0.5094276 0.116065085 -0.127898
000010 b6 59 be be 8c 18 d5 be f5 c6 c2 bd a9 95 79 be
       -0.3717782 -0.4162029 -0.09510604 -0.24373497
000020 08 7d d1 be fe e7 13 3e 51 86 64 be 9b e7 75 be
       -0.40915704 0.14443967 -0.22316863 -0.24014132
000030 fe 63 b3 be 74 e5 cd be 28 a0 d4 bd b4 c0 7e 3d
       -0.35037225 -0.4021412 -0.1038211 0.062195495
000040 56 c5 a9 bd 8d a2 54 3e f9 83 ab bc ca f0 28 be
       -0.08289592 0.20765133 -0.020936953 -0.16498104
000050 ce 11 f7 3d bb c7 c9 3d e4 17 e9 be c4 42 88 3e
       0.12063943 0.09852549 -0.4552604 0.26613438
000060 06 fd 31 3e bb 52 54 be 80 91 48 3d c1 22 22 be
       0.17381677 -0.20734684 0.048966885 -0.1583357
000070 fc a6 d2 be 1f 04 7e be 8a 87 a0 3d 09 50 2e be
       -0.41143024 -0.2480626 0.07838352 -0.17022718

weight f4 [50, 512]
000000 94 3b 3f bd 2f ff c0 3c 68 44 eb bc 18 04 aa bc
       -0.046687678 0.023559181 -0.028719142 -0.020753905
000010 2e 9c 1c 3d af 2a 6c bd 3c 23 1a 3d 2b d9 f4 3c
       0.038234882 -0.057657894 0.03763126 0.02988871
000020 78 4c 89 bd 71 0a 4a 3b 6c 7c 84 bc fa d1 49 bd
       -0.067040384 0.0030828977 -0.01617261 -0.049272515
000030 00 7c 39 3d 27 dd 06 bd 7c d9 c0 3c 86 c0 1d bc
       0.04528427 -0.03292575 0.023541205 -0.009628421
000040 6c ca 3c bc 99 a8 8c 3b 23 34 18 3d 2f cf b7 3d
       -0.0115228705 0.0042925593 0.037159096 0.08975064
000050 05 5b 5d bd b5 58 a1 bc a1 be 11 3d 4a d1 ee 3c
       -0.05404188 -0.01969562 0.03558219 0.029152531
000060 bb d4 be bd cd c6 69 bb 79 2d f7 3c 52 14 80 3c
       -0.09317919 -0.0035671473 0.03017305 0.01563469
000070 4a a7 4d bd 04 a0 fb 3c e8 cd 23 3c d6 fb 6b bd
       -0.050208367 0.03071595 0.009997822 -0.057613216
000080 9a d5 76 bc 9e f8 09 3d da b2 16 bc ca 26 5d 3c
       -0.015065575 0.033684365 -0.009197915 0.013498018
000090 92 a8 23 bd 7e e0 f4 3c 2a 99 6f 3c a7 7b e1 3c
       -0.039955683 0.029892202 0.0146239195 0.027524782
0000a0 c2 b2 57 3d f6 a4 ea bc 9a e3 c2 bc 2b 76 8a bb
       0.05266071 -0.028643113 -0.02379017 -0.0042255125
0000b0 ec ea e1 bb 58 3d 33 3c a9 c6 a7 bc b6 c5 c2 bc
       -0.00689446 0.010939918 -0.02048047 -0.023775917
0000c0 66 00 bb 3c 45 08 f8 3c 1e a6 72 3d c9 29 3a 3d
       0.022827338 0.03027738 0.059240453 0.045450006
0000d0 79 3e 07 bc a7 0b dd 3c b9 91 0c 3d 69 d0 e5 3c
       -0.008254641 0.026983095 0.03431866 0.02805348
0000e0 7b d5 69 bc 86 bf 29 bd 3c 0b ee 3c fd bd 2c 3a
       -0.014272089 -0.041442417 0.029058091 0.000658959
0000f0 ab 41 00 3c 24 3b 53 bc 78 a4 be bc 65 ce 6f 3b
       0.007828156 -0.012892518 -0.023271784 0.0036591527
000100 1c 4d 08 3d 70 49 02 3d 6b 14 11 bd 66 be de 3c
       0.033276662 0.031808317 -0.035419863 0.027190398
000110 82 6d 10 3c 63 ae b5 3c ad 35 f1 bc b1 05 34 3d
       0.008815171 0.02217788 -0.02944454 0.04395074
000120 25 7b d8 bb fd 13 b0 3c 98 5a 82 bc 36 6a 8d 3c
       -0.006606477 0.021493906 -0.01591234 0.01726256
000130 d2 64 9f bd 67 75 14 3c 5e 40 80 bd ee d8 be bc
       -0.07782902 0.009061194 -0.06262277 -0.0232968
000140 dc 7d be 3d f0 7a 11 3e 3b 12 1c bd 04 53 8d bd
       0.093013495 0.14207053 -0.038103323 -0.069005996
000150 dc 07 43 3c 48 a3 37 be c7 08 76 bd 8a ae 9a bd
       0.011903729 -0.1793338 -0.060066964 -0.07552822
000160 b6 16 3b bd 88 cb 16 3e 86 c0 cd bd 60 f6 2b bd
       -0.045675956 0.14726079 -0.100464866 -0.04198301
000170 44 d2 26 bc 5a ed d0 bc 09 fa cf bc e4 cb a1 bc
       -0.010181967 -0.025503803 -0.02538778 -0.019750543
000180 05 01 94 3c 58 e9 f1 bc e9 e5 27 3d 0b 70 6c be
       0.018066892 -0.029530212 0.040990744 -0.23089616
000190 85 49 27 bd 26 6f d5 bc 49 8d 81 bb 79 98 e0 3c
       -0.040841598 -0.026053976 -0.00395361 0.027416455
0001a0 0d 06 c7 3d bb 5a cb bd a3 8f 02 bd d2 c0 0c bd
       0.09717951 -0.09929415 -0.031875264 -0.034363575
0001b0 8f b9 97 3d 9f 6c 16 3e ae d7 86 bc a3 99 ca bd
       0.07408439 0.14689873 -0.016460266 -0.09892585
0001c0 c9 d7 a8 bd e6 0a ac 3c 18 b4 3d 3d 06 0e c8 3c
       -0.08244283 0.02100129 0.04631433 0.02442075
0001d0 2f cc bc bc 5d 14 85 bd 49 a7 d0 bd 39 af 72 bb
       -0.023046581 -0.064980246 -0.10188157 -0.003703071
0001e0 69 11 05 3b cf e1 05 3d fb 48 bd bd c7 46 0c bd
       0.0020304567 0.03268605 -0.092424355 -0.034247186
0001f0 81 c2 2a bc c2 45 f7 3d 36 ba 4d bd 61 fa d3 bb
       -0.01042235 0.12073852 -0.050226413 -0.0064690565
000200 63 3d 8e bc f1 3a 75 bd c3 15 93 3d 21 23 17 bd
       -0.017363256 -0.059870664 0.07181885 -0.036898736
000210 9d 3b 0f 3d 03 92 30 bd 3e 6e 84 bd b4 d6 ed bc
       0.03496896 -0.043107998 -0.064663395 -0.029033042
000220 d9 41 d9 bb 82 0f 30 3d 92 0e 9c bd 4b 04 2e bd
       -0.006630164 0.04298354 -0.076199666 -0.042484563
000230 db f4 13 bd 97 fb 4e 3e 60 a4 c4 3b ac 8b c4 bd
       -0.036122184 0.20213161 0.0060010403 -0.09596953
000240 ae fa 92 3c 3b d3 47 bd b2 0d 59 3d 7c bf 1c 3d
       0.017941799 -0.04878543 0.052991576 0.03826855
000250 50 f7 40 3d 88 67 56 be ca 55 69 bc e6 3b 9f bd
       0.047110856 -0.20937932 -0.014241645 -0.077750966
000260 84 36 c8 3d cc 8e 4d 3d c1 c0 a1 bd d2 af 00 bd
       0.09776023 0.05018501 -0.07898093 -0.031417675
000270 82 27 66 ba b1 d6 9e bd b6 3c 0a bc 13 0d 57 bd
       -0.0008779691 -0.07755793 -0.008437326 -0.052502703
000280 1d 25 9e 3c 16 ca 18 3d ad 82 4a 3a b1 61 be 3c
       0.019304806 0.0373021 0.00077251607 0.023239942
000290 60 3d 35 3d 0f ff bc 3c 57 04 80 bd de de 9f 3c
       0.044247985 0.02307084 -0.06250828 0.019515451
0002a0 5d a1 61 bd b0 12 ce bc d1 55 22 3c f3 a2 71 bc
       -0.05508553 -0.025155395 0.009908156 -0.014748323
0002b0 ca 44 94 bc a5 57 14 3b ab 1e f0 3b 87 54 99 bc
       -0.018099207 0.0022635248 0.0073278747 -0.018717064
0002c0 1a 60 a7 bd fa 7d 69 3c 75 81 df bd ee 71 9a bd
       -0.08172627 0.014251227 -0.10913364 -0.075412616
0002d0 f4 6c 02 bc 68 64 9b 3d e2 96 82 3d 78 69 76 3d
       -0.007960547 0.0758751 0.06376435 0.060159177
0002e0 7f d1 ca bc 85 43 bf 3d 05 3b fe 3c de de fc 3c
       -0.024758099 0.0933905 0.031034002 0.03086799
0002f0 c2 a9 b1 3b 7e fb fa bc d8 38 93 3c 8c aa f2 bc
       0.005421848 -0.030637499 0.017971441 -0.029622339
000300 eb da b9 bd aa 1a 91 b9 29 cb 36 bc 69 a5 0d bd
       -0.090749584 -0.0002767642 -0.011156836 -0.034581576
000310 71 6d 49 3d 62 8b 08 3a f2 70 2e 3d 5c c3 e5 3b
       0.049176637 0.0005208758 0.04258818 0.007011814
000320 89 97 56 3b 3c ff ca bc 70 93 98 bc c4 c2 03 bd
       0.003274413 -0.024779908 -0.018624991 -0.032168165
000330 39 09 16 bd 91 74 8a bd bd ae 0e 3d 63 8d 55 bc
       -0.03662989 -0.067605145 0.034834612 -0.0130341975
000340 56 8f 42 bc 71 e6 ff 3b 0f a1 f3 bc 3e de 1d 3d
       -0.011874994 0.007809453 -0.029739885 0.038542025
000350 d7 17 83 3b 1c e0 dd bc 39 a1 a6 3b 07 1d ad 3c
       0.0040006447 -0.027084403 0.005085137 0.021132005
000360 af cd 8d bd be 4c ca 3b 28 62 b9 bc 71 91 4c 3b
       -0.06923997 0.006173699 -0.022629812 0.003121462
000370 2f 23 56 bc ea ff 93 bc 90 f1 0a bd f8 f9 3f 3d
       -0.013069912 -0.018066365 -0.03392178 0.04686925
000380 d0 1a a3 3d a8 09 58 3d 92 ff 88 3c 00 d4 40 bd
       0.079640985 0.052743584 0.016723428 -0.04707718
000390 5e 54 09 3d 74 b1 2e bd e6 d8 7f bd 61 63 64 3c
       0.033527724 -0.0426497 -0.06246271 0.013939709
0003a0 c8 06 50 3d 09 dd 75 3d 09 1f d0 ba a8 3f 64 3d
       0.050787717 0.06002525 -0.001587839 0.05572477
0003b0 0a 26 a2 3d 17 65 8e 3d b4 9f a0 bc c9 16 79 3c
       0.079174116 0.06952875 -0.019607402 0.015203186
0003c0 7f 0c ec bc 8e f6 0c bd 1a c3 42 3c db 4b ff 3c
       -0.028814552 -0.03441482 0.011887336 0.0311641
0003d0 cb 51 db 3c 96 cf 49 bc 4d 3f ca bb ef 0e 4a bd
       0.0267724 -0.012317559 -0.006172097 -0.049330648
0003e0 1e c2 bc bb 54 7b 2e 3d 00 26 9a bd 3c 66 cf 38
       -0.0057604453 0.042598084 -0.07526779 9.889572e-05
0003f0 a9 a0 07 3c bb 6a 1e 3c 2e d0 9e ba 82 27 cb 3b
       0.00827805 0.009669001 -0.0012116486 0.006199778

bias f4 [50]
000000 54 aa 24 3d 6d bc df bc d0 b5 df 39 09 ca 4e bc
       0.0402015 -0.027311528 0.00042669335 -0.012621411
000010 ee e3 5c 3d a9 f8 54 3d cf 2a 05 bd 7a 28 02 3d
       0.05392831 0.051994953 -0.03251153 0.031776883
000020 e8 77 bd 3c bd 3d dc 3c 3d 52 fd 3c 83 d0 43 bc
       0.023128465 0.026884908 0.030923003 -0.011951569
000030 53 ad 23 3d 31 79 5b ba 4d ae 0d 3d cb f2 d0 3c
       0.039960217 -0.0008372246 0.034590054 0.025506398
000040 36 e1 7c bc 2d 0f 5f 3c 8e 8e a4 3a 8a 47 3f bd
       -0.015434554 0.013614458 0.0012554692 -0.046699084
000050 a3 4b 36 3d a6 39 e1 3c dd b2 4c 3c 9d a8 8a bc
       0.044505727 0.02749331 0.012493816 -0.016926104
000060 ba 67 f5 bc 82 fb d2 3c 9d a4 bb bc bb b1 1d bc
       -0.029956687 0.025754694 -0.022905642 -0.009624894
000070 a1 d4 26 3d 66 43 d3 bc 94 98 e8 3c 02 27 ea 3c
       0.040730122 -0.025788974 0.028393067 0.028583053
000080 1e 96 24 bc 8e 9a 62 bd 8d 82 b2 3c 51 2d 2c bc
       -0.010045556 -0.055323176 0.021790767 -0.010508851
000090 10 cd e1 bb cc 0d 0a bd 37 a9 28 bd 38 fe 32 3d
       -0.0068909004 -0.033704564 -0.041177 0.043699473
0000a0 a9 c3 fc 3c 91 28 8e bc 5b fc 4a bd 0a 3b 38 3d
       0.030855017 -0.017353328 -0.04955707 0.04497818
0000b0 62 29 d9 3c ab f5 b5 bc c6 b9 98 3c 74 90 cf bc
       0.02650899 -0.02221187 0.018643271 -0.025337435
0000c0 0b 0f f1 bc a7 52 ec 3c
       -0.029426118 0.028848005

weight f4 [10, 50]
000000 b6 b4 97 bd 7c 11 93 3c 51 69 7a bd 96 2e 6c 3e
       -0.07407515 0.017952673 -0.061135594 0.23064646
000010 e5 eb ae be 23 4c f4 bb 51 d1 04 be dd d7 54 3e
       -0.34164348 -0.0074553653 -0.12970473 0.2078547
000020 ad a8 12 3e 4b e0 97 3d d9 0c da be 20 f5 e8 bd
       0.14322157 0.07415827 -0.42587927 -0.11374879
000030 cb ac 62 3e 2e 46 2f be a5 8c ce bc 19 9d 29 be
       0.22136228 -0.17116615 -0.025213549 -0.16563834
000040 04 36 0f 3e 05 10 a1 3d 09 d6 95 3e 8e 2c 8a 3d
       0.13985449 0.078643836 0.29264858 0.067467794
000050 7b 5a 23 3e 9f 77 66 be dd be 8a bb 68 35 f0 bd
       0.15952484 -0.2250657 -0.0042341785 -0.117289364
000060 82 b2 05 3c 51 f7 2b be c5 92 71 3c b2 26 60 be
       0.008160235 -0.16793562 0.014744465 -0.21889761
000070 1a 19 59 be 7a 10 99 be ee 23 7b be ee 89 96 3e
       -0.21200982 -0.29895383 -0.24525425 0.29402107
000080 c1 f8 af 3d dc ce 71 bc e4 97 d0 be 6d 61 44 ba
       0.08592368 -0.014758792 -0.40740883 -0.0007491324
000090 fc ae 6c 3e fe 73 92 3e fa b8 7c 3e 41 e5 e6 3d
       0.23113626 0.2860412 0.24679938 0.112741955
0000a0 48 14 8b be b4 70 47 be cd 70 c5 3d 81 24 1e 3d
       -0.2716391 -0.19476587 0.09640656 0.03860903
0000b0 10 4e 97 be da 32 97 bd 6c b9 a7 3d 8c 16 b4 bd
       -0.29551744 -0.07382746 0.08189663 -0.08793363
0000c0 e8 21 1a 3e ff 8f be 3b f4 22 2d 3e 2e fc 9f bd
       0.15051997 0.0058155055 0.16907865 -0.07811771
0000d0 df 31 4e be a5 f9 b3 be 44 af 21 3e 7a 07 0a bc
       -0.20136212 -0.351514 0.15789515 -0.008424634
0000e0 b0 10 ec 3d c9 5e ea 3c 93 b7 ba be d9 c2 a6 3d
       0.115266204 0.02860965 -0.3646818 0.08142633
0000f0 c8 d1 8c 3d 91 ae eb 3d eb 64 cb 3d 54 e3 2e 3e
       0.0687595 0.11507905 0.09931358 0.17078906
000100 53 f2 2f 3c 51 5a 88 be 9d d7 a7 be 30 6b 2f 3e
       0.010738927 -0.26631406 -0.32781687 0.17130733
000110 15 d2 44 be 28 e3 39 be 6e 66 95 bd f6 97 ec be
       -0.19220765 -0.1815306 -0.072949275 -0.46209687
000120 43 95 19 bd 43 59 ce 3c 90 ea 84 bd 0f 28 8f be
       -0.037495863 0.025189048 -0.06490052 -0.2796025
000130 57 de f5 3b 12 14 65 3e 05 23 81 3e 3a e4 00 bc
       0.0075033116 0.22370937 0.2522203 -0.007866913
000140 44 1a a7 3e c0 4f a5 3e e5 fc 8e 3d ca 4f 31 3d
       0.32637227 0.32287407 0.069818296 0.043288983
000150 cc df 47 3e 3c a6 78 bd a5 88 8f be 7e 1f 4e be
       0.19518965 -0.06070541 -0.2803394 -0.20129201
000160 9a 29 8f be b7 05 78 3c 76 8d 79 3e 75 65 b1 bd
       -0.27961427 0.015138081 0.2437037 -0.086619295
000170 b6 95 e6 bc aa 69 2e bd 21 1b bc 3d 4a ff 11 be
       -0.02814756 -0.042581238 0.09184862 -0.14257541
000180 5b 0f 3f 3e d0 22 36 3e 32 bb 24 be 5c 30 42 be
       0.18658201 0.17786717 -0.16087034 -0.1896376
000190 19 7d d9 bd 54 cc 7b be 09 32 a1 bd 6f b1 41 3e
       -0.106195636 -0.24589664 -0.078708716 0.18915342
0001a0 54 77 54 be b8 92 05 3d 5d 24 12 3e f9 50 5d 3d
       -0.20748645 0.032610625 0.14271684 0.0540323
0001b0 52 05 ee 3d b6 11 9e 3b ce 9f 0f 3e 13 00 20 be
       0.116221085 0.0048238887 0.14025804 -0.15625028
0001c0 e0 09 67 bd 19 35 00 be 8b 6a 09 3e 52 02 61 3c
       -0.056405902 -0.12520255 0.13419549 0.013733463
0001d0 8e c6 e7 bd a7 2a cb bd dd d8 2c be e6 58 0f 3e
       -0.11317168 -0.09920245 -0.16879602 0.13998756
0001e0 05 77 3b 3e 06 2a 0e 3e d1 76 df 3b d8 24 d3 bd
       0.18307121 0.13883218 0.006819584 -0.10309762
0001f0 2b 6c e5 bd 48 25 03 be 36 db 9f 3d 27 8c ac 3e
       -0.11202272 -0.1280719 0.07805483 0.33700678
000200 35 04 a1 3d 3f ad 28 bc dc 5a a3 bd f1 35 18 bc
       0.078621306 -0.010295211 -0.079763144 -0.009290204
000210 04 60 fc 3d 95 b5 b0 bd df f2 7f 3d e0 42 9d bc
       0.12323001 -0.08628384 0.06248748 -0.019196928
000220 d8 0a 46 be 21 42 bc 3a e4 78 a1 bd 13 54 b7 3d
       -0.19340074 0.001436297 -0.07884386 0.08951583
000230 49 81 de bd 0b 5b 15 3e 15 ed 95 bd 50 b8 13 3d
       -0.10864503 0.14585511 -0.073206104 0.036064446
000240 02 c7 8f 3d 9f bc bf 3c ac d1 4d be 48 de 6a 3e
       0.070203796 0.023405371 -0.20099515 0.22936356
000250 b2 f6 96 3d ac b0 41 3e 07 a7 2e 3e fc 24 aa 3e
       0.07371272 0.18915051 0.17055903 0.33231342
000260 bc e8 84 bd 72 d7 7f 3e 65 ee b3 3e bf e5 9d 3d
       -0.06489703 0.2498453 0.35142818 0.07709836
000270 57 f7 87 be 41 97 e3 bd 7f d4 39 3e 42 ae 1c 3e
       -0.26555893 -0.11112834 0.18147467 0.15300849
000280 80 9e a6 bd fe 19 55 bc 81 a4 b2 be e5 ed 1d be
       -0.081357 -0.013006685 -0.34891132 -0.15422781
000290 d0 2a af bb b4 1c 84 3e 35 d7 1a be 0f 07 87 bd
       -0.00534568 0.2580315 -0.15121157 -0.06593143
0002a0 2d 8e b3 3d 03 65 b4 3d b4 01 71 be a3 f2 ca 3d
       0.08767352 0.08808329 -0.23535806 0.099095605
0002b0 3d 02 63 3d 30 7b a3 3e 07 76 a7 bd ee 5c 99 3e
       0.055422056 0.31929922 -0.08176809 0.29953712
0002c0 de 44 46 3d 1f 05 8d bc 9f a1 97 be d6 a1 10 3e
       0.04840552 -0.017214356 -0.29615495 0.14124236
0002d0 70 60 bc bd 2c 9b 36 be 20 dd 18 3e 03 07 87 bd
       -0.091980815 -0.17832631 0.14928102 -0.06593134
0002e0 2c d1 ba 3d ec ab 49 3d 88 4c 56 3e 57 18 12 be
       0.091219276 0.049236223 0.20927632 -0.14267097
0002f0 33 ae f7 bd ab 65 95 be 2f ea 89 be b6 5f aa 3e
       -0.12093773 -0.2917913 -0.2693648 0.33276147
000300 f2 23 d8 bb db 0f 24 bc a0 14 e9 3d 12 a1 cc 3c
       -0.006596082 -0.010013546 0.11380887 0.024979148
000310 cb ca 09 be 22 ca 25 bd 4d 20 30 3e 96 e3 b2 3e
       -0.13456266 -0.040475972 0.17199822 0.3493926
000320 aa 5c 74 3d 15 5a 7c bd ff 9c 8f 3e 79 3f bd be
       0.059658684 -0.061609346 0.28049466 -0.36962488
000330 b6 a5 31 3e 04 6d 59 bc f6 74 1e be 31 9d 4a 3e
       0.1734837 -0.01327062 -0.15474305 0.19786526
000340 34 a4 2a be b6 12 87 bc e5 5f a8 be 98 65 9d 3e
       -0.16664201 -0.016488414 -0.32885662 0.30741572
000350 c0 c3 04 3e 53 e3 ba 3e bc b0 ea 3d cc 47 0f be
       0.12965298 0.3650156 0.11459491 -0.13992232
000360 52 6c 89 3e b7 73 f0 3d 25 57 92 be 35 02 0c be
       0.26840454 0.11740821 -0.2858211 -0.13672717
000370 32 a7 54 3e c4 be a5 3e b4 7d ac 3d 20 25 82 3e
       0.20766905 0.32372105 0.084224135 0.2541895
000380 0e 82 12 3d 62 4c e5 bd d6 0d 3f b8 1f 76 4f be
       0.03576856 -0.111962095 -4.5550834e-05 -0.20259903
000390 29 55 0f be 36 63 34 be 8c a0 b5 3e e2 93 93 3e
       -0.1399733 -0.17615971 0.3547405 0.28823763
0003a0 23 b6 23 be fe 34 7e 3d 52 92 4b be 55 37 9c 3d
       -0.15987448 0.062062256 -0.19880036 0.07627741
0003b0 aa 9f 72 bb cf 5c 12 be 65 6c d7 3d 95 e8 31 3e
       -0.0037021437 -0.14293216 0.105187215 0.17373879
0003c0 d3 0f 48 3e 51 94 63 bc be 1f 4f bd ca c5 b2 bc
       0.19537286 -0.013890342 -0.05056738 -0.021822829
0003d0 73 a6 ce be 76 23 c0 ba df ee 15 be 17 4b 0a be
       -0.40361366 -0.0014659006 -0.14641903 -0.13505207
0003e0 e5 e9 0b 3e ea d7 b0 3d ca 59 42 be 93 7b 9c 3d
       0.13663442 0.08634932 -0.18979564 0.076407574
0003f0 3e 72 73 be 06 ab 48 be 47 7f 70 3e 58 85 5b 3d
       -0.23774049 -0.1959649 0.23486052 0.053593963

bias f4 [10]
000000 c6 6f 3d be 24 67 02 bc ea da 03 3e 1f 9d 5d bb
       -0.1849967 -0.007959161 0.12876478 -0.0033815575
000010 85 a2 0c be 1d f5 f8 bd 08 d3 44 3c 8c 31 e8 bd
       -0.13733871 -0.12156127 0.012013204 -0.11337575
000020 34 bf e5 3d 57 23 ba bd
       0.1121811 -0.09088772
