Computational Intelligence/aeh330_5/resultsclassifier_cnn_17.model (torch, 111391 bytes, 6 tensors)

weight f4 [32, 1, 3, 3]
000000 02 2b 49 3c 79 d7 5e 3e a7 b6 6a 3e 89 78 c5 bd
       0.01227832 0.21761884 0.22921239 -0.09642131
000010 d5 f6 00 3e c7 12 44 be 9d cc 2e 3e 17 0f 8b be
       0.12594159 -0.19147788 0.17070241 -0.2715995
000020 5f 76 fe bd 58 6f 6a be f7 19 3b be 46 c1 30 3c
       -0.12424921 -0.22894037 -0.18271624 0.0107882675
000030 d9 5c d8 3b 60 b4 6e 3e f5 18 79 3d e2 b8 0f bc
       0.006602865 0.23310995 0.060814817 -0.008772107
000040 cb 3a 0f 3e 80 f2 5a be f1 7c db bd 81 17 a4 be
       0.13987271 -0.21381569 -0.1071719 -0.32049182
000050 cd 8f 8f bd bf cb 66 be 44 87 12 3d 7c 22 46 3e
       -0.0700985 -0.2253866 0.03577353 0.19349092
000060 0f b7 87 3d 31 b5 7a 3e 77 c3 b2 3d fd 90 67 be
       0.066267125 0.24483182 0.08728688 -0.22613902
000070 9d 24 13 3e a1 68 92 be df c4 a3 3d 2e b8 ad 3e
       0.14369436 -0.2859545 0.079965346 0.3392958
000080 f0 6b 77 3e e8 3a 17 3e 6a 52 6f 3e d2 05 97 be
       0.24162269 0.14768565 0.23371282 -0.29496628
000090 be 4d 30 bc f0 e4 90 bc d6 cb 8d be 65 a3 0b be
       -0.010760723 -0.01768729 -0.27694577 -0.13636549
0000a0 04 5c 3d 3d 5f 03 b6 3e 2a 90 28 3e c0 72 9e be
       0.04623033 0.35549447 0.16461244 -0.30946922
0000b0 2a bb 58 3e 76 8f 71 3e cc b0 50 3d 92 74 94 bb
       0.21165147 0.23589882 0.050949857 -0.004530498
0000c0 4e 01 8b 3e 79 f7 3f be f7 e3 8f be 51 0b 28 be
       0.27149433 -0.18746747 -0.2810361 -0.16410567
0000d0 65 79 65 bd f9 97 50 3e 7b 27 22 be dc 23 4d be
       -0.056023974 0.20370473 -0.15835373 -0.2003321
0000e0 2d fd 51 be 95 bf 8b be 5e 6a 9c 3e e3 45 39 be
       -0.20506735 -0.27294603 0.30549902 -0.18093066
0000f0 c7 28 a6 3d ac 64 cb bd fd f4 4f be 74 86 4c 3e
       0.081132464 -0.09931311 -0.203083 0.19973165
000100 1c f8 40 3e b8 27 8a be bf 7e 2d bb 19 4c 8a bd
       0.18844646 -0.26983428 -0.0026473252 -0.06752796
000110 a8 3e ee 3d fe 06 a6 be bb 7e 2a 3e d1 04 45 be
       0.116330445 -0.3242721 0.16649906 -0.19240119
000120 b9 b8 94 3e 69 80 02 be c3 76 87 3d 31 7a 6a be
       0.29047182 -0.12744297 0.06614449 -0.22898175
000130 7e 3f f2 3b c8 dc 5d be 70 f0 b3 bd dc f4 2a 3d
       0.0073928228 -0.21666253 -0.08786094 0.041737422
000140 a7 1a 0c 3e 18 2a 5e be f2 a7 cc 3d fb 70 b9 be
       0.13682042 -0.21695745 0.099929705 -0.3621901
000150 e6 eb 98 3d cf 7b c1 3d dc f4 e4 3d c1 36 49 3e
       0.07466869 0.09447443 0.11179516 0.19649793
000160 05 73 8c 3e 45 e2 77 3e 0a 45 7d bd a7 de 01 3d
       0.27431503 0.24207409 -0.06183342 0.03170648
000170 ea 4b 09 be f6 dc 5c be ee cb 8d 3e c0 0e 09 3e
       -0.13407865 -0.21568665 0.27694649 0.13384533
000180 7d 66 65 be 03 4c 54 3e 92 db 20 be d8 de 49 3d
       -0.22402377 0.20732121 -0.1570876 0.049284786
000190 ef 5b be be 14 11 aa bc 2c dd 18 be 74 6b 00 bd
       -0.37179515 -0.020760097 -0.1492812 -0.031352475
0001a0 5a ba 84 3e e0 92 a8 3e 68 86 7d 3e 01 f2 09 3d
       0.25923425 0.32924557 0.24758303 0.03367806
0001b0 a8 34 8f 3e e6 60 cc be c4 f4 a0 be c7 39 b0 be
       0.2796986 -0.39917678 -0.3143674 -0.3441908
0001c0 d3 2f 3c 3e 95 fd 5f 3e db f4 83 3e 2e 9f b3 bd
       0.18377618 0.21874078 0.25772747 -0.087705955
0001d0 44 5d df 3d a4 70 43 3e b7 76 ec bd b4 7e f4 bd
       0.10906461 0.19085938 -0.115460806 -0.11938229
0001e0 24 4e 03 3e 74 78 2b 3d 01 be 8d 3e d8 b2 b8 be
       0.12822777 0.04186292 0.27684024 -0.36073947
0001f0 ba 11 87 3b b7 66 e2 3d d3 24 c6 3d c9 16 36 3e
       0.004121986 0.110547476 0.096749924 0.1778213
000200 0e 9a cf 3d e7 50 95 be 90 52 d0 3d cb 40 fe bd
       0.101368055 -0.29163286 0.101719975 -0.12414702
000210 85 bd ae 3e a3 57 cb bd 53 b8 59 3e 6f ff 79 be
       0.34128967 -0.09928825 0.2126172 -0.24413846
000220 ac 5f a4 3e 57 33 34 3e 27 d5 8f be d5 2d 7f bd
       0.32104242 0.1759771 -0.2809231 -0.06229957
000230 36 b3 bd 3e 33 ad 9e 3e 20 fa 4c be 4b c6 36 bc
       0.3705079 0.30991516 -0.2001729 -0.011155675
000240 fa 67 ab be 0e 45 36 be 7a 6f 51 3d f1 7a ca 3e
       -0.33477765 -0.1779978 0.051131703 0.39546922
000250 73 14 83 3e 2f 21 4c 3e bb 80 1f be 57 4f 2d 3e
       0.2560154 0.19934534 -0.1557645 0.16924797
000260 3c 2a 98 be d0 fb d3 3e 97 69 e6 bd 92 a6 85 3e
       -0.29719722 0.41403055 -0.112506084 0.26103646
000270 b5 85 21 be 82 d5 97 be 87 a4 8d be fa 74 4a be
       -0.15773661 -0.2965508 -0.27664587 -0.19771186
000280 b5 93 c8 bc c1 e1 51 3d 64 78 4d 3d 06 5b de be
       -0.024484495 0.051240686 0.05016364 -0.4342882
000290 72 dd 69 be 02 b0 1e 3e c5 e0 90 3e 9c 32 92 be
       -0.22838381 0.15496829 0.28296486 -0.28554237
0002a0 7a 9f c1 3d 80 cb 91 3e b6 37 26 3e f9 14 af bc
       0.09454246 0.2847557 0.1623219 -0.021372305
0002b0 02 a4 a2 3d 38 a0 fc 3c 48 14 32 3e e7 ca 8c 3e
       0.07941438 0.030838117 0.17390549 0.27498552
0002c0 77 96 31 3e 9b 51 a0 be f9 96 43 be c1 0f 88 be
       0.17342554 -0.3131226 -0.1910056 -0.2657452
0002d0 ff 51 9f be 54 f6 30 3e 89 2b 69 be 11 04 9f 3e
       -0.31117246 0.17281467 -0.22770514 0.3105779
0002e0 61 63 5e 3e 6b bb 6d 3e 1e 9b 11 3e a3 d4 8d be
       0.21717598 0.23216026 0.14219329 -0.2770129
0002f0 c7 4a 52 be 77 45 bc 3c 75 cc cb 3c b3 cc 90 be
       -0.20536338 0.022982342 0.024877766 -0.28281173
000300 76 7c 84 3e f6 e1 1b 3d 33 a5 ab be 0a 09 81 be
       0.25876206 0.03805729 -0.33524475 -0.2520221
000310 16 d5 c3 be a1 95 57 be 70 05 36 3e 48 44 b4 bd
       -0.3824851 -0.21053173 0.17775512 -0.08802086
000320 21 11 25 be 1e 76 a9 3d e0 82 83 be 31 cb 9b bd
       -0.16119815 0.08274482 -0.25685787 -0.07607115
000330 dd 34 43 3e 8d 08 49 be f8 09 8c 3d 6d 2c 10 3e
       0.19063134 -0.19632168 0.06837839 0.14079447
000340 42 2b 76 be cc 4f c0 3e 38 41 9f 3e 77 f6 4a be
       -0.24039939 0.3756088 0.31104445 -0.19820581
000350 f8 89 25 3e 3f de 34 be 5a 60 50 3e 6d 6d 86 be
       0.16165912 -0.17662905 0.20349255 -0.2625536
000360 81 86 fa bd 24 53 80 3d 3b 2b 25 be e3 e1 74 be
       -0.12232686 0.06265858 -0.16129772 -0.23914294
000370 cc 86 f8 be a5 64 36 be 77 d7 4d 3e 3a 23 b0 be
       -0.48540342 -0.1781183 0.20101725 -0.34401876
000380 a6 b5 53 be e1 0c 7c be 73 f6 a5 bd 2f 08 ae be
       -0.20674762 -0.24614288 -0.08103647 -0.3399062
000390 dc f6 ac bb 8c 2f 97 3c bc 44 43 3e 8d 12 93 3e
       -0.0052784514 0.01845529 0.19069189 0.2872509
0003a0 68 76 60 3e 69 01 84 3d 55 a5 15 3e 8f 56 68 be
       0.21920168 0.064455815 0.1461385 -0.2268927
0003b0 25 d2 34 be d9 74 b3 3e 9e fd a9 3e ae ce 2f 3a
       -0.17658289 0.35050085 0.33201307 0.0006706518
0003c0 fd 7c bd be ef 7b e1 bd 50 4a 1a be c9 8c 87 3e
       -0.3700942 -0.110099666 -0.1506741 0.26474598
0003d0 34 95 66 be a9 4f 76 be 1a 2f 33 3a 2d 11 8f be
       -0.22517854 -0.24053825 0.0006835327 -0.27942792
0003e0 8f f5 8a 3e ee 30 bb 3d e6 0e 77 3e f3 ef 98 3e
       0.2714047 0.09140192 0.24126777 0.29870567
0003f0 71 c4 0a 3e 85 05 1e 3e 16 37 85 3e 62 dc 7e be
       0.13551499 0.15431793 0.2601859 -0.24888757

bias f4 [32]
000000 7d e4 86 3d 85 9c 22 3e 75 c7 f8 3d 0b ca b7 be
       0.065865494 0.1588002 0.121474184 -0.35896334
000010 4e 9d 22 bd f1 db 9c 3e a1 8f 9a bd b4 47 90 3e
       -0.0397008 0.30636552 -0.07546926 0.28179705
000020 bd 7e 4b 3c 77 d1 f4 be 8a e2 15 bd f3 e3 16 be
       0.0124203535 -0.4781606 -0.036592998 -0.14735393
000030 26 c2 ad bd 19 8a 97 be 25 0f 0d 3d a8 4b 0c be
       -0.084842965 -0.29597548 0.03443827 -0.13700736
000040 2a ef 59 be 7c 59 1c be 76 fb af bc 68 e7 1e be
       -0.2128264 -0.1526851 -0.02148221 -0.15517962
000050 e2 37 97 be 7d 62 67 bd 44 36 ff bc 76 78 b2 be
       -0.29534823 -0.05649041 -0.031153806 -0.3485753
000060 dd fd 93 3e cf 9f e9 3c 9e 51 cf 3e ea 4e 6b be
       0.2890462 0.028518585 0.40491956 -0.22979322
000070 0c 9b cf bd 0a 2e 96 bd 33 7d 82 be 3f 2d 25 bd
       -0.10136995 -0.07333 -0.25486144 -0.040326353

weight f4 [50, 512]
000000 4d 48 af 3c 0c a2 be bc 00 37 d1 bd 41 38 9a 3d
       0.02139678 -0.02327063 -0.102155685 0.07530261
000010 10 5a 93 3d 57 d8 b9 bd f2 0b dd 3d 2c 18 65 bd
       0.071949124 -0.09074467 0.10793294 -0.055931255
000020 5c 20 7e bd 67 23 c5 3d be 93 5d 3e a3 93 5f 3c
       -0.06204258 0.09625893 0.2163839 0.013646039
000030 bc 3d 11 3e 5b c6 d9 3b 7d e7 1c bd eb 3c 9b 3d
       0.14183706 0.0066459603 -0.038306702 0.075799786
000040 62 26 be 3c 60 8e 27 bc d0 24 9b bd b7 3b 40 bc
       0.023211662 -0.010226816 -0.07575381 -0.011732987
000050 73 01 31 3d c8 cc 46 bd 80 ce 80 3d 9a 21 95 3b
       0.043214273 -0.04853514 0.06289387 0.0045511248
000060 5b 5c 73 bd 02 01 54 3d 2e 3b d9 bc c2 6b 31 3d
       -0.05941425 0.051758774 -0.026517477 0.043315656
000070 e4 a0 1a 3e 8c 42 e7 bd 0a 00 5e 3d e3 f9 86 bd
       0.15100437 -0.1129199 0.054199256 -0.06590631
000080 90 32 23 bd 01 1a 10 3d 9b 1a f8 bb fb 96 96 bd
       -0.039843142 0.03518105 -0.007571531 -0.07353016
000090 0a 3b 02 bb 2d 47 79 3d 4e e7 88 bc f1 4e ed bc
       -0.0019871616 0.060858894 -0.016711857 -0.028968306
0000a0 3c 78 67 bd 1e cd b2 3d 0a 1d c0 bd 97 a8 29 3d
       -0.05651115 0.08730529 -0.09380539 0.041420545
0000b0 28 06 54 bd c2 1a f7 bd 53 cd 6d 3d d6 25 f4 bc
       -0.051763684 -0.120656505 0.05805714 -0.029803198
0000c0 62 45 84 bd e9 0c 01 3c e0 8b 2c bc 77 8a ce 3c
       -0.06458546 0.007876613 -0.010531396 0.02521251
0000d0 6c c2 23 3c a0 61 c5 bb 8f 07 61 3d 9d 89 b5 bd
       0.009995084 -0.0060236007 0.05493885 -0.08864138
0000e0 6c 2b e3 bd 77 3b 45 3d 08 ff 67 bc 34 a7 c3 bb
       -0.110922664 0.048152413 -0.014159925 -0.00597086
0000f0 4c a1 93 bd 6b 0d 66 bc eb 1b c6 3d 7a dc 8f 3d
       -0.07208499 -0.014041285 0.09673294 0.070244744
000100 9d 5d 82 bd c3 5e 20 3c ae 6d aa bc f5 2e 8a 3c
       -0.063655116 0.009788218 -0.020804252 0.016868094
000110 c6 8d d2 bc a0 54 ad 3d 2f 58 53 bd 6c 7c cd bc
       -0.025702368 0.084634066 -0.05159777 -0.025083743
000120 d8 e3 7b bc e4 86 16 be 19 23 ad bd 28 28 b1 3d
       -0.015374146 -0.14699894 -0.0845396 0.08650237
000130 f0 97 c7 bd fd 4b 49 3d e1 6d 84 3d 3a 3f a0 bd
       -0.09745777 0.049144734 0.0646627 -0.078245595
000140 a5 f0 0f 3e 31 2f 25 bd d7 a7 16 3d 92 a5 bf 3c
       0.14056642 -0.04032821 0.03678116 0.02339438
000150 bd ea d8 bc 7e 26 3d 3c 0c 20 bc bd d8 9c b2 3c
       -0.02647912 0.011544822 -0.091858 0.021803305
000160 63 00 a8 3d 98 92 c9 bd 12 e8 ef 3d 9c ae 45 bd
       0.08203199 -0.09842414 0.11714186 -0.048262224
000170 58 e6 73 bd 9b 97 b4 bd 82 8e a1 bd ae 82 23 3c
       -0.059545845 -0.08817979 -0.07888509 0.009979887
000180 11 7e 6d 3d dc 7a 16 3d 79 20 15 bd 3b 43 e4 3a
       0.057981554 0.03673826 -0.03640792 0.0017415056
000190 51 47 54 3c 8a 50 67 3b b4 54 2e bc eb ff d6 3c
       0.012956456 0.0035295808 -0.010640312 0.026245078
0001a0 28 ca e7 3c dc 8e 60 3b fb 49 c4 ba 64 0a a9 3c
       0.028294638 0.0034264838 -0.0014975661 0.020634837
0001b0 ff 4a ce 3d 5e 2f 96 3c e5 ad 0a bc 3a 2f 8f bd
       0.10072898 0.018333133 -0.008464311 -0.069914296
0001c0 22 fa d9 3c 8a 3a 8f 3c 18 a7 f5 3d 9b a3 b4 bd
       0.02660853 0.017483968 0.11994761 -0.08820268
0001d0 98 fb 45 3c 80 f2 e9 3c 4b 37 98 bc 47 f8 f4 3d
       0.01208391 0.028558016 -0.018581053 0.11961418
0001e0 53 69 8b 3d f1 7c 12 be c2 da 88 3d dc c2 03 be
       0.068071984 -0.14305474 0.0668235 -0.12867302
0001f0 9a a8 da 3d 13 6b 09 3d cd 20 62 bd 2f 31 3e bd
       0.106766894 0.03354938 -0.055207063 -0.046433624
000200 04 5e 1a 3d 90 9c 17 3d 5f 6e b3 bc 13 03 02 3d
       0.037687317 0.037014544 -0.021903215 0.031741213
000210 c6 fb 87 bc 01 18 99 3c 40 29 95 bd 56 02 30 bd
       -0.016599547 0.018688204 -0.072832584 -0.042970978
000220 8e df 4f 3d 60 b1 90 bc e5 7e 4a 3c 47 3d 8f 3c
       0.050750308 -0.017662704 0.012359356 0.017485274
000230 2e 4d 48 3c 18 55 15 3d 65 fc a0 bd 77 e7 b4 bd
       0.012225432 0.036458105 -0.078606404 -0.08833211
000240 0b c7 d3 bc a1 c5 30 3d df 15 6f 3c 01 d1 26 bd
       -0.025851747 0.043157224 0.014592617 -0.040726665
000250 10 56 e9 bd 1b 7e 11 3d ee 0f 52 3d 45 c8 07 be
       -0.11393368 0.035520654 0.051284723 -0.1325999
000260 97 cb 8e 3c f6 44 58 3d 59 f7 9c 3c 9e 89 5c bc
       0.017431064 0.05280014 0.019160913 -0.013460545
000270 a6 47 29 bd cd cd ca 3d 0b 0a ba 3d 75 10 c7 3d
       -0.041328095 0.09902535 0.09083947 0.09719936
000280 40 5a 9e b9 ff 80 45 3c 7d 3f 2a 3d 24 e5 47 3d
       -0.0003020335 0.012054681 0.041564453 0.04880251
000290 44 ae 22 3d be c3 90 bc e7 0b 0f bc c1 ac cc 3c
       0.039716974 -0.017671462 -0.008730865 0.02498472
0002a0 75 1e 5e bd 0c a8 10 3d 06 c7 ab bd aa 42 32 3c
       -0.054228265 0.035316512 -0.0838757 0.010880152
0002b0 e5 95 41 bd 02 05 64 3c ef a8 c0 3c 79 ed ba bd
       -0.04726209 0.01391721 0.023518054 -0.091273256
0002c0 2b 23 2c bc 96 27 96 3a 24 d2 44 3d 20 e5 d3 3d
       -0.010506432 0.0011455889 0.04805197 0.103464365
0002d0 fe a5 fd bc cc 02 d4 3d 34 68 41 bc 4e 54 81 bd
       -0.03096294 0.10352096 -0.011804629 -0.06314908
0002e0 f4 4d 95 3b 8e 13 8a 3c 61 d7 b6 bc 26 4e 82 3d
       0.004556412 0.016855028 -0.022319498 0.06362562
0002f0 43 24 69 bd 97 a0 8d bd 3e 29 2f 3e 49 a5 84 3d
       -0.056919347 -0.06915396 0.17105576 0.06476838
000300 b7 1c 07 3d 9e 1d 80 bc ed f7 b7 bd c1 c4 69 3d
       0.03298637 -0.015639123 -0.08982835 0.057072405
000310 cd dc 87 3c 4d 59 4e 3d 83 7b 8b 3d 87 26 1b bd
       0.016584778 0.050378133 0.06810667 -0.03787854
000320 38 8a 47 3d ed ce c0 bd cf 8d 6f 3c 24 ca be 3d
       0.0487158 -0.09414468 0.014621212 0.09315899
000330 22 98 90 bd db 3c 81 bd cc cb 95 3d c7 40 9a bd
       -0.07060267 -0.063104354 0.07314262 -0.075318865
000340 2b dc 72 bd 62 d4 9e bc 11 33 eb 3b fe fa b9 bd
       -0.059292 -0.019388381 0.0071777184 -0.09081076
000350 f0 bf cd 3a c9 41 dc 3c fe 79 d5 3b 36 bf 04 3e
       0.0015697461 0.026886838 0.0065147867 0.12963566
000360 c3 bd 76 bd 63 14 b3 bc 96 1e 89 3c 11 e5 ee bd
       -0.060239565 -0.021860307 0.016738217 -0.11664785
000370 d9 78 0a be 1c 48 3c bd 95 49 b7 3d 5d 64 08 bd
       -0.13522662 -0.045967206 0.089495815 -0.03329884
000380 5c f9 1e bd ad 7e d3 3b 91 38 5a bd ea 9e 29 3d
       -0.038812026 0.00645431 -0.053276602 0.041411318
000390 62 05 06 3c 6e 55 d2 b9 2d 8f 17 3b f7 32 83 bc
       0.008179994 -0.0004011797 0.002312611 -0.016015513
0003a0 6f 19 63 bd 14 22 23 3d 06 34 0c bd 42 ab 58 3d
       -0.055444177 0.03982742 -0.0342293 0.0528977
0003b0 e2 b0 4e 3b b5 b6 01 bd 67 4b 4f 3d 93 58 c0 bb
       0.0031538536 -0.031668384 0.05060902 -0.005869934
0003c0 bf 7b 66 bd 09 df 52 bd e7 cd 9d bc c4 b6 96 3d
       -0.056270357 -0.051482234 -0.019263221 0.073590785
0003d0 ae 5e 95 bc 47 55 9f 3c 3e 08 6d 3b 2c 50 dd bd
       -0.018233623 0.019449843 0.0036168243 -0.10806307
0003e0 70 c7 8d bb f4 7d 11 3d c4 8a 1a be 8e 9a 80 3d
       -0.0043267533 0.03552051 -0.15091997 0.06279479
0003f0 41 de b0 bd c9 72 97 3c 8f 0e 4e 3d c0 3b b1 bc
       -0.086361416 0.018487351 0.050306853 -0.021634936

bias f4 [50]
000000 88 68 cd 3c 19 c6 08 3d ff 4a 8c 3d 0a fc b6 3c
       0.025074258 0.033392046 0.06850242 0.022336978
000010 9c c6 fa bb 76 98 f9 bc db 3a 5b bd 54 b7 76 bc
       -0.0076530706 -0.030468207 -0.053522926 -0.015058357
000020 0e 2e 6f 3c 8a 97 98 bc 32 fe c9 3b a0 9d 4a bd
       0.014598383 -0.018626947 0.0061643356 -0.04946673
000030 db 7d 26 3c b1 35 d9 bc d9 c0 80 3c 96 26 40 3c
       0.010161842 -0.02651486 0.015716957 0.01172795
000040 ca e3 3e 3c d4 91 18 3d c9 92 89 bb bd 36 3a 3d
       0.011650989 0.037248448 -0.0041984064 0.04546236
000050 29 fe 25 3d db 3c ad bb 2b 58 da 3c 02 73 a6 3c
       0.04052559 -0.0052867956 0.02665337 0.020318512
000060 13 a8 79 3d a5 4d 26 bd 2e d4 96 bc 49 64 e3 bc
       0.060951304 -0.04060139 -0.018411722 -0.02775778
000070 43 1a 01 3d 35 27 b1 3b 7a 3f 38 bb 84 3e 88 3c
       0.031519186 0.005406285 -0.0028114007 0.016631372
000080 10 a2 53 3c 47 aa e2 39 0f fb 31 bd 32 33 ce 3c
       0.012917057 0.00043232946 -0.04345232 0.025170896
000090 f6 ac 9e 3b 41 ba a2 3b 37 74 2c 3c e5 31 4e bd
       0.004842396 0.004966051 0.010525755 -0.050340552
0000a0 5c 9e 9f bc d9 8d 98 3c d8 cb a1 bb 3a bb 36 bd
       -0.019484691 0.018622326 -0.00493763 -0.044612147
0000b0 0a fb 42 bd 66 1f 14 bb e9 19 f7 bb 92 f4 eb bc
       -0.04760269 -0.0022601723 -0.0075409305 -0.028803144
0000c0 db 5b ec ba 52 ff 69 3a
       -0.0018032746 0.00089262903

weight f4 [10, 50]
000000 37 21 32 be a6 f6 66 3e 38 7e af be 27 a8 88 3d
       -0.17395483 0.22555026 -0.34275985 0.066726975
000010 d7 c1 81 3e c6 b5 0f 3e a4 d4 03 be 2f 38 67 3e
       0.253432 0.14034185 -0.12874085 0.22580026
000020 99 80 53 bc 9a ea 78 be b5 08 89 bd 56 cf 22 3e
       -0.012909078 -0.24308243 -0.06691114 0.15899405
000030 58 a4 e1 bd 55 09 02 bd 48 59 4b be 1a 5a 84 3e
       -0.11017674 -0.03174718 -0.19858277 0.25849992
000040 c9 39 e8 3d 50 65 1a 3e 48 97 78 3d 8a 03 1b bd
       0.11339147 0.1507771 0.060691148 -0.037845172
000050 d1 c9 3c be 95 c8 e5 3d 26 ab 89 bd e5 39 86 3d
       -0.18436362 0.112198986 -0.06722097 0.06554011
000060 82 8a b7 be 1d b4 05 be 81 b3 5b 3d a9 40 72 bd
       -0.3584786 -0.13056989 0.053637985 -0.059143696
000070 4a e8 76 be f1 1d 3c 3e 79 01 1b be 25 b2 f2 3d
       -0.24112049 0.18370797 -0.1513728 0.118503846
000080 74 12 95 be 67 76 05 3e 72 26 15 3d 3f a0 00 3e
       -0.2911564 0.13033448 0.036413617 0.12561129
000090 94 61 b8 bd 1c 7b 83 3e 1b 8b 7a be f5 45 28 3e
       -0.090029866 0.25679862 -0.24467127 0.16432936
0000a0 74 a6 72 3e d0 33 0d be 7b 2f d4 bd c9 af bc 3c
       0.2369631 -0.13789296 -0.10360619 0.02303304
0000b0 cd 61 9b be 50 f4 64 be 38 a5 a3 bd 8e 52 17 3e
       -0.30348054 -0.22358823 -0.07990497 0.14777586
0000c0 35 13 46 3a 1c bb e0 bd 72 47 95 3e df 1a 3e be
       0.00075559627 -0.10973188 0.2915607 -0.18564938
0000d0 af 04 75 3e a1 f1 8b be 52 62 80 3e 46 52 9f be
       0.23927568 -0.27332786 0.25075012 -0.31117457
0000e0 7f 75 63 3e df d7 9a be 9e 40 bc 3e 03 d2 90 3e
       0.2221279 -0.30242822 0.3676805 0.28285226
0000f0 87 0c ad 3c 49 9d 49 3e fb 71 69 3e 37 a7 b2 3d
       0.021124138 0.19688906 0.22797386 0.087233
000100 75 71 1d be 9c 88 13 3e c4 d3 cb be e6 cd 4d be
       -0.15375312 0.14407581 -0.39810002 -0.20098075
000110 1a 6a 30 bd 7b 2e 4f bd 70 75 33 be 46 d4 02 be
       -0.043069936 -0.050581437 -0.17525268 -0.12776288
000120 c3 c1 3c bd 84 63 2f 3d 25 d6 24 3e 80 1b b1 3d
       -0.046083223 0.042819515 0.16097315 0.08647823
000130 14 94 1f 3e 07 0c 9a be a4 96 84 bd 19 49 45 be
       0.15583831 -0.300873 -0.06474045 -0.19266166
000140 f5 4c f2 3d f6 d1 c7 bd 00 ad 87 be 68 14 55 be
       0.11831085 -0.09756844 -0.26499176 -0.20808566
000150 9e 17 41 be 5b 5c 09 be 77 de 04 bd 84 90 05 be
       -0.18856665 -0.13414137 -0.03243872 -0.1304341
000160 09 fe 9e 3e 39 cc 7e 3e 96 cf 67 be 4c 87 d8 bd
       0.31053188 0.24882592 -0.22637782 -0.10572681
000170 42 1b 0d 3e 83 57 0d bd 0f 77 82 be e8 52 86 be
       0.1377993 -0.034507286 -0.2548146 -0.26235127
000180 d4 7a 7c bc 0f 56 5a 3e a0 8c c0 be 13 78 77 3e
       -0.015410144 0.21321891 -0.37607288 0.24166898
000190 2e 82 61 3e 72 b1 5f be fb 9a c2 3d e7 44 a7 3e
       0.22022316 -0.21845034 0.095022164 0.32669756
0001a0 85 91 e0 bd 4b d2 85 be 92 91 64 be b2 55 d0 3e
       -0.10965256 -0.26137003 -0.22321156 0.4069038
0001b0 fd d5 c3 bd 98 e6 9c be 2a 72 b2 be 7e 4d 67 3e
       -0.095622994 -0.3064468 -0.34852725 0.22588155
0001c0 a3 86 8f 3e ba 9d 76 3e e1 80 4a 3d df ce 4c 3e
       0.28032407 0.24083605 0.049439315 0.2000079
0001d0 04 b7 36 3e d5 fc 6c be 35 f7 09 be 13 49 04 3c
       0.17843252 -0.23143323 -0.13473208 0.008074063
0001e0 39 a3 4c be 5e de 51 be 8d 52 27 be 0d 89 f1 bd
       -0.1998414 -0.20494983 -0.16340084 -0.117937185
0001f0 f6 76 a2 be 5a 8d 00 3d 47 41 87 bd 1c 5b 2c 3c
       -0.31731385 0.031384803 -0.066042475 0.010519769
000200 0b 2f 2d bc 2a 21 a3 3e 54 c2 8d be e9 f4 15 3e
       -0.010570298 0.3186124 -0.27687323 0.14644207
000210 4a 3c 86 3c e4 72 f9 bd 83 1a ef 3d 5f 03 d0 bd
       0.01638617 -0.12180117 0.116749786 -0.10156893
000220 e9 c9 72 3d ac 96 a2 be 6b da 9f be 76 7e 9e bd
       0.059274588 -0.3175558 -0.31221327 -0.07738964
000230 97 f3 6a be 85 30 e7 3b 99 e4 a7 3d ab 24 0d 3e
       -0.22944485 0.0070553445 0.081978984 0.13783519
000240 8e 31 0a 3e 66 0f b2 be 6b 6f 84 bc 96 d4 30 be
       0.13495466 -0.34777373 -0.01616641 -0.17268595
000250 04 c8 1b be a5 3c 32 3e 35 cf 70 3d aa de f4 3d
       -0.15213019 0.17405947 0.058791358 0.11956532
000260 72 45 b2 3d 2c c1 ac bd d2 f4 14 be 4e 15 1b be
       0.08704652 -0.08435282 -0.14546517 -0.15144846
000270 b6 54 84 be 6f 90 77 be 4d 43 ee bd 5e 02 21 be
       -0.2584588 -0.24176191 -0.1163393 -0.1572356
000280 9f 71 21 3e 34 61 60 be 4b b7 91 bb 07 d0 36 be
       0.15766 -0.2191208 -0.004446899 -0.17852794
000290 5c d7 95 3e 43 7d 9b be b9 b2 93 3e 71 90 a0 bd
       0.2926587 -0.30369005 0.28847292 -0.0784005
0002a0 b2 43 df bd d4 0c db 3d de 52 72 3e 6a 0c 65 be
       -0.10901584 0.10695806 0.23664424 -0.22368017
0002b0 19 8c 0e 3d 02 f5 50 3e 1c 2b 51 be 7c 97 81 bc
       0.034801576 0.20405963 -0.20426601 -0.015819304
0002c0 88 31 83 3d f2 b2 ab bd 74 2d d9 3d 49 3a d8 bd
       0.06405932 -0.083837405 0.106043726 -0.10557992
0002d0 3c 9e 73 3d 1c f1 89 3e e4 5f 26 3e 62 1e 3a be
       0.059477076 0.26941764 0.16247517 -0.18175653
0002e0 46 95 22 3e cc 00 b5 b9 2e 09 4c 3c 38 a4 d0 be
       0.15877256 -0.00034523604 0.0124533605 -0.4075029
0002f0 c3 0c a4 be 5e 38 53 be 50 85 4a be b6 bd 2b 3e
       -0.32040986 -0.20626971 -0.19777417 0.16771588
000300 ab 73 43 3e a4 7a c2 bd 74 5b b3 3e 41 0f 9f 3e
       0.19087093 -0.09496048 0.3503071 0.31066325
000310 1e da 58 bd 95 01 1f be 43 82 b8 3d 9f 1b fa bd
       -0.052942388 -0.15527947 0.090092205 -0.122122996
000320 ff c5 88 be ec 00 32 be fc 81 56 be 3e 26 15 be
       -0.2671356 -0.17383164 -0.20948023 -0.1456537
000330 c7 c4 1f 3e e9 59 a0 3e d3 00 1e 3d 12 ee 0b be
       0.15602408 0.31318596 0.038575005 -0.13665035
000340 be 81 a5 3e 17 61 82 bd bc 13 8b 3e d2 c5 2b be
       0.32325548 -0.06366175 0.27163494 -0.16774681
000350 7b 2f e0 bd 69 8b 8e 3e d9 a9 62 be 02 12 b6 be
       -0.10946556 0.27840737 -0.22135104 -0.35560614
000360 7b 14 c0 be 8a 78 d2 3d ac e9 60 3c c1 b1 e7 bd
       -0.37515625 0.10276897 0.013727587 -0.11313201
000370 a8 a0 64 3e d4 35 91 3c 4c b1 e3 3d 23 93 42 be
       0.2232691 0.017725863 0.11117801 -0.1900144
000380 28 d1 2f 3e f8 be ab 3c bb 32 44 bc 3b b5 94 3e
       0.1716963 0.020965084 -0.011974986 0.29044518
000390 59 db 16 be 36 df 2f 3e f7 b8 52 bd 0f a5 3e be
       -0.14732112 0.17174992 -0.051445927 -0.18617652
0003a0 db 65 4c be a6 66 94 3e ee 41 8f be 2b 9a 91 be
       -0.1996073 0.28984565 -0.27979988 -0.28437933
0003b0 59 42 f8 bd e8 de 51 3e f3 19 a4 3e 87 73 ea 3c
       -0.1212203 0.20495188 0.32051048 0.02861954
0003c0 bf 1c ea bc ed fd 80 be cb c3 35 be d7 52 78 be
       -0.02857816 -0.2519373 -0.1775047 -0.24250351
0003d0 58 d2 a1 bd 31 c6 b1 bd 92 5c 9b 3d a7 75 69 3e
       -0.07901448 -0.0868038 0.07586016 0.22798787
0003e0 bb b6 49 3e 50 a9 82 be 41 fe ac be af c4 f9 3d
       0.19698612 -0.255198 -0.3378773 0.121957175
0003f0 f4 16 27 3e f2 1a 6f bd 61 54 14 3e bc 1c 36 bd
       0.1631735 -0.058375306 0.14485313 -0.044460997

bias f4 [10]
000000 51 48 1a be f6 2e fb 3d d4 48 d4 bd c1 f8 98 bd
       -0.15066649 0.122648165 -0.10365453 -0.07469321
000010 40 ed 32 bd f9 8e 0a 3e 70 56 8d 3c 30 ba bc 3d
       -0.04368329 0.13531102 0.01725313 0.092152
000020 fe fa 6f 3d 16 13 03 bd
       0.058588974 -0.032000624
