Computational Intelligence/aeh330_5/resultsclassifier_cnn_11.model (torch, 111391 bytes, 6 tensors)

weight f4 [32, 1, 3, 3]
00000000: 46fb 5f3e 9e69 8c3d 8451 09be b12e 663e
00000010: 93f5 3d3e eedc 5c3e 7601 adbe 9fb8 9cbe
00000020: fcd7 92be fa00 6e3e 72d4 bebe d397 373d
00000030: 2aef 0b3d 1e27 62bd e3ac 593e 26d4 16bd
00000040: 8687 953e 9864 aabe c840 3abe 0eac a43d
00000050: 7eb3 4d3e b730 6cbc ed80 c53c b9bd 833e
00000060: 6d8a 5bbe f5b4 9abd f1e0 d93d de82 423e
00000070: 3846 69bd e2e7 89be 501f 9f3d a52e 313e
00000080: f632 9ebe abcd 293e 59ea 26bd 9212 443e
00000090: de38 81bc 1b76 7e3c 82c9 633e 45a4 29be
000000a0: 5106 9cbd 8129 78be d4bc 86be f0a2 d63d
000000b0: ca3f 613e 7f86 0c3e c29d c0be f557 bebd
000000c0: de01 053e 0664 433e 77bc 5b3e 4437 2f3e
000000d0: 3d23 73bb dbcf 13be 901d f63d f10e 823e
000000e0: b22c de3d a01c 00be f74a 96be eaae e6be
000000f0: 9dab 603d 227a 2f3e 8040 a63d 1228 cfbc
00000100: c772 b23e b370 8dbe 9f44 a2be ee7c adbe
00000110: b08a 953d d33a 9a3e 864c 76be 445e 833e
00000120: 3456 6d3e 5c09 a3be dc75 b03d ce70 123e
00000130: c659 d5bd ce2e 563e 24f9 923e bd60 d0be
00000140: 0522 893e 9fcd c1be 5ac8 aa3e 1aa0 c4bd
00000150: c961 b03e 2c7b 033e 56a9 2fbe ea01 2b3e
00000160: 929b aebe 11f0 4d3e 0471 203e cb28 1c3e
00000170: 58ab 22be da57 d3bd e26d f7bd c3cf 63bb
00000180: 4910 3bbe a81b 853b e8f2 3d3e 610c 463e
00000190: d533 4b3e d508 083e 20aa 97ba 9e9b febd
000001a0: 3af8 293d 2ca9 6dbe fd6e 50be eca4 6cbe
000001b0: 9fa4 a8be f238 833e f76f 3abd d16e 323e
000001c0: 5d79 253e 3e75 2d3d 30c7 d03d c234 b9bd
000001d0: 2a87 17be 6a48 b23e dfe5 27be b505 77bd
000001e0: ebd3 223e 0ad9 59be 01a1 62be 836e 13be
000001f0: 0253 b7bc e40f ba3e af4c 683e db43 07be
00000200: d536 4bbe c899 74be 6532 1b3e 5603 ccbd
00000210: 94ed 353e 80ec ddbb 3325 973e a1cb 45be
00000220: 9091 dcbd c0c7 15bd 1a15 06be dc4e 7dbe
00000230: 6820 8b3e b2da 48be c947 b6bc e833 823e
00000240: d014 04be e2ae 51be cbb2 9a3e 750a 27bd
00000250: 43b3 9bbe 4f20 9d3e 628a c83d 0148 07be
00000260: 10e8 863d 886c 89be 60ef 0abe 58f4 833e
00000270: 742a f43d bca5 adbc d9ba c1be 7262 913e
00000280: 138c f23d 5893 4abc 0407 6a3d 03b0 b0bb
00000290: 05ac c9bd 53d6 22bb 9b56 7ebe 219c ff3d
000002a0: 4889 d73d 7b9b bfbd 2196 bd3d c385 efbd
000002b0: 83dc 05be 5d40 bcbd 35ff 23be 2b78 bbbe
000002c0: 473d 10be 65c8 ac3e bb92 41bd 3c82 1dbd
000002d0: 5376 4c3e 685f 05be bc6c dabd 438c 893e
000002e0: 2b91 aebe bcae 313e 52ad 6a3e 5860 abbd
000002f0: c20a 493e cee9 4cbe aa2f 883e 9141 d83d
00000300: a4d6 b6bd 0430 5cbd e57b 9f3e 7174 f73d
00000310: 1b03 a4be afa8 923e 17ee 46be 7836 a8be
00000320: 78f0 96be fe27 873e 1a55 4f3e 8352 0e3e
00000330: 2a80 32be edcd 733d ae48 85bd 8da8 b53d
00000340: 9376 53be 879a a6be 00bf 69be 18a3 ad3d
00000350: 6c0e 9d3e e735 5ebe 01f4 66be 601b 323e
00000360: 02a9 143d 52eb b4be 14f5 59be 4311 81bd
00000370: de2e 153e 7841 f13d 9f70 1c3e f478 8e3e
00000380: 5d29 793d 4a73 a93c 4eb8 0c3d 1a62 8b3e
00000390: 8d4a 473d 10bf c5be a7fc 163e e11d 853e
000003a0: 34e8 113d e1f4 babd 4d63 3c3e d06c 4b3d
000003b0: a2db b73e fca0 04bd b7c6 4cbe 195f eebd
000003c0: f776 06be d7f9 88be 023a dabd 37a1 883e
000003d0: 66fa cebd cb6a 4d3e aaf4 28be caf3 153d
000003e0: b074 24be 7326 43be 900b 143d 628e 443e
000003f0: d598 993e 92e4 50bb 15c5 a33e febf a2be
0.21873197 0.068560824 -0.13410002 0.22478749 0.1855071 0.21568653 -0.33790177 -0.30609605
-0.28680408 0.2324256 -0.37271458 0.044822525 0.03416363 -0.055213086 0.21257357 -0.036823414
0.2920496 -0.33279872 -0.18188775 0.08040629 0.20088002 -0.014415911 0.024109328 0.25730684
-0.21439524 -0.07554046 0.10638607 0.18995234 -0.05695173 -0.26934725 0.07769644 0.1730295
-0.30898255 0.16582362 -0.040750835 0.19147709 -0.015774187 0.015531088 0.22244838 -0.1656657
-0.07618392 -0.24234582 -0.2631594 0.104802966 0.2199699 0.13723181 -0.3762036 -0.0929412
0.12988994 0.19081125 0.21458612 0.17110926 -0.003709986 -0.1443476 0.12017357 0.25402024
0.10848369 -0.1251092 -0.2935407 -0.45055324 0.054851163 0.17136434 0.08117771 -0.025287662
0.34853193 -0.27625045 -0.3169298 -0.33884376 0.07301843 0.30123004 -0.24052629 0.25657856
0.23177415 -0.31843078 0.0861623 0.14300844 -0.104175135 0.20916292 0.28705704 -0.40698805
0.26783767 -0.3785219 0.3335598 -0.096008494 0.34449604 0.12839955 -0.1715444 0.16699949
-0.34103066 0.2011111 0.15668112 0.15249936 -0.15885675 -0.10319491 -0.12081505 -0.0034761287
-0.18267931 0.004062135 0.18549693 0.1934066 0.19843991 0.13284619 -0.0011571087 -0.124320254
0.041496493 -0.23209065 -0.20354839 -0.23109788 -0.32938096 0.25629383 -0.045516934 0.17425086
0.16159578 0.04234814 0.10194242 -0.09043266 -0.14797655 0.34820873 -0.16396283 -0.060308177
0.15901153 -0.212742 -0.2213173 -0.14397626 -0.022378448 0.3634025 0.22685502 -0.13209479
-0.19845136 -0.23886788 0.15155943 -0.09961574 0.1776641 -0.0067725778 0.29520568 -0.1931596
-0.10769951 -0.03656745 -0.13093987 -0.24737114 0.27173162 -0.19614676 -0.022251027 0.25430226
-0.12898564 -0.20476869 0.30214533 -0.040781457 -0.30410203 0.30688712 0.097920194 -0.13211061
0.06587231 -0.26840615 -0.13567877 0.25772357 0.1192216 -0.021197192 -0.37837866 0.2839542
0.11843123 -0.012364231 0.057135597 -0.005392076 -0.09847263 -0.0024846985 -0.24837725 0.12480951
0.10524231 -0.093558274 0.092571504 -0.11695435 -0.130724 -0.09191964 -0.16015323 -0.36615118
-0.14085875 0.3374664 -0.047259074 -0.03845428 0.19967012 -0.13024676 -0.10665271 0.26864824
-0.3409513 0.17351812 0.22917679 -0.083679855 0.1963301 -0.20011064 0.26598865 0.10559381
-0.08927658 -0.05375673 0.31149212 0.12082756 -0.3203362 0.2864432 -0.19426762 -0.32854056
-0.29480338 0.263977 0.20247307 0.13898663 -0.17431703 0.059522558 -0.06508003 0.08870039
-0.20650701 -0.3253977 -0.22826767 0.08478373 0.30675066 -0.2170025 -0.22554018 0.17393255
0.03629399 -0.35335785 -0.21284896 -0.063021205 0.1456866 0.11780065 0.15277337 0.27826655
0.060830463 0.020684857 0.034355454 0.27223283 0.04865508 -0.38622332 0.14744817 0.25999358
0.035621837 -0.09128738 0.18397255 0.04966432 0.35909754 -0.03238009 -0.19997679 -0.11639232
-0.13131319 -0.26753113 -0.10655595 0.26685497 -0.101063535 0.2006027 -0.16499582 0.03660945
-0.16060138 -0.19057636 0.03614384 0.1919494 0.29999414 -0.003187452 0.319863 -0.31787103

bias f4 [32]
00000000: a7b1 653e d1d7 883e 200f bb3d cfc8 18bb
00000010: 3e70 593e b7e7 57bd 6492 283d 791c 823e
00000020: 69b5 b13d 610b 5dbe 3e8b ea3e 9c82 d2bd
00000030: 66d5 4ebe b903 59be ce57 c0bd 70df c23d
00000040: 3d9d 8bbe 1984 373e e8b7 ae3d 9fdc a23e
00000050: 55b4 683e 7539 d73d 7ac4 a53e b17c 1d3d
00000060: 3206 1fbe 958b e9bd 274a 403d 6e4a 94be
00000070: 8947 313d fe19 773e 737b 7d3e 7ef3 82be
0.2243105 0.26727155 0.09133744 -0.002331305 0.21234223 -0.052711215 0.041155234 0.25412348
0.08677179 -0.21586372 0.45809358 -0.10278818 -0.20198593 -0.21192826 -0.093917474 0.095152736
-0.272684 0.17921485 0.08531171 0.31808946 0.22725041 0.10509006 0.32376462 0.038448993
-0.15529707 -0.11403576 0.046945717 -0.28963035 0.043281112 0.24131009 0.24754123 -0.25576395

weight f4 [50, 512]
00000000: ce52 bcbd 052d 1dbd a069 2c3e 7f3a 383c
00000010: c523 44bd f7ea 96bb da0d 2cbd 3486 883d
00000020: 11fc c2bd 973b 98bd a8a1 ddbd 781a 1dbe
00000030: c3e4 3cbe a42e 333c fca2 edbc 7c19 94bc
00000040: 9afa c0bd e756 083e 3f01 41bd b4bb 49bd
00000050: 1048 133e 6e32 31bd c7e4 dc3d 5ee1 9f3c
00000060: 048a ca3c 0c4e e4bd bd93 3e3e 11ed 8bbd
00000070: d188 fb3d d2ca 36bc 6c72 06be a859 dfbc
00000080: aa8b 4ebd f5ce c9bd ccbc 563d e987 4dbd
00000090: c5e4 87bd 4df5 12be d70f 02be 242d 643d
000000a0: eb35 1e3c 8729 7abd 4a96 75bc cdef 093d
000000b0: f9c7 3cbd 0603 563a 6058 873d 5de5 213c
000000c0: ec17 afbd 464c b53d 2392 07bd bbc8 043d
000000d0: abc6 1bbd 54ad da3d 232f a83c 9f8b 68ba
000000e0: 130c bebd d9bf 163c de54 9a3d 0a60 03bd
000000f0: 7d91 473d 72b6 943c eaa3 9abd 24d1 55bd
00000100: 9354 103d b5b9 0dbc d586 e3bc af3b a5bd
00000110: 9c97 e4bc 9260 c13c 1bb1 02be 711b d23d
00000120: 0e57 bbbb f3f1 1d3d bc39 66bd 0f4c 6c3c
00000130: 12b0 0f3e 9f66 823c 4927 abbd e0d3 7dbd
00000140: 072b cf3d 9d3c 9e3d f0b8 75bd eab0 733b
00000150: c527 d83d 1798 11be b398 dc3c 19c5 9bbd
00000160: 44c8 803c ff71 a5bd 0829 193e e8c9 33bd
00000170: c337 eb3d a1e0 e4bd adb3 a2bd ddb5 0f3d
00000180: e118 a8bd 3618 b03d 7ede beba b5b9 833c
00000190: fe2a 8fbd 2a82 23bc 4b27 dcbd f32c 07be
000001a0: 297e c9bc 6890 713c c7f5 ba3a 614a cfba
000001b0: 0080 3ebe d560 d53c 15e6 7cbc 9a90 abba
000001c0: d26e 993d ec4b 4abe e527 513d 5e18 dabb
000001d0: dd38 a93d 024d 21be 0b3d 2e3e c6be 78bc
000001e0: 6ca2 bc3d 3c3a e9bc 2810 83bd 18a3 293e
000001f0: f1e6 2abe 3f93 fa3d 8974 55bd 9a3f 5abd
00000200: 4d5b e5bc 72d7 8ebb b1c5 f53d b6c6 503d
00000210: 9cc0 863d 19f9 17bd f39c 233e 36b4 88bc
00000220: 244e a23d 8fdc fcbd 5577 bbbc 36b7 58bd
00000230: ae15 0e3c 058c abbd 74db 8939 513e e6bc
00000240: 62dd 31bd 3186 603d 1e7f 843d b673 d3bc
00000250: 3f22 bbbd 5ddf 4f3e 1a2a 38bd 5cee eebb
00000260: c175 42bd 097a 273e 5cf7 e8bc 7648 023d
00000270: d819 a7bc c05a 4d3d 287f 453d 823a 85bc
00000280: 36cd 813d 5b77 253b 56d5 5ebc 03c3 bfbc
00000290: 3b0a 9bbd fed4 ea3c ff9b a93c e2c9 353d
000002a0: ff03 2cbd a11f e7ba 7618 60bd be26 f0bc
000002b0: a62b 3abe 622f 553c f0ec a1bd d9f2 8abc
000002c0: adbb d73c 871e 083d 63b4 503d d061 903d
000002d0: 18b9 acbb 43ee 10be b356 d33d 78ed c23c
000002e0: a038 c4bc b36c 2ebe 0686 33bd 29f2 a1bd
000002f0: 409c 50bd e903 e63b 3647 9ebd 394b b93d
00000300: 39ee 73bc 4407 b33c 0d9a 80bc 9af4 e3bb
00000310: 3da9 25bd 0a13 de3d d72f 593d a064 5dbd
00000320: 3a87 6a3c c414 9c3d 13fe 01be 43fa 9b3b
00000330: f25f 4cbe 8ad2 a03c 6a4e 7d3d 4f9a 85bd
00000340: e66f 0f3d e78d 95bb 1a4a 913d 1f9e a23d
00000350: 82ed dbbd 9aab f5bd b3c4 f83d ea9c a43d
00000360: 9922 63bd 0149 143d fd83 0a3e eb04 cebd
00000370: db70 273d e92a 9b3c f0ef 2ebd e942 893d
00000380: dc70 94bd 0de5 473d 6715 85bd c61d 3dbd
00000390: 9d5a 71bd 4f5e d6bc cea1 7d3d c44a 15be
000003a0: 0a08 0bbd baf4 61bd 8196 d83d f779 a239
000003b0: 4cd8 443d b3a2 aabb 33e5 80bd 2b76 403d
000003c0: 7e2a d3bb d4d0 36ba a79e 3bbd 9ba3 58bd
000003d0: 4639 233d 4e46 83bd f338 483d 3c2f 87bb
000003e0: d724 0b3d fb68 133d 3d90 cc3c 6d1c 1d3d
000003f0: e02a 6a3d 4235 f3bc 08d4 e9bc e6cc bf3c
-0.09195481 -0.038373012 0.16837168 0.011244415 -0.047885675 -0.0046056467 -0.042005397 0.06666222
-0.09520734 -0.07433241 -0.10821849 -0.15342128 -0.1844664 0.010936413 -0.029008381 -0.018078558
-0.094227985 0.133144 -0.04712033 -0.049251273 0.14382958 -0.043260984 0.10785823 0.019516643
0.024724014 -0.11147699 0.18611045 -0.06832326 0.12281955 -0.011156755 -0.13129586 -0.027264431
-0.050426163 -0.09853927 0.052426144 -0.050178442 -0.06635431 -0.14351387 -0.12701355 0.055707112
0.00965641 -0.06107476 -0.014989445 0.033675957 -0.046089146 0.00081639027 0.06608653 0.009881345
-0.085494846 0.08852439 -0.03309835 0.032417994 -0.03803126 0.10677591 0.020530289 -0.0008870903
-0.09279647 0.0092010135 0.075357184 -0.03207401 0.048722733 0.018153403 -0.075507954 -0.052201405
0.035236906 -0.008650233 -0.027774254 -0.08068024 -0.027904324 0.023605619 -0.12762873 0.1025914
-0.005717165 0.03856082 -0.056207404 0.014422431 0.14032009 0.015918074 -0.083571024 -0.061969638
0.10115629 0.07726405 -0.059990823 0.0037184306 0.105544604 -0.14218174 0.026928281 -0.07605953
0.015720494 -0.08078384 0.14957058 -0.043893725 0.11485245 -0.11175657 -0.07944427 0.035085548
-0.0820787 0.08598368 -0.0014562157 0.016079763 -0.06990622 -0.009979764 -0.10749682 -0.1320074
-0.02459629 0.014743902 0.0014263921 -0.0015815013 -0.18603516 0.02604715 -0.015435715 -0.0013089359
0.074918404 -0.19755524 0.051063437 -0.006655737 0.08262799 -0.15752032 0.17015474 -0.015182203
0.09210667 -0.028470151 -0.06399566 0.16566122 -0.1668966 0.12235116 -0.05211309 -0.05328331
-0.027997637 -0.004359179 0.12000597 0.050970756 0.06579706 -0.037102792 0.1597784 -0.016687494
0.079250604 -0.12346756 -0.02288405 -0.0529091 0.008672161 -0.08376316 0.00026294182 -0.028105887
-0.043424018 0.054815475 0.06469558 -0.025812011 -0.09137391 0.2030005 -0.044962026 -0.0072915982
-0.04747558 0.16355146 -0.028438263 0.031807385 -0.020398065 0.050135374 0.04821697 -0.01626325
0.06337969 0.0025248143 -0.013600668 -0.023408419 -0.07570311 0.028666016 0.020704268 0.044381984
-0.041996 -0.0017633328 -0.054710828 -0.029315349 -0.18180713 0.013011785 -0.0790652 -0.016961502
0.026334608 0.03323224 0.05095328 0.07049906 -0.0052710883 -0.1415339 0.10319271 0.023794875
-0.023952782 -0.17033653 -0.043828987 -0.079075165 -0.05093026 0.007019509 -0.07728426 0.09047551
-0.01488834 0.02185405 -0.015698457 -0.006956649 -0.0404446 0.10843475 0.05302414 -0.05405104
0.014314467 0.07621148 -0.12694578 0.004760058 -0.19958475 0.019631643 0.06184236 -0.06523573
0.035018824 -0.004564035 0.07094212 0.079403155 -0.107386604 -0.11995621 0.121468924 0.080377415
-0.055452917 0.036202434 0.13526912 -0.10059532 0.04087911 0.01894136 -0.04270929 0.06702215
-0.07248089 0.048802424 -0.06498223 -0.046170972 -0.058924306 -0.026168017 0.061921887 -0.14579302
-0.033943214 -0.05516503 0.10575581 0.0003098992 0.04805784 -0.0052073835 -0.06293716 0.046987694
-0.0064442744 -0.0006973867 -0.0458056 -0.0528904 0.039849542 -0.06409894 0.048882436 -0.004125504
0.03397068 0.03598879 0.024971122 0.038357187 0.057169795 -0.029688481 -0.028543487 0.023413133

bias f4 [50]
00000000: 3b86 02bd c41a a1bc cd90 c03c 48ef 25bd
00000010: aa40 de3c 69ce dc3c b0dd 77bb 3717 87bc
00000020: adf5 7c3d 8d74 ef3c 1444 57bb 80b2 2a3d
00000030: cf11 96bc 5bb3 263c 2d9c 413c f4a4 13bc
00000040: 7d6e 82bc 800c 9c3b b513 633c a07e 3d3d
00000050: 782d ea3c e1a0 33bd 35f3 c53c b467 2bbd
00000060: d6f9 093c a9d5 343d dc6b 4bbd b435 403d
00000070: 7d61 a2bc 4d58 a83c 032d e33c a3d0 c2bc
00000080: 701e 48bc e98a f7bc ee11 333d a6cc 4ebc
00000090: 46a9 033c 4679 513d 6548 d3ba aa0e 163b
000000a0: 8a28 623c c052 163d f3d0 3cbc 2650 2f3c
000000b0: b55d a3bd 1f6e ca3c 03e0 dbbc fa27 14bc
000000c0: 4e0e 723d e080 9f3c
-0.031866293 -0.019666083 0.023506546 -0.0405114 0.027130444 0.026953893 -0.0037821345 -0.016490562
0.061757732 0.02923038 -0.0032846974 0.041674137 -0.018319039 0.010174598 0.01181702 -0.009011496
-0.015921826 0.0047622323 0.013859679 0.046263337 0.028586134 -0.043854598 0.024163822 -0.041846946
0.008421382 0.044149075 -0.04966341 0.046926215 -0.019821877 0.020549918 0.027731424 -0.023781126
-0.012214288 -0.030217605 0.04371827 -0.012622034 0.008035963 0.051141046 -0.0016119598 0.0022896924
0.013803611 0.03670001 -0.011524427 0.010700261 -0.079768576 0.024710713 -0.026840216 -0.009042734
0.059095673 0.019470632

weight f4 [10, 50]
00000000: 17c4 6c3e e1e4 dcbd 8512 80be bb3c d8bc
00000010: bb58 7c3d d012 8abe 707b 11be a357 c6bd
00000020: 0477 84bd b2db 713e 9489 c53d e4c9 023a
00000030: 2077 0f3e 6457 373d 87b8 90be 1918 973e
00000040: 3ee4 c3bd d838 24be b21b 133e f981 a4bd
00000050: 07d6 89be d8d4 a2bd 5269 18be 1242 12be
00000060: 5657 81be 9c6f 033d fae5 c13e 2762 2fbe
00000070: 910a 5abe 4873 42be ea0e 2e3e e051 90be
00000080: 9303 4dbc f098 b0bc c526 0ebe 5c61 a0be
00000090: 97f4 31be 6a55 383e 2164 b3bd 9080 933d
000000a0: 74ba dbbd a406 46bd a7bc eb3d a8b2 0a3e
000000b0: 10fc 553e 5b6b 77be ef9e 37bd 0587 0bbe
000000c0: 60f3 14b7 0130 ea3d 0124 2bbd e66e 333e
000000d0: ef90 4f3e 2078 cfbd 39a5 e3bd 65c0 6e3d
000000e0: 40e9 7c3e 8812 0c3e 732b a23d 42f9 54be
000000f0: bf9f 073e c247 d6bb 84ba 60be 90b0 663e
00000100: 7323 6b3e bbaa 3b3d 8178 a33e f2f6 82bd
00000110: 5d11 40be 26ce 783e 8bf9 dc3d b0d5 993e
00000120: 9359 e03d ddcc 6f3e 1f27 853e dce3 04be
00000130: 8984 b23e e64c 71be cd75 ddbc 9f26 063e
00000140: 2e97 27be 980d d13d cc07 b6be 1826 203b
00000150: 05d3 b93e fe68 0bbd 31de 5d3e 2bf7 dfbe
00000160: 59ff 5ebe 633c bebb c59f 093d ddf5 183d
00000170: bea2 f83c bb40 26be 48eb b3bd 5175 893e
00000180: bcdf 9b3e 6ed3 8b3c d60d 12be 8681 21be
00000190: fb99 c1bd 6bb0 9e3e 3b9f 283e 4dc8 7dbd
000001a0: 067b 2cbd 278f 973e 8a68 f33d 472f 2d3e
000001b0: 9e8b ac3c caa3 66bd ff91 93be 56f3 143d
000001c0: ce78 1abe e304 7a3c b7f3 c8be b979 5cbe
000001d0: 6d22 903e 7e48 ab3e 4de8 553d 124f b53e
000001e0: 3415 10bd 5a53 16be 51c7 883c da34 b9bd
000001f0: 31f9 7d3e 5505 033c c400 98bd 46dd 853e
00000200: 1350 ef3d 57d9 6c3e b851 9e3e 72c6 c5be
00000210: 7880 dc3c dc1a 26bd 5ec6 2bbe d539 a53e
00000220: 0d59 12be ecc5 f43d 0dfa 29bc ec17 cb3d
00000230: 7cc9 96be ad65 fa3d a248 c3be 05f4 40be
00000240: 9d74 bb3c cbb7 703e b3af 163e 3e89 5abc
00000250: 2726 7f3e 9a56 773e fb1a c0be 355d acbd
00000260: e91f 09be d454 2ebd cffd c3bd 27f5 1bbe
00000270: 04e5 59bd 1439 e5bd 1143 903b d3e9 bb3d
00000280: 629f fdbd 3eac 1cbd 7ad2 86be 1f10 3dbe
00000290: c0b3 03be 0961 abbe c815 8b3e 9348 823e
000002a0: d4ba ba3d d26d eb3e 8fbc 4c3b 80ca e43d
000002b0: 6155 21be d855 4fbe 88ba 853e 3073 103d
000002c0: 4458 41be f3e7 2ebd d1ee c43d 8fef 353e
000002d0: 0daf 8d3e 4c3b 853d a81d d93d 373a 53bd
000002e0: ae80 42be 0f84 a4be 37c9 1bbe f3e2 0d3e
000002f0: 8081 f2bd 095d 4cbc 3b0f 353d 7b0c febc
00000300: dc5e 423e e244 a43e 1d89 92bd 1d5a 803c
00000310: 7dab fc3d a2b4 393e 97cf 7fbe 3670 143e
00000320: 58e9 16be 7dae 27be f795 333e 89ca 043c
00000330: c36b a63d ef92 333e 0abf e7bd 274f 0ebe
00000340: f6f2 df3d a4fc 5c3c 9d79 90bc 6603 013e
00000350: 9302 363e 83e8 9dbd c6c2 3a3e 8b60 f63d
00000360: 06d5 57bb 1600 40bd 4f9c 3ebd 50b0 a4bd
00000370: 7937 3cbe fce2 f4bd f490 f93d db88 363e
00000380: a6df 11be 7d8d 953d 71aa 463e 8739 0d3e
00000390: ae20 e6bd 0e8a f8bc 6338 3fbe a76a 413e
000003a0: 6cb4 0cbe 6eeb 91bd 56ee 5c3e f151 193e
000003b0: 024b 283e 0ca1 9ebe 3daa df3d 1bcf b23d
000003c0: 4e7e 163d 2f34 adbd e301 233e 21a0 b23c
000003d0: 2d35 233c 4b26 31be f2a3 ffbd ae3b 1a3e
000003e0: edf5 6cbc e5fd 0cbe 300a a53e ad8c c5bd
000003f0: 759e 6a3e 03fe 723d 1a67 9a3d 669c 983d
0.23121677 -0.10785843 -0.2501413 -0.026396146 0.061608057 -0.26967478 -0.14207244 -0.09684684
-0.06468013 0.23618963 0.096453816 0.00049891905 0.14010286 0.044761077 -0.28265783 0.29510573
-0.09565018 -0.16037309 0.14366034 -0.08032603 -0.26921102 -0.07950753 -0.14883927 -0.14283016
-0.25261945 0.03208886 0.3787077 -0.17127286 -0.21293093 -0.18989289 0.16997877 -0.28187466
-0.012513059 -0.021557301 -0.13881977 -0.3132428 -0.1737846 0.18001333 -0.087593324 0.07202256
-0.107289225 -0.048346177 0.11510592 0.13544714 0.20896935 -0.24162047 -0.044829305 -0.13625725
-8.878153e-06 0.11434937 -0.041782383 0.17522773 0.20270132 -0.10130334 -0.11115498 0.05828895
0.24698353 0.13678944 0.079184435 -0.2079821 0.13244532 -0.006539316 -0.2194615 0.22528291
0.22962742 0.04581712 0.31927875 -0.06394757 -0.18756624 0.2429739 0.10789784 0.30045843
0.10954585 0.23417993 0.2600641 -0.12977546 0.3486674 -0.2356449 -0.02703371 0.1310067
-0.16366264 0.10207671 -0.35552824 0.0024436768 0.36293808 -0.034035675 0.2166679 -0.43743262
-0.21777095 -0.0058055385 0.033599634 0.03734385 0.030351039 -0.1623563 -0.08785111 0.26847318
0.30444133 0.017068591 -0.1426309 -0.15772066 -0.094531976 0.3099397 0.16466992 -0.0619586
-0.04210951 0.29601404 0.118851736 0.16912566 0.021062668 -0.056308545 -0.28822324 0.036364876
-0.15085146 0.015259954 -0.3924844 -0.21530809 0.28151265 0.33453745 0.052223492 0.35411888
-0.03517647 -0.14680234 0.016696604 -0.09043284 0.2480209 0.007996877 -0.07422021 0.2614538
0.11685195 0.23129784 0.3092172 -0.38627964 0.026916727 -0.04055296 -0.1677489 0.32270685
-0.14291783 0.11951813 -0.010374558 0.09916672 -0.29450595 0.12226424 -0.38141352 -0.18843086
0.022882754 0.23507611 0.14715461 -0.013338385 0.24916898 0.2415413 -0.37520584 -0.08416215
-0.13391079 -0.042561367 -0.095698945 -0.15230237 -0.053196922 -0.111925274 0.004402526 0.09175458
-0.123839155 -0.0382502 -0.26332456 -0.18463181 -0.12861538 -0.3347247 0.27165055 0.25445995
0.09117666 0.45982224 0.003124032 0.11171436 -0.15755226 -0.2024759 0.26118875 0.0352661
-0.18881327 -0.042701673 0.09615863 0.17767166 0.27672616 0.065054506 0.106013596 -0.05156919
-0.189944 -0.32132003 -0.15213476 0.13856106 -0.118411064 -0.012473353 0.044203978 -0.03101181
0.18981498 0.32083803 -0.071550585 0.01566797 0.12337396 0.18135312 -0.24981533 0.1449593
-0.14737451 -0.16375156 0.17537676 0.008104929 0.08126023 0.1753652 -0.11315735 -0.13897382
0.10935013 0.013487969 -0.017636115 0.12598953 0.1777442 -0.07710364 0.18238363 0.12030133
-0.0032933368 -0.046875082 -0.046535786 -0.080414414 -0.18380536 -0.11957356 0.12185851 0.17825644
-0.14245471 0.073023774 0.19400956 0.13791476 -0.11236702 -0.030339267 -0.18673854 0.18888341
-0.137407 -0.07124983 0.21575293 0.14972664 0.16434863 -0.30982244 0.10921142 0.087309085
0.036741547 -0.08457219 0.15918688 0.021804871 0.009961409 -0.17299764 -0.12482442 0.15061828
-0.01446293 -0.13768728 0.32234335 -0.096459724 0.22912009 0.059324276 0.07539196 0.07451706

bias f4 [10]
00000000: b6fb 3fbb efd3 a33d cdd4 e3bb 7183 1a3e
00000010: 80e5 06be 1df1 80bd 5b72 e2bd e672 c23d
00000020: afbd febc 94dd f83d
-0.0029294319 0.079994075 -0.006952858 0.15089203 -0.13173485 -0.06295989 -0.11056968 0.094945714
-0.031096308 0.12151638
