Computational Intelligence/aeh330_5/resultsclassifier_cnn_1.model (torch, 153111 bytes, 6 tensors)

weight f4 [32, 1, 3, 3]
00000000: 4ac9 293d 010f 1b3e dcb1 63be 8730 29be
00000010: 167f 893e 8fa7 7a3e ddeb 86be 6c65 c6bd
00000020: cd6a e23d b612 fdbb f846 303e 6394 d3bd
00000030: 155b adbe 78ff 13bd 46c9 cbbd 1bf0 e2bd
00000040: 9073 8a3e 14fd 6d3d 15ce 2dbd 66bf eb3d
00000050: e8de 47be 4692 a4be 7c8d 3cbd 9e9d e43d
00000060: 9634 123e c513 3c3d 20ed 57be ba76 823e
00000070: 255d 4f3e 25bd 763d 4385 89be a0ef 8b3e
00000080: 998b 6d3e ff75 bcbe 99be 743d ce60 383c
00000090: edf1 b63e 17c9 d93b 36fe 60be db3f 50be
000000a0: b1ee c8be def8 543e 2ccc 1dbe 624f 823c
000000b0: 074a 7cbd c633 813e 1225 8abd 38fa 03be
000000c0: 3468 18be 419f 273d 0ecf d23c 70f0 853d
000000d0: 6bd4 73be 4c65 9abe a845 9d3d 22f1 4f3c
000000e0: 73f0 83bc fe53 653e c4d9 90be 7a8b e13c
000000f0: 8c0d cfbe 0817 d6bb 5189 34bd f870 b4be
00000100: 2d69 b1be f33b 0a3e 994b 853e 7223 383e
00000110: b567 20be 1009 8bbd d349 603e f3a4 99bd
00000120: 2be3 63be a736 2dbe 39eb 6e3d ff9b b03d
00000130: cca9 403e 3828 523e 503f 993e 6503 82bd
00000140: 00f0 aabe c09d 833d c21f 98be 57bd 7dbd
00000150: 9887 583e 5713 923e a03f 62be 315d 683e
00000160: 219e b3be 07bf 26bd 726c 19be d3d5 7abe
00000170: 5168 bf3e 2ed8 03bc f9de 0fbe b025 363e
00000180: a146 20be 0c74 b1bd 5c3a 51be 193d 68bc
00000190: 73d7 713d eaac 583e 00b2 373e cf37 383e
000001a0: 03a5 b8be 3dac abbe 03f1 5ebe 2b4a 30be
000001b0: 805c 0ebe 6bec 023e 4394 abbd 5eca 723e
000001c0: b6d9 45bd 55f9 343e aa64 14be 4694 1dbe
000001d0: f3c7 22be 9294 9e3e 5e1f c6bd 6543 353e
000001e0: 9cc7 4a3e ef9d 90be a57e c5be 061b 58be
000001f0: 75b0 8b3e 7a17 b1bd b8a8 75bd 12de 0cbe
00000200: e309 253e abf9 913e 7ea6 b6bc 70fc a63d
00000210: cd7f a1be d1c9 3bbe a13a 073e 0cae 793e
00000220: 6bad 72be 6d29 b63c 6af7 4ebd d7ec 76be
00000230: 18cd d93d 67e3 e2bd b421 0fbe 14fc 863e
00000240: 30d3 72be 7da3 90bc d234 93bd a17b 8d3e
00000250: 2e2c 033d 0b98 7bbe 6452 9ebc bf3e 5abe
00000260: 77c8 493e aba0 003e 537c 4d3e d4cc fbba
00000270: 5d88 a2bd 451f 1ebe 4852 82be 220d 8a3e
00000280: 7b7d b5be 01cc d23c ed56 803e 0ca9 733c
00000290: 161b 233e f5c1 67be 4b85 fd3d 1a20 343e
000002a0: 4758 76be 9311 a6be d4dd cebe b617 903d
000002b0: 08a6 93be fb7b 33be 52dc 82be 80f0 f5bd
000002c0: 8d20 88be 1b4b 273e 410b a83e d625 083e
000002d0: 5868 99be 4f6a dfbd 990c 53be 84e0 2abd
000002e0: e515 2dbe d994 bcbe d7d3 2d3d c405 ad3e
000002f0: 3789 893e 1d8b 4c3e a960 a3be 29b4 c33d
00000300: eb6f febe f3a5 f2bd 4b35 8b3d 3d95 bc3d
00000310: 3fa5 9e3e aef0 a1be e137 b7bd e6be e53d
00000320: c798 74be 8484 16be 6a23 933e 350d 003e
00000330: c1f5 ff3d 475b 1f3e ae5e 29be 1935 4d3d
00000340: 0c6d 0fbd dc48 91bb ba23 a43d b804 733e
00000350: b558 86be 5a7b a4be 2a0f 22bd 6e1d b2bd
00000360: e665 6bbe d691 21be 2110 523d f821 ab3e
00000370: 2821 0e3e 6eb0 76be 4876 91be 8c01 123e
00000380: b126 e5bd fd2f 743c 476b 17be a1d8 973e
00000390: 7fe7 6cbe 9f7c 1fbc c33d 353d 9fe3 183d
000003a0: ac72 16bd e677 d5bd b028 abbc db0b 363d
000003b0: e499 a0be 3aa6 c03c 32f9 923e d7e4 93be
000003c0: bb37 ebbd 12a8 e43c 3741 0e3e a9ed 04be
000003d0: ff68 5abe 9344 86be 170f ac3e 4dcb 87bc
000003e0: 30ae 0e3e 994e 89be 7d4d bebe eb56 33be
000003f0: 3df3 00be 19fe 6cbe 09e2 673d 574d 143e
0.04145173 0.15142442 -0.22235817 -0.16522418 0.2685477 0.24477981 -0.26351824 -0.096873134
0.11055527 -0.007723178 0.17214572 -0.10331037 -0.33858553 -0.036132306 -0.09950499 -0.11080953
0.27041292 0.058102682 -0.042432863 0.11511116 -0.19518626 -0.32142848 -0.046033368 0.111628756
0.14277872 0.04591729 -0.2108655 0.25481206 0.20250376 0.060238976 -0.26859483 0.27331257
0.23197784 -0.36808774 0.05975208 0.011253549 0.3573145 0.006646286 -0.21971974 -0.20336859
-0.39244607 0.2079806 -0.15409917 0.015906993 -0.061594035 0.25234812 -0.06745352 -0.1288842
-0.148835 0.04092336 0.025733497 0.065400004 -0.238115 -0.30155408 0.076793015 0.012691768
-0.016105866 0.22395322 -0.28291142 0.027532328 -0.40440023 -0.0065335073 -0.044076268 -0.35242438
-0.34650555 0.13499431 0.2603424 0.17982271 -0.15664561 -0.06788838 0.21903162 -0.07502165
-0.22254626 -0.1691538 0.058329795 0.08623504 0.18814772 0.20523155 0.29931116 -0.06348304
-0.3338623 0.06426573 -0.2971173 -0.061948147 0.21145475 0.2853038 -0.22094584 0.226918
-0.3508158 -0.04070952 -0.14982775 -0.2449563 0.37384275 -0.008047147 -0.14049901 0.17787814
-0.15651943 -0.08664712 -0.20432419 -0.014174723 0.05904336 0.21159711 0.17938995 0.1799004
-0.36063394 -0.33529845 -0.21771626 -0.17215793 -0.13902473 0.12785499 -0.08377888 0.2371001
-0.04830333 0.17673238 -0.14491525 -0.15388593 -0.15896587 0.30972725 -0.096739516 0.1770149
0.19802707 -0.28245494 -0.38573185 -0.21104059 0.27283064 -0.08647056 -0.059975356 -0.13756588
0.16117053 0.28510794 -0.022296187 0.081536174 -0.31542817 -0.18338706 0.13205959 0.243828
-0.23698966 0.02223655 -0.05052892 -0.24113785 0.10634822 -0.1107853 -0.139777 0.26364195
-0.23713374 -0.017656082 -0.07187809 0.27633384 0.032024555 -0.24569719 -0.019326396 -0.21312998
0.19705378 0.1256129 0.20066957 -0.0019210824 -0.079361655 -0.15441616 -0.254534 0.26963145
-0.35447297 0.025732042 0.2506632 0.014871847 0.15928301 -0.22632582 0.12378939 0.17590371
-0.24057113 -0.32435283 -0.40403616 0.070357725 -0.2883761 -0.17527764 -0.25558716 -0.12008762
-0.26587334 0.16337244 0.32821086 0.13295683 -0.2996242 -0.10908949 -0.20610274 -0.04171802
-0.16902883 -0.36832312 0.042438354 0.3379346 0.268625 0.19974943 -0.31909683 0.09555847
-0.49694762 -0.118480586 0.06797274 0.092081524 0.30985448 -0.31628937 -0.08946205 0.112180516
-0.23886405 -0.14698988 0.28737956 0.12505038 0.12498046 0.15562163 -0.16540024 0.050099466
-0.035016105 -0.0044337343 0.08014627 0.23732269 -0.26239553 -0.3212536 -0.039565243 -0.086970195
-0.2298809 -0.15778288 0.051284913 0.33424354 0.13879836 -0.2409074 -0.28410554 0.14258403
-0.111890204 0.014904019 -0.14787017 0.29657462 -0.23135184 -0.009734302 0.044248354 0.03732645
-0.036730453 -0.104232594 -0.020893425 0.0444449 -0.3136741 0.023516763 0.28705746 -0.28885528
-0.11485239 0.027912173 0.13892065 -0.12981285 -0.21329115 -0.26224193 0.33605263 -0.016576434
0.13933635 -0.26817778 -0.37168494 -0.17513625 -0.12592788 -0.23143806 0.05661205 0.14482628

bias f4 [32]
00000000: e663 8fbe 4245 213e 4350 cfbd babf 37be
00000010: 670c 253d b965 48bd 9a3b 293e 8f56 fcbe
00000020: 3d79 c5be b011 0c3e b757 22be 226c bfbe
00000030: ee9e 43be 40fc 70be 73bd 2ebd 8ad4 91be
00000040: 5018 b3be df3c e33d 0a8b d1be e0bc d0be
00000050: d590 32be 5f57 463b b9ff 653d 441d 51bd
00000060: cfe2 94bd 3197 863e f8ee 323d 63a8 fb3b
00000070: 03cd 403d 9df4 84be bbad d03d e2ec e9be
-0.28005904 0.15749076 -0.101227306 -0.17944232 0.04029503 -0.048925135 0.16526642 -0.4928479
-0.3856906 0.13678622 -0.15853773 -0.37387186 -0.19103596 -0.23533726 -0.04266114 -0.28482467
-0.34979486 0.110955946 -0.4092639 -0.407691 -0.17438062 0.003026448 0.05615208 -0.0510533
-0.07269823 0.26287225 0.04368493 0.0076799854 0.047070514 -0.25967875 0.101893865 -0.4568854

weight f4 [70, 512]
00000000: 880c 9cbc cf2c 8b3c 1462 08be 19b7 26bd
00000010: f11e a739 fee0 e73c 8382 84bb f8f8 1a3d
00000020: 0929 0fbc 91db cd3c 322d 01bd 6522 1b3b
00000030: 667e d8bc 14f8 f8bc 63e2 803b 18c9 bd3c
00000040: 659c a13b 4ded 0b3d 1a7b cd3d c5be 953d
00000050: 562f d1bb f5e7 513d 9512 a2bd d414 d33d
00000060: 80ea e5bc 8b8d ac3c 8612 9abd 3595 0fbd
00000070: 8a68 dfbd b068 f13a 7966 173d c052 8ebc
00000080: 374c 093d 4e7c 0d3c 5700 073d e684 a23d
00000090: d3a1 28bc 346d e13c bd79 68bc b647 113d
000000a0: e749 73bb f43d ae3c f769 54bd 946e a73d
000000b0: e93c 8abd 5560 403c dfb3 543b fc90 b0bc
000000c0: 8c3e a93c 51ed 25bd 3e5d 1abd e715 27be
000000d0: 50f2 a73c 3839 55bc f219 1c3c 64be 5abd
000000e0: 2f5f 293c 7746 523c 9c8f 11bc 5e7f 91bd
000000f0: 7bf6 1639 5d77 963c ee2e 82b9 fa3f f3bb
00000100: 5b31 92bc 0d84 3b3d 8819 0c3e 71fc d5bd
00000110: d51a 8cbc 95da 163b 77a8 b83c 2ddc 5c3d
00000120: 0aa5 b03c 03da 72bd baf2 2b3d e77e 77bd
00000130: 46c7 ffbd 403f 5c3d f92a 08be a4ab dd3c
00000140: 604d 4a3d 31fc 023d 600b 053e 4e21 a8bd
00000150: c294 d33c 14fb d7bd 39a1 543d 1b67 963c
00000160: 0e73 70bd 6459 47bd 9f95 523d cdb6 64bb
00000170: 58eb 64bd cd7d 063d 55e8 6d3c 61b3 df3c
00000180: 08bb 0a3b b2a0 b63d f4b2 1cbd 613e 1b3c
00000190: 2211 90bc 5d4f 9cbd 62dd d2bc e3b3 d13c
000001a0: c2ca ab3c 10f7 1fbd 5338 43bd d750 f53b
000001b0: edbe 76bd 3e37 933d 651c 0d3b 512d 1b3d
000001c0: 3053 f5bd 58f8 acb8 affe d5bc 8335 fcbc
000001d0: 2880 fcbc de93 7bbc e4f1 a5bc df34 87bd
000001e0: e4ed f4bc b5bd 453d a1df 11bc 5dfe 05bc
000001f0: eaf0 833c 4d26 73bd 8b3a b4bc b092 923d
00000200: 15fb d9bd 3ccd dfbb 43aa 1b3d fd19 8fbd
00000210: df70 0dbd c0b0 5dbd 495b 813c 2123 dfbc
00000220: 8410 8e3b 4554 053d 54a4 0cbc 655a debc
00000230: d6aa 43bd e535 81bc b958 16bc c606 443d
00000240: 27ad e03d 4853 2a3c 8b34 313d 1544 89bc
00000250: b151 b33d 9146 bbbd 604d 353d c87b 293b
00000260: f0d6 1c3b 3135 f83c b73f ea3d ec6b 323d
00000270: f801 6cbc fee9 cfbd 20cf e43c 6aaf fcba
00000280: 89fc 8fbd b19e b13c 1012 f5bc 5027 d53d
00000290: e0d6 11bd 5883 443d f29d 58bd 9766 153d
000002a0: 2425 e6bc 162a 0ebd 7868 e4bd 79a0 923c
000002b0: c992 b4bc cc89 04bd 6ae1 8abb 28c5 8c3c
000002c0: acda d43d afb0 a0bd d7b6 e4bc 3bed a3bd
000002d0: d40e 0abd 5c04 43bc a3a3 dbbb ca48 b3bc
000002e0: 9ebd 97bc 0ce5 12bd 9bf1 0c3d 089f e3bc
000002f0: b706 9f3d 757c 91bc 32b3 a4bc a74d 8b3c
00000300: d6ef e3bd fbe5 81bd 50b1 443d 3893 aabd
00000310: bce6 86bc 7826 153c 50a0 eabc 413f 29bd
00000320: 1aae 14bd 32f2 b2ba f3db 853d 37e4 ecbc
00000330: f161 6fbd aab6 cb3b 2429 f03c 9136 f73c
00000340: d5c5 bd3d e093 0e3d 45a0 603d 59a0 7ebd
00000350: 21bb bdbb 6cad 88bc 9288 553c 6140 83bd
00000360: 9615 60bd f0fc c6bd 1883 833d e6e4 d83c
00000370: 29be 3f3d ab17 7c3d 0e9d 4e3d a0f2 fd3c
00000380: 49e7 1fbd 2e58 cdbc c212 23bc bb95 93bd
00000390: b248 21bc df4c 8b3b 9b9e 8a3d e5e7 fbbb
000003a0: aca8 c6bc deb1 d73c ea36 79bd d926 f43b
000003b0: abf6 343a 9838 0dbd 8f2c b7bc 442d a73a
000003c0: d169 4f3b fc79 423d 4aaf 2d3c 9be5 22be
000003d0: 17a7 cb3c 001f 823d a311 1c3d f8b1 96bd
000003e0: 3664 133d 73df 78bc 6d60 033a d016 bbbd
000003f0: 705d 243c 7daf 37bc 2844 2f3c be93 013d
-0.019048944 0.01698914 -0.13318664 -0.04070196 0.00031875775 0.028305527 -0.0040438785 0.03783509
-0.008737811 0.025129111 -0.031537242 0.0023671624 -0.026427459 -0.03039173 0.0039332374 0.023167178
0.0049319738 0.034161855 0.100332454 0.07311777 -0.0063838167 0.051246602 -0.079137005 0.10306707
-0.02806592 0.021063587 -0.07523064 -0.035054404 -0.10908611 0.001841804 0.03696296 -0.017373443
0.03351995 0.008635594 0.03295931 0.079355046 -0.010292488 0.027517892 -0.014189181 0.03546878
-0.0037122907 0.021269776 -0.05185887 0.08175388 -0.06749899 0.011741717 0.0032455844 -0.021553509
0.020659707 -0.040509526 -0.03768658 -0.16316949 0.020501286 -0.01301413 0.00952767 -0.053404227
0.010337635 0.012834183 -0.008884337 -0.071043715 0.00014396936 0.018367464 -0.00024830498 -0.007423398
-0.0178458 0.04578023 0.13681614 -0.1044854 -0.017102638 0.0023018469 0.022541268 0.053920913
0.021563072 -0.059289943 0.04197953 -0.060423758 -0.1248918 0.053771257 -0.13297643 0.027059384
0.049390197 0.03197879 0.1299262 -0.08209477 0.02582777 -0.10545936 0.051911566 0.018359711
-0.058703475 -0.048669234 0.05141222 -0.0034898997 -0.055888504 0.032834817 0.014520724 0.027307214
0.0021168608 0.08917369 -0.0382566 0.0094753215 -0.017586295 -0.07632325 -0.02574033 0.025598472
0.020970706 -0.039053977 -0.047661137 0.0074864435 -0.060240675 0.07188271 0.0021531817 0.037885014
-0.119787574 -8.247857e-05 -0.02612242 -0.030787235 -0.030822828 -0.0153550785 -0.020256944 -0.06601881
-0.029898591 0.04827662 -0.008903415 -0.008178321 0.016106088 -0.0593627 -0.022000572 0.07156885
-0.10643593 -0.0068298858 0.03800417 -0.06987379 -0.03453147 -0.05412364 0.015790598 -0.02723843
0.004335465 0.03255107 -0.008584101 -0.027142713 -0.047770344 -0.01577277 -0.009176427 0.047858022
0.10970526 0.010395832 0.043263 -0.016756097 0.08755816 -0.09144319 0.044263244 0.0025861133
0.0023931824 0.030298801 0.11437934 0.043559954 -0.014404766 -0.10152052 0.027930796 -0.0019278352
-0.07030589 0.021682115 -0.02991584 0.10407889 -0.03560531 0.04797682 -0.052885003 0.03647479
-0.028093882 -0.034708105 -0.11152738 0.017898785 -0.022042649 -0.032357976 -0.004238297 0.017183855
0.10393271 -0.078462 -0.027919216 -0.080042325 -0.033705547 -0.011902895 -0.0067028566 -0.021885294
-0.018523034 -0.035862967 0.0344101 -0.027785793 0.07764953 -0.017759541 -0.020104978 0.017004801
-0.111297294 -0.063426934 0.04802066 -0.08328861 -0.016467445 0.00910341 -0.028640896 -0.04132009
-0.03629885 -0.0013652502 0.065360926 -0.028917415 -0.058443014 0.0062168436 0.029316492 0.030177386
0.09266249 0.034808993 0.054840345 -0.06216464 -0.00579013 -0.016684256 0.013033049 -0.06408764
-0.054708086 -0.09716213 0.064214885 0.026476335 0.04681221 0.06154601 0.050442748 0.030999482
-0.03903893 -0.025066461 -0.009953203 -0.07206293 -0.009843992 0.004251107 0.06768533 -0.007687556
-0.02425035 0.02632993 -0.060843386 0.00745092 0.00069032115 -0.0344778 -0.022360114 0.0012754579
0.0031648765 0.047479615 0.010600874 -0.159079 0.024859948 0.06353569 0.038102757 -0.073581636
0.03598424 -0.015189993 0.0005011622 -0.091352105 0.010032043 -0.011211273 0.010697402 0.03163504

bias f4 [70]
00000000: b5c5 07bd 5f36 213c 17f0 803d 04ce 22bd
00000010: 67bc f63c 6edd 19bd ef84 fcbc 9c58 30bc
00000020: ded8 8fbc dcde 723d cda7 233d d87d c8bb
00000030: cb98 40ba cd4c a83b 2fa1 253d 69a5 293d
00000040: db1a 42bc df8e 7f3c c4b4 f63c 449d e13c
00000050: eeef bebc 0582 153d 713b 4fbd 4c23 29bd
00000060: a0bc 4fbd c20b cc3c 0b4a 383d e2e8 843d
00000070: b385 dbbb e23e 48bd 3376 483d 811c aabc
00000080: 87cb 6b3c ce72 423d 619b 9e3c df35 143c
00000090: ce5f 283d f850 b23c 4ff5 cc3c d6fb 14bd
000000a0: d655 49bd dcab 163c b18b 90bc 181c 963c
000000b0: d7c0 5d3d e384 06bd 0a75 7c3c b697 20bc
000000c0: d4b9 d43c 98c0 8bbd 9010 e03b b487 40bc
000000d0: 1829 19bd 7664 0fbc 5ac6 37bd 42a7 d33c
000000e0: 81a2 113d 786f 5b3d 9855 0fbd 934a d2bc
000000f0: 8b0a 9dbc b818 b63b a480 633d ce88 a3bc
00000100: 112c 84bc 143d c03a 91ac ae3c aa46 443b
00000110: a24b c9ba 7a35 2ebd
-0.033147532 0.009839623 0.062957935 -0.039747253 0.030119134 -0.037564687 -0.030825106 -0.010763314
-0.017559465 0.059294567 0.03995495 -0.0061185174 -0.00073469867 0.0051361085 0.04043692 0.041417513
-0.011847223 0.015598028 0.030115493 0.02754081 -0.023307767 0.03650095 -0.050593797 -0.041293427
-0.050716996 0.02490795 0.044992488 0.06489731 -0.006699288 -0.048888095 0.04894085 -0.020765545
0.014391786 0.047472768 0.0193612 0.009046047 0.04110699 0.021767125 0.025019316 -0.036372982
-0.049154125 0.009196248 -0.017644735 0.018323943 0.054138985 -0.032841574 0.015408764 -0.009801796
0.025967516 -0.06823844 0.006837912 -0.011751104 -0.037392706 -0.008751979 -0.044866897 0.02583659
0.035555366 0.0535731 -0.034993738 -0.025670325 -0.019170066 0.005557146 0.055542603 -0.019962694
-0.016134294 0.001466664 0.02132252 0.0029949346 -0.0015357623 -0.042531468

weight f4 [10, 70]
00000000: d803 29be 115b 063e a464 453e 7d06 683e
00000010: 38d5 913d ff03 83bc 50e2 093e f294 98bd
00000020: 1ff2 3abe 1a33 db3d 0584 703c 802b 7b3e
00000030: 9420 60bd d0c7 103d 3a55 ea3d fefa 0abe
00000040: 1bca 8dbe 5994 343e eb47 423e def2 4fbd
00000050: d60c e53d 9efc 10bd 4294 9e3d 8c47 c5bc
00000060: 5042 2a3d d3c3 c9bd db79 b2bd 0d83 443d
00000070: b288 fbbd f7fd 50bd ccaf 433e a839 c03d
00000080: 838c 72be 0526 72be f86c 97bd e203 733d
00000090: 6624 ea3d 14f1 113d 6f75 5f3e 9b70 61be
000000a0: 6c95 06bc e330 733e 7c08 b5bd 3ac3 85bd
000000b0: 5953 ad3d 47ae 83bd 98ac 203e 7c3e 5c3e
000000c0: f1dd 02be 9404 6ebd 8495 773e 0def 413e
000000d0: 6c46 72be 537f 48bd 24c6 ba3d 3f20 bc3c
000000e0: 1947 c6bd 5ad4 cb3d 1db9 d8bd 77ea 33be
000000f0: a3bb d03d 6412 523d c830 b1bd 681b debd
00000100: 9abb ffbc fdaa ebbd 58be 0ebe 3bc8 56be
00000110: 938a 0fbe 7a71 4bbe 3b88 313d 8157 10be
00000120: 54b0 063e 827a 6fbe c9a0 e4bd 3f62 96bd
00000130: 74e7 4d3c 0ba2 cfbd c4ac 4c3d da78 943d
00000140: 0ae8 69bb 1475 53be eb0f f2bc 22cc 0f3e
00000150: a325 05be 5b7f ee3d a93b 683e 4cd0 933e
00000160: 27ff 873e 30a5 153e d633 4bbd cd71 2b3a
00000170: 7bdf 1fbe 9646 0c3e 9941 603d af26 cd3d
00000180: 87d9 703e 373d b83d 4257 5bbd d18b 813d
00000190: 615e a93d 8db7 93bd 7af2 80be 3119 4ebd
000001a0: a7ef 12be 13f5 3cbc 9b3f 14be c67a f43d
000001b0: 9834 7abc 8c98 8e3d 354e 59bd c135 59bd
000001c0: 8412 85bc 1337 dbbb d9b4 ca3d c18c ecbd
000001d0: 2f1f 243e db4b 223b 0077 73be 9517 dcbd
000001e0: 47a9 8abd 0446 763d 31d1 163e 5184 d2bd
000001f0: a65f bfbc 482d e63d b83d 59bd b5df 043d
00000200: e973 dabd 9cd6 b2bd a3ad a43d e041 dd3d
00000210: d07f d73d 0695 89bd b79f eebc cf02 cd3d
00000220: 6609 053e c3ab 163e 52d8 9abd 4138 8abd
00000230: 31ba b73d 9b7f 393d 1ca9 3dbd 9dea a33e
00000240: 20d5 953d f159 cf3d ac8d 22be c1e4 78be
00000250: d5b8 443e f603 e33c e44d 2ebe 73e5 03bd
00000260: 11ff d73d b15e ac3d fd2c 1a3e 8cb7 2a3d
00000270: 181a 283e 89b4 cdbc 5ed1 4a3e 58b7 7d3e
00000280: d14b 09be ed9b 873d 6bc8 0ebe 645b 733e
00000290: 1a87 943b 022c cdbd fbb4 583d e08a af3d
000002a0: 1de7 243e 652c cabd 5438 3fbe 0ee3 c7bd
000002b0: 5107 663e e86d 1a3e 7d9b 2bbb 9d04 80bd
000002c0: a0fc b63d 88e3 e2bd 3e18 dcbc 4aab 723d
000002d0: 1ebd 293e 00ed 2f3e 9f5f ce3c 397f 9ebd
000002e0: ea30 b03c 0d4c 74bd 7ec6 f13d 70bb 623e
000002f0: 25a4 273e 264a a33d be23 09bd 76ad 53be
00000300: 6075 b5be 5c51 51be 9892 4e3e 2642 ae3d
00000310: 5833 d93d e6a3 863c 4e92 d6bd c7e1 eb3d
00000320: a748 36bd 73a3 4b3e 3a6a 8d3c a66a 8e3d
00000330: 7ac3 6e3e 07e4 02be 9f4d 293e 9dcc 1e3d
00000340: 3bf1 2cbe 8d60 1c3e 3ea3 ebbd 2616 56be
00000350: 7f25 57bd 4b1b 6a3e d508 1bbd d8c4 7bbd
00000360: 75be 543e 7813 343e cbe3 18be 0438 7bbc
00000370: 31f6 393e 9400 bcbd 3a17 d13d 2a22 69bd
00000380: ba8b 17bd f379 46bd e8da ec3d fd06 47be
00000390: b84a 6fbd eab8 09be b9e5 ab3d d3e8 5f3d
000003a0: 3450 b93d 2ec4 c7bd 7229 0d3d 1e18 8abd
000003b0: 1c72 8dbc f3e8 f9bc 2243 713c 260c 69bc
000003c0: 884f b6bd 2d4d 943d e600 0b3e 7249 0a3e
000003d0: 6412 9dbe c699 e03c 23c6 653e 456c 6c3b
000003e0: ccf4 f8bd 388c 4b3e 9561 d13d 5706 4bbe
000003f0: b8ae c2bd 3405 35bd 8226 a33d fa41 6bbd
-0.16505373 0.13120677 0.19276673 0.22658725 0.071207464 -0.015993116 0.13465238 -0.07450284
-0.18256424 0.10703106 0.014679913 0.24528313 -0.05471857 0.035346806 0.11442037 -0.13572308
-0.27693257 0.17634715 0.18972747 -0.050768726 0.11184089 -0.035397165 0.07743122 -0.024081968
0.041567147 -0.09851804 -0.08714648 0.047976542 -0.12281932 -0.05102345 0.1911003 0.09385997
-0.23686413 -0.23647316 -0.07393831 0.059329875 0.11432724 0.0356303 0.21822141 -0.22015612
-0.008214336 0.23749118 -0.08839509 -0.06531377 0.08463163 -0.06429725 0.1569084 0.21508211
-0.12779976 -0.058109835 0.2417813 0.18938847 -0.23659676 -0.04894955 0.091198236 0.022964595
-0.096815296 0.09952612 -0.105821826 -0.1756991 0.10192039 0.05128707 -0.086518824 -0.10845071
-0.031217385 -0.11507223 -0.13939798 -0.2097482 -0.14017706 -0.19867507 0.04334281 -0.1409588
0.13153201 -0.23386577 -0.1116348 -0.07342958 0.01256739 -0.10138329 0.04996945 0.07249613
-0.0035691285 -0.2065013 -0.029548606 0.14042714 -0.13002639 0.11645385 0.22679009 0.28869855
0.26561853 0.14613795 -0.04960998 0.000654009 -0.15612595 0.13698801 0.05475006 0.10017144
0.2352048 0.08996051 -0.053550012 0.06325496 0.082699545 -0.07212744 -0.25184995 -0.050316993
-0.14349233 -0.01153304 -0.14477389 0.1193748 -0.015271328 0.0696269 -0.0530531 -0.05302978
-0.01624418 -0.006689915 0.09897775 -0.11550284 0.1602752 0.0024764452 -0.23775864 -0.107466854
-0.06770568 0.060125366 0.14728238 -0.102791436 -0.023361038 0.112391055 -0.053037375 0.032439906
-0.10666639 -0.0873234 0.08040931 0.1080358 0.10522425 -0.06717877 -0.029128892 0.10010301
0.12991866 0.1471396 -0.07560791 -0.06749011 0.0897106 0.04528771 -0.046303853 0.32014933
0.07316041 0.10124577 -0.15874356 -0.24306013 0.19211133 0.02771185 -0.170219 -0.03220124
0.10546697 0.084164985 0.15056224 0.04167895 0.16416204 -0.0251105 0.1980643 0.24776971
-0.13407828 0.06621537 -0.13943641 0.23765332 0.004532707 -0.100181594 0.05290697 0.0857141
0.16103788 -0.09871749 -0.18673831 -0.09760104 0.22463728 0.15080988 -0.0026185208 -0.0625088
0.08934903 -0.110785544 -0.026867028 0.059245385 0.16576049 0.17180252 0.02519208 -0.077391095
0.021507699 -0.05964284 0.118054375 0.22141814 0.1637121 0.07973127 -0.033481352 -0.20671639
-0.35441113 -0.20441192 0.20173109 0.085087106 0.10605496 0.016435575 -0.10477124 0.11517673
-0.04450288 0.1988657 0.017262567 0.06953935 0.23316756 -0.12782298 0.16533516 0.038769353
-0.16888897 0.15271206 -0.11505745 -0.20906886 -0.052525993 0.22861974 -0.03785022 -0.06146702
0.20775779 0.17585552 -0.14930646 -0.015333179 0.18160321 -0.09179798 0.10209508 -0.056917347
-0.036998488 -0.048456144 0.115651906 -0.1943626 -0.058420867 -0.13449445 0.083934255 0.054665398
0.09048501 -0.09754215 0.034463353 -0.06742881 -0.017266326 -0.030506587 0.014725478 -0.014224088
-0.08901888 0.072412826 0.13574561 0.1350458 -0.30678093 0.027417075 0.22438864 0.0036075276
-0.12156066 0.19877708 0.102236904 -0.19826637 -0.09505981 -0.044194415 0.07966329 -0.057435967

bias f4 [10]
00000000: f890 e23d 8246 b8bd 4ab9 06bd 53ff 8fbd
00000010: b516 f6bd b16e 9bbd 6e18 01be 719a 0e3d
00000020: c2ba b93c d04d bb3d
0.11062807 -0.08997823 -0.03289155 -0.07031121 -0.1201605 -0.07589472 -0.12606975 0.034815256
0.02267206 0.09145701
