Computational Intelligence/aeh330_5/resultsclassifier_cnn_13.model (torch, 111327 bytes, 6 tensors)

weight f4 [32, 1, 3, 3]
-0.14873275 -0.27151573 -0.085318685 -0.25127333 0.09106168 0.13199343 -0.31069937 0.30420557
-0.11979626 0.34809697 -0.07096395 0.069805875 -0.16123033 -0.25465786 -0.23011741 0.05037174
-0.3196027 0.1496437 -0.1294218 0.19568704 0.04135446 0.23761943 -0.33913955 -0.28581995
-0.08939388 0.09455734 0.12755078 0.013160904 0.18424466 0.12820552 0.121929534 0.0058035357
0.081810154 -0.24341096 0.07444462 -0.09347384 -0.3982431 -0.123598136 0.25578812 -0.1463652
-0.123582594 -0.10362453 0.2751279 -0.1122055 -0.19630617 0.15826367 -0.16543397 0.06657864
-0.29943675 -0.26879328 0.053480558 -0.025582194 0.33019367 -0.0393554 -0.0008240069 -0.20849246
-0.21637179 -0.13485064 0.3113942 0.18269956 0.27592492 0.17735475 -0.16525942 0.24540205
-0.055627156 0.22985193 0.14291951 -0.25192842 -0.24237627 0.019627677 -0.26758373 -0.24198315
-0.29212093 -0.24250518 -0.123248145 0.27003133 0.3651856 -0.19558574 -0.2147765 0.006126748
-0.12766577 -0.1842568 -0.16249931 -0.3928136 0.00482311 -0.12525053 0.17397507 0.1657718
0.002617152 0.17402114 0.028645566 0.085112214 0.006752278 0.01935451 0.14658655 -0.0040495894
0.27789253 -0.10816991 -0.1148131 0.23200968 -0.27195966 0.13217965 -0.027895182 -0.2584422
-0.15082927 -0.39914617 -0.16382954 0.23720226 -0.12688154 0.25722775 0.37254944 -0.21642222
-0.07626916 0.14727397 0.21283346 0.33679456 0.0178057 0.26808235 -0.089693815 -0.009827061
-0.29451466 -0.049480826 0.27701393 -0.33939222 0.10820979 -0.37226367 -0.34757495 0.25283283
0.2510899 0.32683834 -0.108981885 0.032770384 -0.007377607 -0.3272484 -0.33629832 0.25270823
-0.29448047 0.057292283 -0.06380528 -0.25116232 -0.2532022 0.2353398 0.22465 0.2103956
-0.25044137 0.14948484 0.19205064 -0.22259739 -0.05937492 0.14264664 -0.43418843 -0.10347464
0.14295071 -0.36838353 -0.26247513 -0.018559046 0.2388292 0.25098494 0.28860822 0.2631792
-0.0054757427 -0.102550454 0.16061337 0.0063067544 -0.23216373 -0.28491512 0.24617147 -0.22075613
-0.18624522 0.19371714 -0.057274822 -0.16935125 0.09306674 -0.22840497 0.16910079 0.075942695
0.06916882 0.0375942 -0.34973145 0.1422249 0.13977638 -0.2484132 0.32321224 -0.29724905
0.046911106 0.1541382 0.22593608 0.10692126 0.09601939 0.10949925 -0.18908694 0.28770804
-0.4133667 -0.14965367 0.12055809 0.15659072 0.14166516 -0.17146814 0.19934855 0.3532612
-0.13872169 -0.16282082 0.21322349 -0.071058564 -0.47064266 -0.15928528 0.24656528 -0.22947602
0.3406425 0.13171981 0.21944074 -0.23591872 0.026718395 -0.15229471 -0.18019794 -0.16351779
-0.0044881837 0.0682428 -0.20131712 0.23460083 -0.15635243 0.10712962 -0.06276604 0.2919679
0.17320372 -0.12979482 -0.18799236 0.043776773 -0.18821488 0.027957467 0.30105817 0.044453915
-0.02906472 0.41470367 0.28403434 -0.37040836 0.16179904 -0.21095636 0.011528917 -0.02316998
-0.0220759 -0.25817305 0.043345984 -0.090352915 -0.2750894 -0.2379256 -0.009457344 -0.2295263
0.21394162 -0.296367 -0.062761195 0.31757382 -0.07991978 -0.37767985 0.00081710983 0.05923529
00000000: 664d 18be 1c04 8bbe 90bb aebd e6a6 80be
00000010: 8c7e ba3d 4929 073e fd13 9fbe d5c0 9b3e
00000020: be57 f5bd c439 b23e 8c55 91bd 62f6 8e3d
00000030: 9019 25be 8462 82be e6a3 6bbe 9952 4e3d
00000040: f7a2 a3be 333c 193e 2687 04be 2f62 483e
00000050: 4b63 293d 8252 733e b3a3 adbe fe56 92be
00000060: 2314 b7bd 47a7 c13d ac9c 023e d5a0 573c
00000070: a2aa 3c3e 4f48 033e 31b6 f93d 962b be3b
00000080: 158c a73d b940 79be 6c76 983d 366f bfbd
00000090: 85e6 cbbe 0521 fdbd a9f6 823e c2e0 15be
000000a0: df18 fdbd 1939 d4bd 90dd 8c3e ffcb e5bd
000000b0: 7c04 49be df0f 223e 8667 29be 625a 883d
000000c0: c64f 99be 469f 89be 6e0e 5b3d c091 d1bc
000000d0: 250f a93e 2133 21bd 2b02 58ba 0c7f 55be
000000e0: 9190 5dbe 4916 0abe 106f 9f3e 9815 3b3e
000000f0: 0846 8d3e 7c9c 353e c439 29be ad4a 7b3e
00000100: 4dd9 63bd 4e5e 6b3e 7e59 123e c3fc 80be
00000110: 7c31 78be 39ca a03c bc00 89be 6eca 77be
00000120: e090 95be 4753 78be 8669 fcbd 8c41 8a3e
00000130: 9bf9 ba3e a147 48be 5fee 5bbe e3c2 c83b
00000140: d1ba 02be d1ad 3cbe 3866 26be dd1e c9be
00000150: 2e0b 9e3b ad41 00be 8526 323e 15c0 293e
00000160: 8684 2b3b 9932 323e 1baa ea3c 504f ae3d
00000170: 3742 dd3b 598d 9e3c c91a 163e 6bb2 84bb
00000180: ee47 8e3e 3088 ddbd 2123 ebbd f293 6d3e
00000190: 4c3e 8bbe 1a5a 073e 7084 e4bc 8952 84be
000001a0: fd72 1abe e35c ccbe eec2 27be 26e5 723e
000001b0: 3ced 01be 5bb3 833e cdbe be3e c99d 5dbe
000001c0: 0133 9cbd fdce 163e 04f1 593e 5670 ac3e
000001d0: 42dd 913c 1742 893e 64b1 b7bd ae01 21bc
000001e0: a0ca 96be 68ac 4abd c5d4 8d3e d1c4 adbe
000001f0: 189d dd3d 5899 bebe 58f5 b1be 4e73 813e
00000200: db8e 803e 5b57 a73e e531 dfbd 3d3a 063d
00000210: dabf f1bb 1a8d a7be 4b2f acbe f962 813e
00000220: 25c6 96be 50ab 6a3d 58ac 82bd 5998 80be
00000230: b8a3 81be ebfc 703e a60a 663e f271 573e
00000240: da39 80be 8e12 193e eca8 443e 92f0 63be
00000250: 1e33 73bd f611 123e f24d debe 83ea d3bd
00000260: ac61 123e c49c bcbe 2463 86be 2409 98bc
00000270: a48f 743e 1981 803e 75c4 933e 6dbf 863e
00000280: dc6d b3bb f905 d2bd d577 243e e4a8 ce3b
00000290: 54bc 6dbe 65e0 91be 6014 7c3e e50d 62be
000002a0: 11b7 3ebe c95d 463e 0199 6abd 6a6a 2dbe
000002b0: c699 be3d fee2 69be c228 2d3e d887 9b3d
000002c0: 62a8 8d3d 60fc 193d 0010 b3be 67a3 113e
000002d0: 8a21 0f3e 0860 7ebe 137c a53e 0731 98be
000002e0: dc25 403d 68d6 1d3e ca5b 673e 89f9 da3d
000002f0: d0a5 c43d 2541 e03d 02a0 41be 784e 933e
00000300: cda4 d3be d03e 19be 29e7 f63d 5159 203e
00000310: ac10 113e 5895 2fbe 0722 4c3e a7de b43e
00000320: 0f0d 0ebe 80ba 26be 4257 5a3e 2787 91bd
00000330: 13f8 f0be ae1b 23be 9c7b 7c3e c3fb 6abe
00000340: b268 ae3e 8fe1 063e 13b5 603e ad94 71be
00000350: 89e0 da3c 25f3 1bbe cf85 38be 3571 27be
00000360: 9d11 93bb e2c2 8b3d 1326 4ebe 333b 703e
00000370: da1a 20be c666 db3d 7b8b 80bd d17c 953e
00000380: 515c 313e efe8 04be 1281 40be 464f 333d
00000390: 67bb 40be 0f07 e53c 4c24 9a3e 4f15 363d
000003a0: 2319 eebc 0a54 d43e f36c 913e 2aa6 bdbe
000003b0: a6ae 253e f204 58be c8e3 3c3c f8ce bdbc
000003c0: 85d8 b4bc 422f 84be 8f8b 313d f30a b9bd
000003d0: 85d8 8cbe c5a2 73be faf2 1abc f108 6bbe
000003e0: 8313 5b3e 6abd 97be f188 80bd 0999 a23e
000003f0: fbac a3bd 415f c1be 5033 563a b4a0 723d

bias f4 [32]
-0.09945365 -0.24053717 -0.34228417 -0.3961922 0.090987906 -0.13180831 -0.51969117 0.2644227
-0.039337616 -0.06882616 0.0034970825 -0.25189534 -0.38078064 -0.17375489 -0.6479087 -0.50372934
-0.2525904 -0.51218265 -0.121745944 -0.6186549 -0.27033186 -0.2778657 -0.38081235 -0.15786564
-0.013814217 0.34660423 -0.016511427 0.14942989 -0.3638152 -0.024490291 -0.15691659 -0.03638004
00000000: 5bae cbbd 604f 76be df3f afbe b4d9 cabe
00000010: de57 ba3d c2f8 06be 7b0a 05bf 6a62 873e
00000020: 7b20 21bd bbf4 8cbd 4f2f 653b 6df8 80be
00000030: aef5 c2be cdec 31be 58dd 25bf 68f4 00bf
00000040: 8753 81be 671e 03bf f055 f9bd 2b60 1ebf
00000050: f068 8abe 6a44 8ebe d6f9 c2be 88a7 21be
00000060: 0755 62bc 1c76 b13e f942 87bc 2604 193e
00000070: fc45 babe dd9f c8bc beae 20be 3d03 15bd

weight f4 [50, 512]
0.048820514 0.023425687 0.04309129 0.047563687 -0.026737098 -0.06598161 -0.10896087 -0.0203875
-0.048646875 0.052481625 0.057827663 0.07588955 -0.019621689 -0.13069165 0.014874097 0.0011965614
0.048394203 -0.026128924 -0.13101223 -0.09358419 -0.088737346 0.048950728 -0.035207678 0.027157716
0.06934009 0.025030194 0.077075884 -0.0123759005 -0.07916415 -0.025726506 -0.08462287 -0.04154411
0.049756143 -0.042176858 0.08060336 0.048218515 -0.033947613 -0.036858242 -0.04988379 0.031204924
-0.02930479 0.026898077 0.025215017 -0.020339727 -0.11631619 -0.04644997 -0.017092634 0.1239294
0.014894562 0.016999647 0.024153374 -0.10873728 0.021692665 0.04186624 -0.012091287 0.107128434
-0.019113641 -0.003070863 0.035930656 -0.07706021 -0.04956624 -0.016387673 -0.0038722984 0.009856103
0.047032468 0.11734058 -0.026228346 0.042957593 0.05364814 -0.053265717 -0.15103267 -0.12790795
-0.060730804 0.12220825 -0.0134316655 -0.006738182 0.021552434 -0.12969832 -0.01776576 0.0932058
0.03021437 0.039599624 0.021330211 -0.16673711 -0.00027723942 0.030188845 -0.09052105 -0.12391621
-0.023863526 0.044612713 0.06862111 0.0010621655 -0.07460396 -0.11477574 -0.08151048 -0.07084667
0.11744379 0.009328614 0.014610039 0.042588826 -0.044963762 0.04758891 0.020012194 0.0015886861
-0.10334045 -0.054323535 0.0086792465 0.01957087 -0.07684915 -0.002489402 -0.0009924102 0.09833896
0.05923884 -0.018326268 -0.123485126 0.005623794 0.1130955 -0.036693696 -0.016150635 0.06925291
-0.07553254 0.07457776 -0.04168382 -0.0077196984 0.066961125 -0.035312567 -0.093936674 -0.0027801709
0.0132278735 -0.056638595 0.021421898 -0.1741183 0.020985618 -0.05335597 -0.074668474 -0.2043371
0.02541644 0.0955782 -0.0952318 -0.22931749 0.02172363 -0.18367146 0.11438961 0.10691071
0.030055515 0.0077542257 0.009156941 0.038445104 -0.059813146 -0.08668662 -0.15312682 -0.059169482
-0.011447897 -0.06743985 0.05886678 -0.028313106 -0.10173659 -0.090255864 0.076020434 0.11931813
-0.04084838 0.012048624 -0.024542222 0.0003645713 0.030350186 -0.022509988 0.026990453 -0.012239134
-0.08713026 0.033949554 -0.030303111 0.02510158 -0.04107075 0.024856586 0.016279045 0.031589255
0.029613778 -0.024918323 -0.18424466 -0.18072401 0.008872657 0.014403009 -0.061138578 0.010262768
-0.015550945 -0.08297871 0.04916737 -0.03977019 -0.035810336 0.060507607 -0.14346148 -0.05896498
0.03418873 0.019360024 -0.0010141634 0.09364293 -0.034803465 -0.022904044 -0.010248612 -0.12935157
-0.031553242 -0.006180517 0.011709386 0.0058372966 -0.065550245 -0.013506435 0.027300047 0.082233004
0.059124123 0.009030334 -0.05291389 -0.17048222 -0.023184424 0.0127216475 -0.04838547 -0.00064884464
-0.044480022 0.00042764464 0.00086670066 -0.0826141 -0.027737327 -0.026481785 -0.124253936 -0.024223667
-0.041584782 -0.13210699 -0.104725465 0.08479617 0.11072119 -0.18272504 0.15112033 -0.024345204
-0.10635221 -0.026015608 -0.08055204 -0.10584891 -0.04051315 0.024855964 0.02606461 0.1097838
-0.0062353252 0.04720368 0.008373926 -0.0059271576 -0.02750116 0.022337915 -0.0070736245 -0.024074262
-0.008719114 0.011968424 -0.0050499444 0.0027856375 -0.018278258 -0.033998195 -0.025025992 -0.013057661
00000000: 05f8 473d 3ae7 bf3c 7e80 303d 24d2 423d
00000010: c207 dbbc 5e21 87bd e026 dfbd b003 a7bc
00000020: f241 47bd f9f6 563d b3dc 6c3d fb6b 9b3d
00000030: aabd a0bc 08d4 05be 7cb2 733c f0d5 9c3a
00000040: 0039 463d 530c d6bc 1228 06be 11a9 bfbd
00000050: edbb b5bd 8f80 483d ed35 10bd dc79 de3c
00000060: 2d02 8e3d 1f0c cd3c f6d9 9d3d 4ac4 4abc
00000070: d020 a2bd 65c0 d2bc c14e adbd 282a 2abd
00000080: 19cd 4b3d a4c1 2cbd 6013 a53d c780 453d
00000090: a70c 0bbd abf8 16bd f252 4cbd 78a1 ff3c
000000a0: 9910 f0bc 5b59 dc3c b98f ce3c 809f a6bc
000000b0: 2f37 eebd 5342 3ebd da05 8cbc b3ce fd3d
000000c0: 5208 743c d842 8b3c 4cdd c53c a7b1 debd
000000d0: d1b4 b13c ef7b 2b3d 891a 46bc 2766 db3d
000000e0: 3694 9cbc 8840 49bb 062c 133d bed1 9dbd
000000f0: f805 4bbd 713f 86bc 63c6 7dbb 7e7b 213c
00000100: 1ea5 403d 4250 f03d d4dc d6bc 4df4 2f3d
00000110: 27be 5b3d 272d 5abd 4fa8 1abe 4dfa 02be
00000120: ddc0 78bd 5248 fa3d 7d10 5cbc f8cb dcbb
00000130: bb8e b03c a3cf 04be 8089 91bc afe2 be3d
00000140: 2084 f73c 3733 223d b2bc ae3c 22bd 2abe
00000150: 725a 91b9 994e f73c 1a63 b9bd c8c7 fdbd
00000160: 717d c3bc d2bb 363d 3989 8c3d 5c38 8b3a
00000170: f6c9 98bd 8b0f ebbd f7ee a6bd 0f18 91bd
00000180: 5f86 f03d 0bd7 183c f25e 6f3c 9f71 2e3d
00000190: ec2b 38bd 97ec 423d 9df0 a33c 763b d03a
000001a0: 28a4 d3bd 5b82 5ebd 6633 0e3c 1753 a03c
000001b0: 1663 9dbd 3c25 23bb c313 82ba f065 c93d
000001c0: 6da4 723d f820 96bc c5e5 fcbd ce47 b83b
000001d0: 9d9e e73d 214c 16bd 564e 84bc 78d4 8d3d
000001e0: ceb0 9abd 3abc 983d a7bc 2abd 86f5 fcbb
000001f0: ea22 893d e9a3 10bd df61 c0bd 8733 36bb
00000200: b9b9 583c dffd 67bd fa7c af3c 114c 32be
00000210: 08ea ab3c ca8b 5abd c9eb 98bd bf3d 51be
00000220: 2336 d03c 81be c33d e408 c3bd 34d2 6abe
00000230: c1f5 b13c 5f14 3cbe 1a45 ea3d 01f4 da3d
00000240: fc36 f63c 2917 fe3b ff06 163c 9d78 1d3d
00000250: a1fe 74bd c188 b1bd 47cd 1cbe b35b 72bd
00000260: f68f 3bbc e71d 8abd 4b1e 713d e3f0 e7bc
00000270: 465b d0bd 11d8 b8bd 9ab0 9b3d 105d f43d
00000280: a250 27bd 9867 453c c50c c9bc ee23 bf39
00000290: f4a0 f83c de66 b8bc 151b dd3c a686 48bc
000002a0: 5a71 b2bd b00e 0b3d 3b3e f8bc d4a1 cd3c
000002b0: ce39 28bd 0aa0 cb3c a25b 853c bc63 013d
000002c0: 9898 f23c 8321 ccbc a2aa 3cbe b70f 39be
000002d0: 9f5e 113c 99fa 6b3c 726c 7abd 2b25 283c
000002e0: 64c9 7ebc bef0 a9bd b963 493d 11e6 22bd
000002f0: dcad 12bd d3d6 773d 91e7 12be 4385 71bd
00000300: 7b09 0c3d ea98 9e3c aded 84ba ddc7 bf3d
00000310: 148e 0ebd 43a1 bbbc cbe9 27bc bd74 04be
00000320: f93d 01bd ef85 cabb b9d8 3f3c cb46 bf3b
00000330: 353f 86bd 184a 5dbc 59a4 df3c c769 a83d
00000340: 232c 723d f7f3 133c 3cbc 58bd e492 2ebe
00000350: 43ed bdbc 756e 503c d82f 46bd 3a17 2aba
00000360: af30 36bd 7e35 e039 4c33 633a 9531 a9bd
00000370: 6439 e3bc 54f0 d8bc d978 febd b670 c6bc
00000380: ce54 2abd 0e47 07be 4e7a d6bd 9da9 ad3d
00000390: cbc1 e23d 461c 3bbe 4abf 1a3e 986f c7bc
000003a0: 30cf d9bd af1e d5bc 78f8 a4bd 50c7 d8bd
000003b0: 1ef1 25bd bc9e cb3c 7385 d53c 54d6 e03d
000003c0: b351 ccbb a558 413d cb32 093c 9a38 c2bb
000003d0: 1d4a e1bc 01fe b63c ddc9 e7bb 6337 c5bc
000003e0: 9dda 0ebc 3517 443c 017a a5bb 3e8f 363b
000003f0: 49bc 95bc b141 0bbd 4f03 cdbc cdef 55bc

bias f4 [50]
0.018793331 -0.07335056 0.02410398 -0.041850075 0.018065266 0.020558976 -0.009489119 0.032853387
0.009427356 0.0030472975 -0.039212327 -0.03316762 0.07054552 0.017365044 -0.00060036586 0.020270169
0.06261921 -0.022883313 0.06573675 -0.037454233 0.0071232156 -0.0049693184 0.014310303 0.037465207
-0.010426275 0.021626182 -0.03047342 -0.03241027 -0.057451483 -0.018750045 -0.030937077 0.06218811
-0.025100049 0.020498216 -0.036455926 0.06886308 0.025618408 0.00656512 0.02675071 0.028122552
-0.009033587 -0.007694573 -0.0005402648 -0.02988136 -0.014413194 0.013516931 0.030657697 -0.06079802
-0.04695087 0.050912805
00000000: 79f4 993c d238 96bd b675 c53c fc6a 2bbd
00000010: 9cfd 933c 4c6b a83c 4078 1bbc 4691 063d
00000020: 3275 1a3c 2bb5 473b 1b9d 20bd c5da 07bd
00000030: 2b7a 903d 2341 8e3c df61 1dba a00d a63c
00000040: 803e 803d c975 bbbc fda0 863d 9c69 19bd
00000050: dd69 e93b aad5 a2bb c375 6a3c 1e75 193d
00000060: f8d2 2abc 6429 b13c 65a3 f9bc a2c0 04bd
00000070: 3f52 6bbd b299 99bc c16f fdbc f6b8 7e3d
00000080: 9e9e cdbc e0eb a73c cf52 15bd 1608 8d3d
00000090: b2dd d13c 3820 d73b 4e24 db3c 4461 e63c
000000a0: 9c01 14bc c222 fcbb 8fa0 0dba c1c9 f4bc
000000b0: 5125 6cbc 1e76 5d3c da25 fb3c 5807 79bd
000000c0: 8e4f 40bd f289 503d

weight f4 [10, 50]
0.07024605 -0.09557719 -0.08373984 -0.10685587 0.16121407 0.10001216 0.08534396 -0.041612104
0.030181097 0.0037927593 0.09440373 0.21048911 0.028541569 -0.040518634 -0.16878764 -0.119700655
-0.0047614607 -0.2482134 -0.084660836 0.3618041 0.07090115 -0.22035913 0.04503951 -0.31099483
-0.14384232 -0.43084192 -0.039533254 -0.17090894 0.05012217 0.38711807 0.0053962166 0.05009888
0.2415106 -0.24522738 -0.020240312 0.05141876 -0.30856708 -0.3208104 0.22695225 0.17418462
0.31557828 -0.10580583 0.05558645 0.06038086 -0.29457334 -0.042162817 -0.126997 -0.12866734
-0.150156 -0.09853131 0.06876288 0.0068392665 0.03693226 -0.36085597 0.15393886 0.22760531
-0.020038234 0.07934339 0.052183 -0.06315517 0.055814166 0.15415928 0.018305913 0.029742682
0.37322834 0.19690171 0.052252647 0.11944427 0.04973891 0.05363463 0.077813335 -0.18943867
-0.118201375 0.26780483 0.02125307 -0.29497012 -0.099462114 -0.0670526 -0.04621459 -0.165238
-0.070062585 0.018847229 -0.14414217 0.23196062 -0.015670607 0.0713484 0.18213502 -0.10255465
-0.14082815 -0.2928856 -0.16028024 0.04840091 -0.104014084 -0.08481156 0.33470663 -0.03991942
-0.10690658 -0.016518738 0.051887292 0.02284241 0.07039791 -0.06445695 -0.079922386 -0.36265063
-0.1800848 -0.120017104 -0.0022275005 0.054283593 -0.062015127 0.0013995706 0.052646134 0.19889441
-0.10448203 -0.000108514774 0.50877637 -0.17165565 -0.04632728 0.09549862 0.10622679 -0.20250203
0.12702686 -0.26080546 -0.099993065 -0.19286871 0.32864627 0.3625532 -0.042840045 0.11017061
-0.026867142 -0.31880423 0.07412099 0.0469895 0.033018984 -0.26770693 0.07654027 -0.036148477
0.16288747 0.26250225 -0.32055956 -0.38930115 0.22592528 -0.11361417 -0.046506885 -0.036375985
0.28456843 0.08224883 0.2929979 0.033305433 -0.1697029 0.031772334 0.08730781 -0.013666172
0.049415376 0.118985124 -0.4195055 0.0604456 0.069253296 0.02503452 0.014299479 -0.1937147
-0.022794787 0.19055139 -0.06790887 0.076420404 -0.2896536 0.17463738 0.11266434 -0.445746
-0.019056119 -0.30011317 -0.03232671 0.42842877 0.05739979 -0.38489032 0.1573634 0.09065479
-0.01974943 0.015518024 -0.05574372 -0.056596275 0.048529573 0.023152469 -0.070775755 -0.39059272
-0.061162625 0.10818961 0.10645813 0.1691969 -0.3728277 0.15776446 0.25461406 -0.026698641
0.12217828 -0.00884487 -0.24249528 0.09230256 0.20920587 -0.05816468 -0.38004053 -0.05522376
-0.46683127 0.10199823 -0.10498142 0.22805537 -0.005310219 0.15229005 -0.07667216 0.031184472
-0.09496295 0.21160576 0.058956724 -0.47283283 -0.020552555 -0.10175883 0.43929073 -0.1612214
0.11754232 0.19832592 0.053135958 0.21428077 0.027255597 0.09842981 0.015153267 0.14776734
-0.1755491 -0.5083113 -0.11312135 0.11289053 0.06588536 -0.36353356 0.055021226 0.10203192
0.2695032 0.20146589 -0.13888071 -0.0921271 -0.40188527 -0.19006598 -0.25971115 0.1823688
-0.23000287 -0.11321346 -0.11035555 -0.03820871 0.20626092 0.08016253 -0.15899172 -0.10405128
0.31883928 0.117750555 -0.3677315 0.027151281 -0.17349964 0.1492829 0.15005054 -0.083985224
00000000: 29dd 8f3d f9bd c3bd cb7f abbd 40d7 dabd
00000010: 4d15 253e 2dd3 cc3d d0c8 ae3d 7471 2abd
00000020: 593e f73c f18f 783b be56 c13d 758a 573e
00000030: 02d0 e93c def6 25bd abd6 2cbe 9e25 f5bd
00000040: 0706 9cbb a72b 7ebe a962 adbd 633e b93e
00000050: 9f34 913d d3a5 61be 597b 383d b73a 9fbe
00000060: 674b 13be 5097 dcbe 9fed 21bd c102 2fbe
00000070: e84c 4d3d 5734 c63e bfd2 b03b 7c34 4d3d
00000080: 8e4e 773e e31c 7bbe 03cf a5bc 7a9c 523d
00000090: 81fc 9dbe 4341 a4be 2c66 683e 745d 323e
000000a0: 7a93 a13e bab0 d8bd 9eae 633d ec51 773d
000000b0: 51d2 96be ebb2 2cbd 800b 02be 5fc1 03be
000000c0: 7fc2 19be c9ca c9bd 8ed3 8c3d ed1b e03b
000000d0: 4846 173d 1dc2 b8be 26a2 1d3e 5e11 693e
000000e0: 3927 a4bc ca7e a23d d7bd 553d 7f57 81bd
000000f0: 659d 643d eedb 1d3e 48f6 953c eda6 f33c
00000100: c917 bf3e 9aa0 493e df06 563d 339f f43d
00000110: 07bb 4b3d fcaf 5b3d 995c 9f3d 36fc 41be
00000120: 9013 f2bd b71d 893e eb1a ae3c 5306 97be
00000130: cbb2 cbbd e052 89bd 834b 3dbd 2634 29be
00000140: f97c 8fbd 8165 9a3c 019a 13be 1687 6d3e
00000150: a55f 80bc 1c1f 923d 9a81 3a3e 2c08 d2bd
00000160: 4135 10be 1af5 95be 8120 24be 0840 463d
00000170: 5605 d5bd afb1 adbd ab5e ab3e 8c82 23bd
00000180: d6f1 dabd 4e52 87bc c587 543d 0120 bb3c
00000190: c82c 903d 0102 84bd 59ae a3bd 58ad b9be
000001a0: 2668 38be 87cb f5bd 42fb 11bb 7958 5e3d
000001b0: 9303 7ebd cc71 b73a 79a3 573d faaa 4b3e
000001c0: adfa d5bd 6d92 e3b8 2b3f 023f 80c6 2fbe
000001d0: adc1 3dbd c894 c33d 6e8d d93d b15c 4fbe
000001e0: 5413 023e 4b88 85be 2ac9 ccbd 607f 45be
000001f0: 5344 a83e 93a0 b93e 0b79 2fbd 21a1 e13d
00000200: 7b18 dcbc 4f3a a3be bfcc 973d 1078 403d
00000210: ea3e 073d e210 89be 25c1 9c3d 6d10 14bd
00000220: f9cb 263e b266 863e 6220 a4be 7b52 c7be
00000230: f558 673e 8cae e8bd 017e 3ebd fcfe 14bd
00000240: f4b2 913e 1372 a83d d203 963e 476b 083d
00000250: 99c6 2dbe b523 023d 70ce b23d 14e8 5fbc
00000260: c767 4a3d 79ae f33d 6dc9 d6be ce95 773d
00000270: acd4 8d3d 3215 cd3c 5d48 6a3c 255d 46be
00000280: 22bc babc e71f 433e ce13 8bbd 4d82 9c3d
00000290: 7a4d 94be 24d4 323e 90bc e63d d238 e4be
000002a0: 941b 9cbc 6fa8 99be 0369 04bd 045b db3e
000002b0: 0b1c 6b3d 5810 c5be df23 213e 38a9 b93d
000002c0: 8ec9 a1bc 4f3f 7e3c 8753 64bd 7fd1 67bd
000002d0: f2c6 463d 3faa bd3c e1f2 90bd c5fb c7be
000002e0: a985 7abd 8492 dd3d b806 da3d f441 2d3e
000002f0: 46e3 bebe 028d 213e c65c 823e 1cb7 dabc
00000300: 9b38 fa3d 13ea 10bc af50 78be 2009 bd3d
00000310: 103a 563e 163e 6ebd ac94 c2be 4f32 62bd
00000320: 8204 efbe 73e4 d03d 8000 d7bd 5987 693e
00000330: 5801 aebb ecf1 1b3e 4b06 9dbd 9476 ff3c
00000340: ef7b c2bd 2eaf 583e 9b7c 713d 2517 f2be
00000350: d55d a8bc ef66 d0bd b7ea e03e 3917 25be
00000360: 07ba f03d f315 4b3e 17a5 593d 6b6c 5b3e
00000370: 2147 df3c 9195 c93d 6945 783c 5250 173e
00000380: 25c3 33be b020 02bf 2bac e7bd 2633 e73d
00000390: e7ee 863d 1221 babe f05d 613d 1cf6 d03d
000003a0: 53fc 893e 134d 4e3e bf36 0ebe 22ad bcbd
000003b0: e8c3 cdbe a8a0 42be dcf8 84be e3be 3a3e
000003c0: df85 6bbe 75dc e7bd 1702 e2bd bc80 1cbd
000003d0: 1036 533e 412c a43d bace 22be d618 d5bd
000003e0: e73e a33e 3427 f13d 4e47 bcbe 5d6c de3c
000003f0: e4a9 31be 9edd 183e d9a6 193e 7200 acbd

bias f4 [10]
0.10212665 -0.11531471 0.031845585 -0.10039497 -0.09300942 -0.07855263 -0.07951474 -0.036462996
0.07105756 -0.13291639
00000000: c727 d13d 1e2a ecbd 8470 023d e19b cdbd
00000010: b97b bebd 34e0 a0bd a0d8 a2bd 395a 15bd
00000020: a086 913d 3c1b 08be
