Computational Intelligence/aeh330_5/resultsclassifier_cnn_9.model (torch, 111383 bytes, 6 tensors)

weight f4 [32, 1, 3, 3]
00000000: 8312 c23e 97c2 21be 4a0c ad3d 99aa 8cbe
00000010: 6ff1 a33d 8d90 f63b 9239 a5be 5ad8 bfbe
00000020: 34c9 6d3e ae30 2f3e 0b39 bb3d d855 9fbe
00000030: f1e3 c83d aaa8 96be 49a6 0fbd 2621 75be
00000040: 85c2 3f3e 9fdd 39be e3bb 8e3c 8913 913e
00000050: 4f95 1f3e 565e 81be c99e 0cbe 806b 803e
00000060: 300f d03d cefe 85be 5995 8bbe 524c 8a3e
00000070: 2231 5a3e d867 693d 5826 023e 21e8 6dbd
00000080: cf1c 7dbe 05a8 70bd fa3a 023e d4bd 873d
00000090: cc66 363e e250 a1bc 3d83 a6bd 9b58 92be
000000a0: ce32 c33d 2c08 00be 836a 6d3e 4b45 a3be
000000b0: 322b 643e e75e 423d 3d60 abbe 85c4 adbe
000000c0: 9b25 f43d dafd 22be d78c eb3d 9ac6 6c3e
000000d0: d023 843e dc5f 2fbd 014f 87be 94f5 b0bd
000000e0: 2717 3f3e 05a9 6e3e e29c a3be 7871 253e
000000f0: f3d7 bf3d 0f43 8bbe b6a3 32be 5b72 acbe
00000100: b3f3 c43d e225 803e 7afb 9fbd 70c8 de3d
00000110: b151 85be 0739 1cbe a30a 1cbe b8cf 8b3e
00000120: bbd3 723e 630a 323e ef70 36be 0a64 7abe
00000130: 805b 27be 2023 a93d 9eb3 2c3d 0236 86bd
00000140: 3e55 6bbd 4993 7d3e a277 93be aff9 1e3e
00000150: 3382 51be cbdd 69be 7c3a 7e3e d160 9ebd
00000160: dac6 edbd ec35 f13c 3506 84be f3d1 59be
00000170: 0d47 2bbe 5d20 f23c d827 b33e ecb7 993e
00000180: a446 abbe eef0 e3bd 3fa9 713e abb1 aabe
00000190: d1ba 923d 89f0 eb3c 198e 8d3d 5b35 503d
000001a0: 322d 3c3d ab5e 3a3e 4f55 763e 37aa 893c
000001b0: 946c 793e ca2b b8bc 5d7c cdbe ce2e 4a3c
000001c0: 17d2 02bd 251a a5bc e167 323e a2a6 5c3e
000001d0: 21ad 84be 75fb 5bbe 102d cdbe 235d 69be
000001e0: 1cde b13e 8dc2 38be 6aee e0be e25a 613e
000001f0: 4702 333e 08a6 87bc f376 863e af00 a3bd
00000200: 7eb8 01bc 81bd 8a3e a990 b93d ca67 893e
00000210: 377f 62be 69a0 9b3e 2ac5 a43b e54f 0d3e
00000220: 03a8 38be 3c14 1ebe eed7 593d 0ba5 aabe
00000230: 92e8 463e a198 19be bead d7bd 1951 493e
00000240: 6236 c2bd 396c 25be 8368 c53d e624 da3d
00000250: af10 623e 0cf3 b5be efbf 103e 0a8f f8bd
00000260: 53d1 1ebe b27b 093e 6c1a 073c a3e4 86be
00000270: 632a a23e 5a54 373e 6976 90be 6675 f2be
00000280: 7e0c 44be 403e 3cbd 51ec 993e adc7 843e
00000290: cdfc 65be 5868 a0be 1d70 843e 0c31 82bd
000002a0: 6c0d acbe 9413 03be 9a9e c93d c914 adbc
000002b0: ff17 6c3d 6a7d 2f3e fd65 8b3d bdd1 bdbe
000002c0: 6fef 843d 037f 71bd ae0d 2fbe 7f54 833d
000002d0: f4e0 263e 2e13 54be 8a9f a8be 99a4 7cbd
000002e0: 2579 063e 9bf4 6c3c a3e6 f43d fd57 a83d
000002f0: 61e6 d33d 524b 573e be90 8bbe 8a65 9bbe
00000300: fa1a 92be ee58 97be f630 d83e c10d 973d
00000310: 32d8 123e fd47 99be ea4b 283e 35f5 6ebe
00000320: 7c8b bbbe e133 ba3e 4e70 80be e35a fd3d
00000330: c995 c2be 9859 30be 0ed4 df3e 24a5 b7bd
00000340: df71 053e f8e7 b43d 41f2 553e 2b5c ec3c
00000350: b977 013e 11c4 adbe 1de6 91bd c234 e7bd
00000360: 60cd 3fbe 36fc eabd b9ec b3be 989f a83d
00000370: 1647 253e 7965 61bd 1688 06be ecd1 2f3e
00000380: dba9 1b3d fa36 483e 5a5a 64bc 6381 30be
00000390: 23a5 233e 038c 123e 7abe b6be ed51 70bc
000003a0: df24 d0be 3e5c 3cbe 7d29 52be 2185 653e
000003b0: 48a4 74be c32b 7bbe aa87 cd3d 56fd 433e
000003c0: b42b 76bd 51b4 593e 4e86 643d 4fbf bdbe
000003d0: af72 45be 52e4 42be d88b 8b3e a8d9 2dbe
000003e0: c343 17bd bb15 723d 2431 00be 60b4 923e
000003f0: 2f90 303d 9012 a4bb fadf 603e 5e31 a2bd
0.37904748 -0.15796886 0.084496096 -0.27473906 0.08005034 0.007524556 -0.32270485 -0.3746975
0.23221284 0.17108414 0.091417395 -0.3112018 0.098091014 -0.29425555 -0.03507069 -0.23938426
0.18726547 -0.18150948 0.017423576 0.28335217 0.155843 -0.25267285 -0.13732447 0.25082016
0.10159147 -0.26170963 -0.2726238 0.27011353 0.21307805 0.0569838 0.1270994 -0.058082704
-0.24718021 -0.058753986 0.1271781 0.06628004 0.17812651 -0.019691888 -0.081305005 -0.28583226
0.095311746 -0.12503117 0.23185162 -0.31888804 0.22282103 0.047453787 -0.3347186 -0.33938995
0.11921235 -0.15917149 0.115014724 0.23122635 0.25808573 -0.042816028 -0.26427463 -0.0864059
0.18661176 0.23306663 -0.3195563 0.16156566 0.09367361 -0.271996 -0.17445263 -0.33680996
0.096167944 0.25028902 -0.07811637 0.10878074 -0.26038888 -0.15256129 -0.15238433 0.27306914
0.23713581 0.17386775 -0.17816518 -0.24452224 -0.16343498 0.08258653 0.042163484 -0.0655327
-0.05745434 0.24763216 -0.2880221 0.15524934 -0.20459823 -0.22838514 0.24826998 -0.0773331
-0.116101936 0.029444657 -0.25785986 -0.21271496 -0.16726322 0.029556448 0.34991336 0.30023134
-0.33452332 -0.11129938 0.23599719 -0.33338675 0.07164539 0.02880122 0.069118686 0.050832134
0.04594154 0.18200175 0.2405598 0.016804798 0.24357826 -0.022481818 -0.40133944 0.012340261
-0.03193864 -0.020154068 0.17422439 0.2154794 -0.25913337 -0.21482642 -0.40073442 -0.22789435
0.34739769 -0.18042965 -0.43931895 0.22007325 0.17481337 -0.016558662 0.26262626 -0.07959115
-0.0079175215 0.27097705 0.09060795 0.26836997 -0.22118841 0.3039582 0.0050283866 0.13800009
-0.18032841 -0.15437406 0.053184442 -0.33329043 0.19424656 -0.1499963 -0.105311856 0.19659843
-0.09483029 -0.16154565 0.09639075 0.10651569 0.22076677 -0.35536993 0.14135717 -0.121366575
-0.15509538 0.13426092 0.008246046 -0.2634631 0.31672964 0.17903271 -0.2821534 -0.47355193
-0.1914539 -0.045957804 0.30063108 0.2593359 -0.22459717 -0.31329608 0.25866786 -0.06357011
-0.3360399 -0.12800437 0.09844704 -0.021128075 0.057640072 0.17137685 0.06806562 -0.3707408
0.06490981 -0.05895902 -0.17095062 0.06412601 0.1629675 -0.20710441 -0.3293422 -0.06168041
0.1313215 0.014462615 0.11958053 0.082199074 0.10346676 0.21024826 -0.27258867 -0.30350906
-0.28536206 -0.29560035 0.42224854 0.0737567 0.14340284 -0.29937735 0.16435209 -0.23335727
-0.36629856 0.36367705 -0.25085682 0.12370851 -0.38004902 -0.17221677 0.43716472 -0.08967045
0.1303172 0.08833307 0.20893194 0.028852543 0.12643327 -0.3393865 -0.07123969 -0.1128936
-0.18730688 -0.11473887 -0.35141543 0.08233565 0.16140398 -0.055028412 -0.1313785 0.17169923
0.038003784 0.19552222 -0.013937557 -0.17236857 0.15980963 0.14311223 -0.35692197 -0.01466797
-0.4065313 -0.18394563 -0.20523639 0.22414066 -0.23890793 -0.24528413 0.100356415 0.19139609
-0.060100272 0.21260192 0.055792145 -0.3706002 -0.1928203 -0.1903241 0.2725513 -0.1697756
-0.036929857 0.059102755 -0.12518746 0.2865324 0.043106254 -0.0050070956 0.2196044 -0.07919572

bias f4 [32]
00000000: 66f9 893c 681f ff3d 1d84 77be c9a2 b3be
00000010: 62d2 86be eacf 3a3e 32ec 2ebe 8c96 f53c
00000020: 42cd a2be 1701 fdbd 3c04 a6be c570 1abe
00000030: 2b2a 623e 540a 943e b154 8b3e 2e4a 01be
00000040: 106a f0bd 8023 513d 82c8 d03d e212 b9be
00000050: d30d 563e 8375 933e ebfe 5cbe 7c39 a5be
00000060: b0a8 603e c76f 333d 8865 0ebe f2a4 3ebe
00000070: 097f 22be 5a14 ddbd 82f0 81bd 27fc 94be
0.016842555 0.12457162 -0.24171491 -0.35085133 -0.26332384 0.18243375 -0.17082289 0.029979013
-0.31797224 -0.123537235 -0.32425106 -0.1508208 0.22086398 0.2891413 0.27213052 -0.12625954
-0.1173898 0.051059246 0.10194494 -0.3614722 0.20903711 0.28800592 -0.21581618 -0.3227042
0.21939349 0.04380777 -0.13905919 -0.18617609 -0.15868773 -0.107948974 -0.06344701 -0.29098627

weight f4 [50, 512]
00000000: 1e35 f6bc ed4f 9e3a 8f82 59bc 200c 4cbc
00000010: 1af0 c6bc cee9 96bc 73d7 37bd 2325 25bd
00000020: ea01 3fbd 577c 1dbd b2d6 b8ba c71b 3ebd
00000030: 0247 74bb 089e 193c 22a2 12bd 6878 1bbd
00000040: 6c99 133c a5d8 8ebd 1181 373a 6698 dcbc
00000050: 0eec 7d3d 3c65 b73b 5b61 94bd 244b 3abc
00000060: 3248 7abb 7a65 70bd 193f a63b 396e 5f3c
00000070: 7ade 6c3b 4f91 2bbc 2ec1 74bd ee3e 65bc
00000080: 4e8c 69bc 9c05 98bc dced c9bc e372 abbb
00000090: 3a0f 5abd b864 1abd f548 b4bc 61aa 0c3c
000000a0: f54b 85bc d25d 8cbd 7c95 78bd 1820 09bd
000000b0: cbf7 15bc a8ab 83bc 21e7 06bc d4d7 633d
000000c0: a95f 87bd d4c7 2d3a b55a 50bd c6a8 9439
000000d0: 7b56 94bc 7f4b 89bd 93a2 49bc a0b9 1c3c
000000e0: ca6a 3b3c e84d 1e3c 2535 86bd a942 59bd
000000f0: 55e3 0fbd 45c4 95bd d5c1 96bc 50f2 dbbc
00000100: d4b6 64bd 7e1d 38bc 32f0 82bd 0060 51bc
00000110: 9235 4ebd ace8 d83a 8b63 41bd b228 61bc
00000120: da01 9d3a f0dc 18bd 8430 a93b dd86 67bd
00000130: 861f a3bc b0e4 b4bc cf9b 2abd 6de8 cfbb
00000140: 2a29 70bd 3c1d 4abd 5546 51bd d40a 0fbd
00000150: b34d edbc 4238 f03a 1a8b 3abd c3d9 5abd
00000160: c8c2 d4bc 3be2 10bd d646 91bc 1945 02bd
00000170: 15f4 95bd 8c4f 05bb 0e85 9abc a1ba 75bd
00000180: ec44 95ba 0278 58bd f803 00bd 8b3c 58bd
00000190: 55a0 2f3b 15b5 8fbc d548 a1ba c1ca 66bd
000001a0: 391a 503c 00ad 5cbc 2daa 64bd f326 a3bc
000001b0: 57d1 e4bc 6fa9 04bd d5de febc b172 f3bc
000001c0: a62a 52bd 3036 413c c78f 56bd 14b2 8cbd
000001d0: f2ce 5d3c dede bcbc 6d28 d0bc a938 9a3c
000001e0: 4236 20bd 3298 93bb 1bb7 173c 0cbb 7a3b
000001f0: 5f00 2dbd 8e13 e93b b659 f5bc a476 953d
00000200: c96a 7abd a82b 22bd 8648 ffbb 90fd 883b
00000210: 2432 52bd 9433 60bd bfd4 8a3b 8641 8cbd
00000220: aeff 0dbd 433a ddbc 40cb 7cbd 3b09 aabc
00000230: 4ab7 53bd 6e6f 90bc e7db bfbc 6b03 dabb
00000240: 421c 8dbc 1b25 cfbb 2a87 17bb 141a 933c
00000250: 2049 93bd 35a5 94bd e727 92bc 461d bc3b
00000260: 4239 e63b b601 61bd 795c 0ebd 5fd0 96bb
00000270: 788f e03b d858 5fbc a7c6 16bd 9649 2cbc
00000280: 0b27 0abd 6cbc 18bd e2db 7fbd bca5 863c
00000290: ba85 5abd c9d2 09bd 9d8b 87bd d94b 323d
000002a0: 7545 053b 2ab9 23bd f21b 34bd f1fb 0b3d
000002b0: 5176 3bbc 32b7 10bd b036 12bb 4048 2a3c
000002c0: b2d2 2ebd 98e1 31bc 6259 6cbd b8e1 38bc
000002d0: 91fc 87bb 2b64 1c3c 7ef4 4bbd 8bc4 93bd
000002e0: 64ba 78bd 6bd7 05bd cfc3 79bb 33fa 97bc
000002f0: c7c8 8dbd f945 49bc 0291 90bd ab43 8cbd
00000300: 1bcc 41bb ca1a 0abd 0045 7ebd a9a3 9a3b
00000310: 538c 123d 3f99 e0bc 2a5f 9339 2d19 773b
00000320: e474 21bc 1108 ccbc ec0c 71bc 310c 8eba
00000330: 8c8e 6fbc 6060 cdbc a5fc 563c 4c3d 11bd
00000340: 8085 973d 95d7 3abc 2af7 52bd efc9 80bd
00000350: 5ded 9e3c 1486 e83c dd35 73bd ded4 4b3c
00000360: ddc7 023d 4cb5 6cbd d6cf d13c 7bc2 35bd
00000370: f1c5 4abd e5c5 2a3d 15ea 843d 1607 a7bc
00000380: 62dd fa3b 6f6e 50bd 6dbb 143c a1be 96bd
00000390: 3945 acbc 592b 62bd fda3 6cbd 4ad5 1ebd
000003a0: a181 7f3b 2165 3bbd 9dba 373c 0bc3 523c
000003b0: 81dd 3cbd d81e 85bd c106 5fbd 7fd7 073c
000003c0: c944 62bd 3c3b 00bd c44f 3fbc 461c e83c
000003d0: 09bf f8bc e4b6 7c3c 9f8a 6a3d d97e 5abd
000003e0: 2981 66bb 55b4 083d 820a 453d b235 42bd
000003f0: 2d41 7bbc 8b38 e43a db30 b43c 39be 65bd
-0.030054625 0.0012078263 -0.0132757565 -0.012454063 -0.024284411 -0.018422034 -0.044883203 -0.04031862
-0.046632685 -0.038448658 -0.001410207 -0.04641321 -0.003727377 0.0093760565 -0.035799153 -0.037956625
0.009008747 -0.069749154 0.00070001284 -0.026928138 0.061992697 0.005596785 -0.072451316 -0.011370454
-0.0038190004 -0.058690526 0.00507344 0.013637119 0.0036143349 -0.010471656 -0.059754543 -0.013992054
-0.014254643 -0.018557362 -0.024649553 -0.0052322014 -0.053237177 -0.03769371 -0.022007445 0.008585543
-0.01627157 -0.06853832 -0.060689434 -0.033477873 -0.009153317 -0.016073063 -0.008233816 0.05562575
-0.066100426 0.0006629203 -0.050867755 0.00028354506 -0.018107643 -0.06703853 -0.012306827 0.009565741
0.011439035 0.009662129 -0.06553105 -0.053042088 -0.03512891 -0.07312826 -0.018402973 -0.026848942
-0.05583842 -0.0112375 -0.0639347 -0.012779236 -0.050344057 0.0016548834 -0.047214072 -0.013742613
0.0011978701 -0.037320077 0.005163254 -0.0565251 -0.019912492 -0.022081703 -0.041652497 -0.006344846
-0.058633007 -0.049344286 -0.051092464 -0.034922436 -0.028967714 0.0018327313 -0.045542814 -0.05343033
-0.025971785 -0.035372 -0.017733973 -0.031804178 -0.073219456 -0.0020341603 -0.018862274 -0.059992436
-0.0011388338 -0.052848823 -0.031253785 -0.052792113 0.0026798446 -0.017542401 -0.0012305031 -0.056345705
0.0127015645 -0.013468981 -0.055826355 -0.019916033 -0.027931852 -0.032388147 -0.031112114 -0.029717775
-0.051310204 0.011792704 -0.05238321 -0.06869903 0.013538109 -0.02305549 -0.025409902 0.018825846
-0.039114244 -0.004504227 0.009259964 0.0038258461 -0.042236682 0.007112927 -0.029950004 0.072980195
-0.061136995 -0.039592415 -0.007790628 0.0041806176 -0.05131735 -0.05473669 0.004236787 -0.06848435
-0.034667663 -0.02700532 -0.06171727 -0.020756355 -0.05168847 -0.017631259 -0.023420287 -0.0066532395
-0.017225388 -0.006321562 -0.0023121336 0.017956771 -0.07191682 -0.07258073 -0.017841293 0.0057407944
0.0070258686 -0.054933272 -0.034756158 -0.0046024765 0.0068530403 -0.013632022 -0.036810543 -0.010515591
-0.03372864 -0.037289068 -0.062465556 0.01643645 -0.053350188 -0.033648286 -0.06618426 0.043529365
0.002033559 -0.039971508 -0.043971963 0.034175817 -0.011441783 -0.03533096 -0.0022310428 0.010393202
-0.042681403 -0.010857008 -0.05770243 -0.011284284 -0.0041499813 0.009545366 -0.049793713 -0.07215222
-0.06072463 -0.03267614 -0.0038111096 -0.018551921 -0.06923061 -0.012284749 -0.07058908 -0.06848844
-0.002957112 -0.033716954 -0.062077522 0.004719217 0.035778355 -0.027416823 0.00028108928 0.0037704215
-0.009854529 -0.02490619 -0.0147125535 -0.0010837374 -0.014621388 -0.02507037 0.013121759 -0.035458848
0.0739851 -0.011403938 -0.051505245 -0.06288516 0.019400293 0.028384246 -0.05937754 0.012440888
0.031928886 -0.057790086 0.0256118 -0.044374924 -0.049505178 0.041692633 0.0648996 -0.020389121
0.0076557854 -0.050886568 0.009077889 -0.07360578 -0.021029102 -0.05521712 -0.05777358 -0.038777627
0.0038987177 -0.04575074 0.011213926 0.012863885 -0.04610968 -0.065000236 -0.0544498 0.008291124
-0.05524138 -0.03130649 -0.011676732 0.028333794 -0.03036453 0.015424464 0.057261106 -0.053343628
-0.00351722 0.033375103 0.048105724 -0.04741449 -0.015335363 0.0017411871 0.021995952 -0.056089614

bias f4 [50]
00000000: a09f 0cbd d5f4 7ebc 789b 02bd b66c 3a3c
00000010: d2e2 393d f2f0 a1bc 4089 923b 7ff0 ba3c
00000020: f93c ec3b 6008 103d 8719 23bd a3c3 493c
00000030: 7def 83bc 7c7c a23b 2b53 103d 3316 33bc
00000040: fc0f 833c cce7 3fbd bb15 6cbc d6be 6b3c
00000050: f4dd 1ebd ce36 17bd 64e6 54bd b1ad 75bd
00000060: d54f b83c 5917 cc3c 3484 ef3c a2d2 1a3c
00000070: 23f4 6dbc 5cda 6ebb 3ac4 14bc e8f6 0cbd
00000080: 0ee2 a63b ad0f 6fbd 3576 5ebd d25a c33c
00000090: 2b4b ddbc dde1 15bd 67c9 94bd 2fb2 14bc
000000a0: b53a 07bd 9072 c83c 178d febc aaef b63c
000000b0: 5e3c e83c a141 a4bc 76c6 0a3b 6795 a5bb
000000c0: 9d19 f03b ff4a 183b
-0.034331918 -0.015561302 -0.031886548 0.011378458 0.04538233 -0.019768212 0.004471928 0.022819756
0.007209417 0.035164237 -0.039819267 0.01231471 -0.016105408 0.0049586874 0.035235565 -0.010930586
0.015998833 -0.046851918 -0.014409478 0.014388761 -0.03878589 -0.0369175 -0.05197753 -0.0599801
0.022499004 0.024913477 0.029237844 0.009449633 -0.014523539 -0.003644607 -0.009079987 -0.034415156
0.005092866 -0.05836456 -0.05431195 0.023847017 -0.027013382 -0.036592353 -0.07264977 -0.009075685
-0.03301497 0.02446869 -0.031073136 0.022331078 0.028349098 -0.020050826 0.002117542 -0.0050532105
0.007327272 0.002323806

weight f4 [10, 50]
00000000: 9433 c4bd db96 58bd 9204 e9bd 4645 ab3d
00000010: 2d13 0dbe 31f2 b73d a1be 323e 7086 fdbc
00000020: c6ce 073e 5567 f8bd 5bb6 49bc 5354 833c
00000030: 3aca e63b 0c06 933d 6b5d 0abe aea0 bf3d
00000040: 4017 d9bd 0b75 2a3e 4bd7 e9bd 4ba2 163d
00000050: 2433 f6bc 3621 c43d ee60 f9bc 344e fcbc
00000060: 9fe3 f9bc d056 8e3c 4101 873d 75bf f23d
00000070: 90bc 3b3d 6bb7 07bc f1e5 ef3b 267b 163e
00000080: 79d9 adbd fc2b 653d 0423 8fbd 6874 f0bd
00000090: 26dc 2dbd 4ad7 dc3d a797 1a3e 57da 1d3e
000000a0: a8a2 e63d 50be af3d fea0 013e 5ef1 843d
000000b0: 1b8f dfbc 3e55 b63d 8fda a03d b118 59bd
000000c0: 5f87 363e 1699 283d ac9c 353d d171 203e
000000d0: 4bd6 a8bd 33f0 13bd c0fa 3fbd dce0 6e3d
000000e0: 79d9 0ebd 7dac 113e ff0a fa3d 328b 4cbc
000000f0: 3938 d9bd d3ca 7a3d 3cfe 72bc 01fb a0bd
00000100: e5a8 d9bd ec34 023e 80db 423e 284c 77bd
00000110: af03 fb3d 1b7f 6d3d 61ec ff3c 9918 0c3e
00000120: 75a2 99bd aee0 03be e00b 5c3e 18b0 623d
00000130: 7e31 ffbc 30a0 d93d 70d3 dcbc 999b 903d
00000140: 0baa 803a b423 943d 2105 883d 024f af3d
00000150: c547 f33c 438c 8c3c 2cde 8c3d c041 4b3d
00000160: 6910 c53d 902c e0bc a592 f7bd 8ab4 aabd
00000170: f01f 1d3d edf5 16be 1b5d 45bb aa59 1d3c
00000180: 3d64 eb3d b044 713d 5e54 85bd 19f4 013e
00000190: ef2f 06bd b4de a4bc b26c 81bd 4764 023c
000001a0: ea8c 393b 7d7c aa3d b349 303b 9c6e edbc
000001b0: d3f7 283a b79f 82be 4372 12bc 8c64 033e
000001c0: 722c a9bd 0922 2b3e 8e9b bd3d 2abc ffba
000001d0: 9b12 093e 20a7 67bd 5803 abbd 7f66 d93d
000001e0: 93fb 43bd 8969 893d 8d60 f7bc d661 a9bd
000001f0: a965 873d 8db8 3c3d 67fe 043e 3320 183e
00000200: 4de3 13be bcd7 8fbc 259c 083e bf0d 9dbd
00000210: 4b41 9dbc 58ad ddbb 0385 1c3e 8f52 e5bc
00000220: 26b6 e73d 4354 aabd e278 00be 9752 a1bd
00000230: 4bbd 17bd 88fc 5ab7 2513 22be 7622 fe3d
00000240: 9e9b 1b3d 4919 e3ba 054d 17bc cc84 303c
00000250: 4a10 99bd 209d c53c a1a9 653d 7df7 443d
00000260: 694d 053e 2ef3 afbd dbb9 0abe d3b0 193d
00000270: 7439 083d b7da fe3d f944 8d3d 986e 66bd
00000280: b722 ce3c 32cd 1cbb 3afd a83d 2b6b 883c
00000290: 18dc 8ebd c865 0bbd 438c 913d 6e9d 143e
000002a0: 0b62 283e 6fa3 d23d a55a 2a3e 4a8d 47bd
000002b0: ddd0 f53d 7097 193e 790a 49be c66d bf3d
000002c0: d30b 0fbe ec3f d7bd 2d3f 62bc 92b1 bb3c
000002d0: 77ac a3bd 4b13 a13c 5e15 a3bd 94b2 66bd
000002e0: cd59 483d fcc9 a33d 12bc 9cbc 6c61 29bc
000002f0: 597f 4cbd 5e83 acbd dd64 4ebd 6c02 123d
00000300: 45ce 08bd a730 213e 0bbe 123e 1d1f 1f3d
00000310: e9ab 98bd f8d3 1b3e da55 823d 77aa 303d
00000320: 853e 973c 80ea 513c 7620 333d 35a6 893c
00000330: ea19 73bd cbe0 3abb 5355 37bb abd4 b2bd
00000340: 4db6 433d 8f3f 7a3e 0451 6dbc 7684 5abc
00000350: 6bb6 14bd 99a2 50bd 61b5 173e 3ecc 533d
00000360: 411e 923d 05fe 29bd 1c93 de3c 10f8 66bc
00000370: f0fc 143e f6fc d1bd 6507 f73c 5ee8 f23d
00000380: 3321 52bd d680 4e3e 2384 563d 26e7 a63d
00000390: 561a be3c 8107 adbd c473 82bd 455b 733d
000003a0: b5a0 cb3c f3c2 8b3d ff4a 05bd 6383 15be
000003b0: 390e 39bc f1d0 8b3d 0241 f03c 263b 423d
000003c0: 520e aa3d 23af cdbb 1b25 fdbd 5df8 9bbd
000003d0: 48e6 ea3d 7243 cabd 2038 f33d 43dc d9bd
000003e0: 10a9 b93d 3bb8 913d 1b2b 72bc 1596 ae3d
000003f0: 990f a8bc e4f2 57bb b66e cc3d d69e ce3d
-0.0958015 -0.052878242 -0.11377825 0.08362822 -0.13776846 0.08981741 0.17455532 -0.030947894
0.13262472 -0.12129084 -0.012311543 0.01603142 0.0070431503 0.07178888 -0.13512199 0.09356819
-0.10600138 0.16646211 -0.11418017 0.03677587 -0.030053683 0.09576647 -0.030441727 -0.030799009
-0.030504046 0.01737538 0.06592036 0.11852924 0.045834124 -0.008283476 0.0073211123 0.14695415
-0.08488745 0.05595015 -0.069891006 -0.11740953 -0.042446278 0.10783251 0.15096913 0.15415321
0.11261493 0.08581221 0.1265907 0.0649135 -0.027289918 0.089029774 0.07854187 -0.053002063
0.17825077 0.04116162 0.044338867 0.15668418 -0.08243998 -0.036117744 -0.046869993 0.05831991
-0.034875367 0.14225955 0.122091286 -0.012484359 -0.10606427 0.061228584 -0.014831122 -0.07860375
-0.10627917 0.127155 0.19029045 -0.060375363 0.12256562 0.057982545 0.031240644 0.13681258
-0.07501689 -0.12878677 0.21488905 0.055343717 -0.03115153 0.106262565 -0.02695629 0.07060928
0.0009816302 0.07233372 0.06641603 0.085599914 0.029697308 0.017156726 0.068783134 0.04962325
0.096222706 -0.027364999 -0.12088517 -0.08335216 0.038360536 -0.1474225 -0.003011531 0.009603897
0.11493728 0.058903396 -0.065102324 0.12690772 -0.032760557 -0.020125724 -0.0631956 0.007958478
0.002831275 0.083245255 0.0026899397 -0.028983407 0.000644562 -0.25512478 -0.008938375 0.12831324
-0.082604304 0.16712202 0.09258185 -0.0019511033 0.13386004 -0.056555867 -0.08350247 0.10615253
-0.04784734 0.06709582 -0.030197406 -0.08270614 0.06611187 0.04607444 0.12987672 0.14856033
-0.14442177 -0.017558925 0.13340814 -0.076686375 -0.019196173 -0.006765049 0.15285115 -0.027993469
0.11314039 -0.08316853 -0.12546113 -0.07877081 -0.03704576 -1.305261e-05 -0.15827616 0.12408917
0.037990205 -0.0017326261 -0.0092346715 0.010773849 -0.0747381 0.024122775 0.056069974 0.048087586
0.13017811 -0.08591305 -0.1354746 0.03752215 0.033257917 0.1244406 0.06897921 -0.056257814
0.025163038 -0.0023926017 0.08251424 0.016652664 -0.06975573 -0.034032613 0.07106831 0.1451318
0.1644365 0.10285079 0.1663614 -0.048718728 0.12002728 0.14999175 -0.19632901 0.093471095
-0.13969354 -0.10510239 -0.013809008 0.02291182 -0.079918794 0.01966252 -0.0796306 -0.05632265
0.048913766 0.0799751 -0.019132648 -0.010338169 -0.049926136 -0.08423494 -0.05038916 0.03564684
-0.03339984 0.15741216 0.14330308 0.03884803 -0.07454664 0.15217578 0.06364031 0.043131318
0.018462429 0.012812257 0.04373213 0.016802887 -0.059350885 -0.0028515335 -0.0027974441 -0.087319694
0.047781277 0.24438308 -0.014484648 -0.013337245 -0.03630678 -0.050936315 0.14815284 0.051708452
0.07134677 -0.041502018 0.027169757 -0.014097229 0.14549613 -0.102533266 0.030154893 0.11860727
-0.051301192 0.20166335 0.05237211 0.08149557 0.023205917 -0.08448697 -0.06369737 0.059413213
0.024856905 0.06824293 -0.032542225 -0.14600901 -0.011294895 0.06826962 0.029327873 0.04741969
0.08303513 -0.0062769814 -0.12360593 -0.07615731 0.11469704 -0.098761454 0.11875939 -0.10637715
0.09065449 0.07115217 -0.014780785 0.085247196 -0.02051525 -0.003295117 0.09982054 0.10088889

bias f4 [10]
00000000: ad4b 233c 9092 873b 8d21 c23d 007d 923d
00000010: b2cc cabd cf3a f53c 8ebb 0e3d 71d7 01bc
00000020: 385f 1dbd 290d 7c3d
0.009966773 0.0041373447 0.094790556 0.07152748 -0.09902324 0.029935269 0.034846835 -0.0079249
-0.038420886 0.061535988
