Computational Intelligence/aeh330_5/resultsclassifier_cnn_8.model (torch, 80791 bytes, 6 tensors)

weight f4 [16, 1, 3, 3]
0	0xbe653829	-0.22384705
1	0xbe2ac5ad	-0.1667697
2	0x3db905b9	0.09034295
3	0x3e3f8ca1	0.1870599
4	0x3ea8db89	0.32979992
5	0x3dbbb14f	0.09164678
6	0xbda699af	-0.081347816
7	0xbe828a14	-0.2549597
8	0xbd50355e	-0.050832145
9	0x3dc6c348	0.09705216
10	0xbea8ef55	-0.32995096
11	0xbe51b4a3	-0.20479064
12	0x3e46d2d9	0.1941637
13	0xbe749165	-0.23883589
14	0xbd515c97	-0.05111369
15	0x3c076445	0.008263652
16	0xbec64f02	-0.38732153
17	0xbc9f3a3b	-0.019436946
18	0x3e6e4aca	0.23270717
19	0x3e854b02	0.2603379
20	0x3bc0b5e4	0.005881058
21	0xbe97d82e	-0.2965712
22	0x3d979780	0.07401943
23	0xbdd9c323	-0.106329225
24	0xbea9efd9	-0.33190802
25	0x3db86ffb	0.090057336
26	0xbde08dca	-0.10964544
27	0x3e4c4d5a	0.19951382
28	0xbe92a69d	-0.2864274
29	0xbe2ea57b	-0.17055313
30	0xbd012296	-0.031527124
31	0x3e3d9677	0.18514429
32	0xbd71f720	-0.059073567
33	0xbebbf983	-0.367138
34	0xbe82a54c	-0.25516737
35	0x3e348eb1	0.17632557
36	0xbda84c6f	-0.082177036
37	0x3e593b4d	0.21214028
38	0xbea7c6a1	-0.3276873
39	0xba9d53da	-0.0012003139
40	0x3e96376e	0.29339164
41	0x3d3f4447	0.046695974
42	0x3d99838e	0.07495795
43	0x3e170f5d	0.14751954
44	0x3e5c8eaf	0.21538804
45	0x3e048b18	0.12943685
46	0x3d25163a	0.0403044
47	0xbe6e0290	-0.23243165
48	0xbd95e718	-0.07319468
49	0xbe24e4fe	-0.16102979
50	0x3e2211c1	0.15827085
51	0x3e8086ff	0.25102994
52	0xbeb0d420	-0.3453684
53	0xbdb70396	-0.08936231
54	0x3e8413b6	0.25796288
55	0xbeb6ed8f	-0.35728118
56	0x3e1762f4	0.14783841
57	0x3e8e15f5	0.27751127
58	0x3e4b44da	0.19850484
59	0xbe9069aa	-0.28205615
60	0x3ea48909	0.321358
61	0xbd6a8dbf	-0.057264086
62	0xbea8ff25	-0.3300716
63	0xbdd45d93	-0.1036941
64	0x3dd74249	0.1051069
65	0xbd3a83f4	-0.045535997
66	0x3e478cab	0.19487254
67	0xbe1e91e1	-0.15485336
68	0xbeb8317d	-0.35975257
69	0x3e54ae28	0.2076956
70	0xbe5c00c2	-0.21484664
71	0xbd03b552	-0.032155342
72	0xbe46b951	-0.1940663
73	0xbe9819e5	-0.29707256
74	0x3e581a1d	0.21103711
75	0x3ec7ddc9	0.39036396
76	0x3d4fc19b	0.050721746
77	0xbc9b3f6e	-0.018951144
78	0xbe9988ba	-0.29987127
79	0x3e6a5074	0.22882253
80	0xbe683848	-0.2267772
81	0xbdadeefb	-0.084928475
82	0xbdc553ae	-0.09635101
83	0x3eb7f46b	0.35928664
84	0xbe8f34d2	-0.27969986
85	0x3e7e3231	0.24823834
86	0x3e0d583d	0.13803191
87	0xbdce3624	-0.1006892
88	0xbe8cb0f2	-0.2747875
89	0xbe4af91f	-0.19821595
90	0x3e54ca25	0.20780237
91	0x3cd619d7	0.026135368
92	0x3e4d13e7	0.20027123
93	0xbce9d67a	-0.028544653
94	0xbe29644c	-0.16542166
95	0xbe9f504b	-0.31115946
96	0xbea50caf	-0.3223624
97	0xbe553052	-0.20819214
98	0x3b903c1a	0.004401696
99	0x3e7d2287	0.24720202
100	0x3d64f38b	0.055896323
101	0x3e6ae1a7	0.22937642
102	0xbeabe635	-0.33574072
103	0x3d1280b5	0.035767276
104	0xbea722f8	-0.32643867
105	0xbc705e85	-0.014670973
106	0xbe7455df	-0.23860882
107	0x3df4b699	0.1194889
108	0x3e5aa605	0.21352394
109	0x3ce90daa	0.028448898
110	0xbe1c0ed7	-0.15240036
111	0xbe885627	-0.2662823
112	0x3e7abbbd	0.24485679
113	0x3e974fe1	0.2955313
114	0x3c7c8acb	0.01541395
115	0x3e9694b5	0.2941033
116	0xbeb6bf3c	-0.35692775
117	0xbda73556	-0.0816447
118	0xbdce760a	-0.10081108
119	0x3e62249d	0.2208428
120	0x3e4cbd71	0.19994141
121	0x3d31762c	0.043325588
122	0xbdc378ef	-0.095445506
123	0xbe996924	-0.29963028
124	0xbecb608a	-0.3972209
125	0x3d928361	0.07153965
126	0x3e9a0bbe	0.30087084
127	0xbeae1276	-0.3399846
128	0xbd9228e5	-0.07136706
129	0x3e01328e	0.12616941
130	0x3bfa5a93	0.007640192
131	0xbea20aaa	-0.3164876
132	0x3d925d66	0.071467206
133	0x3dd3346c	0.10312733
134	0xbda28102	-0.079347625
135	0xbe804a3a	-0.2505663
136	0xbd963bc3	-0.073356174
137	0xbdea2e75	-0.11434642
138	0x3eb154bc	0.3463496
139	0xbe2ee0e1	-0.17077972
140	0x3e0733b1	0.13203312
141	0xbe04d618	-0.12972295
142	0xbe594514	-0.21217757
143	0xbd931fa8	-0.07183772

bias f4 [16]
0	0xbd93d19a	-0.07217713
1	0x3dd9e2da	0.106389716
2	0xbedb5ac9	-0.428427
3	0xbd9bb05b	-0.076019965
4	0xbea26e75	-0.31724897
5	0xbb9aba65	-0.004721927
6	0x3c0fbe48	0.008773394
7	0x3eb3b631	0.3509994
8	0xbebfa258	-0.37428546
9	0xbe535aa5	-0.20640047
10	0x3e0ecaac	0.139445
11	0xbe9b21c2	-0.30299193
12	0xbed6f8ee	-0.41986793
13	0x3d6d8e4d	0.057997037
14	0xbe24496b	-0.16043632
15	0xbe0d65e8	-0.13808405

weight f4 [70, 256]
0	0xbd4c11bc	-0.0498216
1	0xbd85943e	-0.065224156
2	0xbd211eb0	-0.039335907
3	0xbd30dde3	-0.043180358
4	0x3d3bf980	0.04589224
5	0xbd6a1ed8	-0.05715832
6	0x3dc1b0b5	0.09457532
7	0xbc9d7c70	-0.019224375
8	0x3d82434f	0.06360494
9	0x3e21ab80	0.15788078
10	0xbdd8f64a	-0.10593851
11	0x3d3b0dcb	0.04566745
12	0x3b283f34	0.0025672438
13	0x39d24af6	0.00040110172
14	0x3da22148	0.07916504
15	0xbc431d5f	-0.011908858
16	0xbc1b2e4c	-0.009471487
17	0x3b8b23fd	0.0042462335
18	0xbd5fffb3	-0.054687213
19	0xbd178688	-0.036993533
20	0x3d9b8487	0.07593637
21	0xbd534e4c	-0.05158834
22	0xbd8ec491	-0.06971086
23	0x3c6c92a1	0.014439256
24	0x3de5820a	0.112064436
25	0xbdfbc7c6	-0.12293963
26	0xbac65576	-0.001513167
27	0xbc4fb4de	-0.012677399
28	0x3db34151	0.087526925
29	0x3c637268	0.013882257
30	0xbc05fb06	-0.008177524
31	0xbd0f1ae8	-0.03493777
32	0x3cef2efb	0.029197207
33	0xbd399ec7	-0.045317437
34	0xbc25820d	-0.010101807
35	0xbe145993	-0.14487295
36	0xbe4be493	-0.19911413
37	0x3c8723b0	0.01649651
38	0xbdacdf1b	-0.084409915
39	0x3d9466a8	0.072461426
40	0xbe13b0a8	-0.14422858
41	0x3d8f9f50	0.07012808
42	0x3c1816d2	0.009282785
43	0xbd093dea	-0.03350631
44	0xbc081c36	-0.008307507
45	0x3cc7ec65	0.024404714
46	0xbb1109ed	-0.002213116
47	0xbdf2c6a0	-0.11854291
48	0x3d280671	0.041021768
49	0x3d6b04e6	0.05737772
50	0x3e03ca8a	0.12870231
51	0xbdee6a7b	-0.11641403
52	0x3d5b1962	0.053491004
53	0xbd368455	-0.044559795
54	0xbcff907a	-0.031196821
55	0x3e0bd21f	0.13654374
56	0xbd2f1e3b	-0.04275344
57	0xbd4f3a18	-0.050592512
58	0xbd924f1d	-0.07143996
59	0xbe2775cf	-0.16353534
60	0xbd773e7b	-0.06036232
61	0x3d95a010	0.0730592
62	0x3d0fa087	0.0350652
63	0xbceb84fa	-0.028749932
64	0xbc1b328f	-0.009472503
65	0xbcfdc9e3	-0.030980056
66	0x3d090ed4	0.033461407
67	0x3c9e2a47	0.019307269
68	0x3d1ddaa8	0.038538605
69	0xbccabe71	-0.024749013
70	0x3d0fd8d5	0.035118897
71	0x3d4b2067	0.04959145
72	0xbc47814b	-0.012176822
73	0xbb01ecf4	-0.0019825073
74	0x3cfce742	0.030871991
75	0xbdcc4e14	-0.0997583
76	0xbe44c7cc	-0.19216841
77	0xbd7fd6bf	-0.062460657
78	0x3c339f59	0.010963284
79	0xbca8bbc7	-0.020597352
80	0xbddee69c	-0.10883829
81	0x3d9ba6d7	0.076001815
82	0xbcf5e461	-0.030016126
83	0xbda23215	-0.07919709
84	0x3db6681b	0.08906575
85	0xbe1a69bd	-0.15079398
86	0xbdd9a80f	-0.10627758
87	0xbb17ef1a	-0.0023183287
88	0x3dba9baa	0.09111722
89	0xbdde597c	-0.108569115
90	0x3d074d81	0.033032898
91	0x3bdd3458	0.0067506246
92	0xbd7e5948	-0.062096864
93	0x3e3f8a6d	0.18705149
94	0xbda59b24	-0.08086231
95	0xbd22f437	-0.039783683
96	0x3df0bc80	0.117547035
97	0x3cad70b6	0.021171909
98	0xbd8b733c	-0.068090886
99	0xbd9130d7	-0.070893936
100	0xbceb57bc	-0.028728358
101	0x3e26c65f	0.1628661
102	0xbac4e75d	-0.0015022565
103	0x3d7826bc	0.060583815
104	0xbdbe20b6	-0.09283583
105	0x3dc57e61	0.096432455
106	0xb9a7af51	-0.00031983343
107	0xbdb02fca	-0.08602865
108	0x3df39527	0.11893683
109	0xbe3918d0	-0.18075871
110	0x3c48f76c	0.012266021
111	0xbd02c671	-0.03192753
112	0x3df4d75e	0.119551405
113	0x3e01a022	0.12658742
114	0x3ca741b6	0.020417076
115	0xbc877ecf	-0.01653996
116	0xbc4dda1e	-0.01256421
117	0xbe4af125	-0.19818552
118	0x3d440543	0.04785658
119	0xbc2bfa24	-0.01049665
120	0x3d1b1da4	0.037870064
121	0xbcd8334a	-0.026391644
122	0x3d671a08	0.05642131
123	0xbd1c16cc	-0.03810768
124	0x3daef740	0.08543253
125	0xbdd75cb4	-0.105157286
126	0x3c9edd3b	0.0193926
127	0xbd2339df	-0.039850112
128	0xbe471b4e	-0.1944401
129	0x3d3eb4d6	0.046559177
130	0xbd3c0958	-0.04590735
131	0xbe1c1a5f	-0.15244435
132	0x3ca4f631	0.020136924
133	0xbd64186f	-0.055687364
134	0x3d37a85d	0.044838298
135	0xbd6cd39a	-0.057818986
136	0xbc6daab9	-0.0145060355
137	0xbacf7b13	-0.0015829526
138	0x3d0b3222	0.033983357
139	0x3d38fde8	0.04516402
140	0xbd162baf	-0.036662754
141	0xbd541a83	-0.051783096
142	0x3c225042	0.00990683
143	0x3d8f21e6	0.069888875
144	0xbe2032d3	-0.15644388
145	0xbc57a22c	-0.013161223
146	0xbd7ad699	-0.061239813
147	0x3d943783	0.072371505
148	0x3a577e28	0.0008220398
149	0xbce5e27c	-0.028062098
150	0xbddbebbd	-0.10738323
151	0x3dcd8424	0.100349694
152	0x3d40ec1f	0.047100183
153	0x3e01899c	0.1265015
154	0xbdae7494	-0.08518329
155	0x3dce7888	0.10081583
156	0xbccfc79b	-0.025363734
157	0x3b48254e	0.0030539813
158	0x3c1f17e3	0.009710285
159	0xbcbe845f	-0.023256479
160	0x3bcb1013	0.0061969846
161	0x3c10028b	0.008789669
162	0x3d58560d	0.05281644
163	0xbd80c285	-0.06287102
164	0xbcd9b196	-0.026573937
165	0xbe24652c	-0.16054219
166	0xbd968e2f	-0.07351338
167	0x3ce5b1fc	0.028038971
168	0xbdaa334c	-0.08310565
169	0xbd82fb3d	-0.06395576
170	0xbcfaf25c	-0.030633144
171	0xbd6dc8dc	-0.058052883
172	0x3d946880	0.07246494
173	0x3d998afe	0.07497214
174	0xbcb32363	-0.02186746
175	0xbd2cfb35	-0.042231757
176	0x3da4d0bb	0.08047625
177	0xbd2bd652	-0.04195244
178	0xbcd59359	-0.026071237
179	0xbda6e2c7	-0.08148723
180	0xbd951236	-0.07278864
181	0xbe1ecac6	-0.1550704
182	0xbdb17b52	-0.086660996
183	0xbc99698b	-0.018727085
184	0x3ca527ea	0.020160634
185	0x3d85f418	0.06540698
186	0xbb647824	-0.0034861648
187	0x3c01f17b	0.007931109
188	0x3d7af796	0.061271273
189	0x3dcdb336	0.100439474
190	0xbcf5b68c	-0.029994272
191	0xbc39a709	-0.011331328
192	0xbe236d91	-0.15959765
193	0x3cda9030	0.026680082
194	0x3a6436ed	0.00087056943
195	0xbdacbaef	-0.08434092
196	0xbda89dda	-0.08233233
197	0xbd73f32c	-0.05955808
198	0x3b00e178	0.001966564
199	0xbd3db81d	-0.046318162
200	0xbdd9d583	-0.10636427
201	0x3ca5323b	0.020165553
202	0xbc82f5e6	-0.015986394
203	0xbc81fc7c	-0.015867464
204	0xbe000e52	-0.12505463
205	0xbce59c79	-0.028028714
206	0x3d2f0222	0.042726643
207	0xbcea087a	-0.028568495
208	0xbd65341d	-0.055957902
209	0xbbbe8f44	-0.0058154184
210	0xbcfc24e6	-0.030779313
211	0x3cbe6630	0.023242086
212	0x3d1aa3f4	0.037754014
213	0xbd8f1701	-0.069868095
214	0xbdaf8002	-0.085693374
215	0x3dd6adfa	0.10482402
216	0xbd7e2d39	-0.062054846
217	0x3be27639	0.006911066
218	0xbd9d654b	-0.07685336
219	0xbe02c41b	-0.12770121
220	0xbd38a059	-0.045074794
221	0x3cbbc7c4	0.022922404
222	0x3d8b5836	0.06803934
223	0x3d07c710	0.033148825
224	0x3def93c4	0.11698106
225	0x3d79d9fa	0.060998894
226	0x3df91392	0.12161936
227	0xbd89929b	-0.06717416
228	0x3d05f155	0.032700855
229	0x3d86927d	0.06570909
230	0xbcbd5e33	-0.023116207
231	0x3cb1855d	0.021670038
232	0x3d96d38a	0.073645666
233	0xbd3df43c	-0.0463755
234	0x3ce46085	0.027878055
235	0xbd122dd7	-0.035688248
236	0x3d2ef852	0.042717285
237	0x3dc93449	0.09824426
238	0xbdbd642c	-0.09247622
239	0xbceebe84	-0.02914358
240	0x3a04b799	0.00050627586
241	0xbd517fc8	-0.051147252
242	0x3d8f8153	0.070070885
243	0xbd41b547	-0.04729202
244	0x3d3315db	0.043722015
245	0x3c6465d9	0.013940298
246	0xbdd1904e	-0.10232602
247	0xbd1afd9f	-0.03783953
248	0xbc2badaa	-0.010478416
249	0x3c29e671	0.010369883
250	0x3dae8df6	0.08523171
251	0xbd88d167	-0.06680565
252	0xbdd4beff	-0.10387992
253	0x3d41d5f5	0.047323186
254	0x3d4c6288	0.049898654
255	0x3dd4dee4	0.103940755

bias f4 [70]
0	0x3cd1c508	0.025606647
1	0x3bacc80b	0.0052728704
2	0x3c212313	0.0098350225
3	0xbd0ae3ec	-0.03390877
4	0xbcf25019	-0.02957921
5	0xbb75c37a	-0.0037500546
6	0x3d03d96c	0.03218977
7	0x3a38335f	0.0007026698
8	0xbcb6c965	-0.02231283
9	0x3d42fb37	0.04760286
10	0xbd084fbf	-0.033279177
11	0xbcb058a2	-0.021526638
12	0x3d27e0f1	0.040986005
13	0xbd657ee0	-0.0560292
14	0xba4583dc	-0.0007534602
15	0x3c02889e	0.007967142
16	0x3cbbb1eb	0.022911986
17	0xbd07bdd5	-0.033140022
18	0xbbe276a4	-0.0069111157
19	0xbd687b14	-0.056758
20	0xbd59fd88	-0.053220302
21	0x3c9dcca9	0.019262629
22	0x3d1ca70d	0.03824525
23	0xbd06cf05	-0.032912273
24	0x3d581f50	0.052764237
25	0xbd3852ec	-0.045000955
26	0xbb7aa30e	-0.003824416
27	0xbd2829dc	-0.041055545
28	0xbd8205f3	-0.06348791
29	0xbaa41796	-0.0012519236
30	0xbb163c86	-0.0022924258
31	0x3d29d82c	0.041465923
32	0x3d488988	0.048959285
33	0x3c8586b2	0.01629958
34	0xbd5e072c	-0.05420606
35	0x3d8ee1d8	0.0697667
36	0xbd0d8722	-0.0345527
37	0x3ce7b14c	0.028282784
38	0xbd038bd0	-0.032115757
39	0x3c7f9e1b	0.01560166
40	0x3b02c1a6	0.001995185
41	0x3d42b9a6	0.04754033
42	0xbd8238de	-0.06358503
43	0xbc7ac5c1	-0.015305937
44	0x3b43b5a4	0.0029862905
45	0xbd4734ee	-0.048634462
46	0x3d3a5e42	0.045500048
47	0xbcb46f89	-0.02202584
48	0x3ca514f2	0.020151589
49	0x3c0f9702	0.00876403
50	0x3d897f80	0.06713772
51	0xbbd8eda3	-0.0066201254
52	0x3cafb98a	0.021450777
53	0x3c35320c	0.011059295
54	0xbd407d2c	-0.046994373
55	0x3d6c4c6b	0.057690065
56	0x3c199117	0.009372971
57	0x3d702c3c	0.058635935
58	0xbd365eaa	-0.044523872
59	0xbcd7f850	-0.026363522
60	0x3d25c0ce	0.040467076
61	0x3d4cf675	0.050039727
62	0xbc944914	-0.018101253
63	0x3ccb5baf	0.024823992
64	0x3cbe7cca	0.023252863
65	0xbd04ec54	-0.032451943
66	0xbce51fbc	-0.027969234
67	0x3b98fcb4	0.0046687964
68	0x3cbaaa14	0.022786178
69	0x3d4b1f33	0.0495903

weight f4 [10, 70]
0	0xbe412f44	-0.18865687
1	0x3e614547	0.21999083
2	0xbcc372ae	-0.023858394
3	0x3d41ffb6	0.047363006
4	0xbd712703	-0.058875095
5	0xbdd3eee4	-0.10348299
6	0x3e5bbbfe	0.21458432
7	0x3e1ea373	0.15492038
8	0x3e2e2b11	0.17008616
9	0x3e05f54c	0.13081855
10	0x3df28b5e	0.118429884
11	0xbddaf83d	-0.10691879
12	0xbe28cdea	-0.164848
13	0xbde4dc23	-0.111748
14	0xbdfe05aa	-0.12403424
15	0x3d4368d6	0.0477074
16	0xbdd5c994	-0.104388386
17	0x3dbe3661	0.09287716
18	0xbe2a22b4	-0.166148
19	0xbe108295	-0.14112313
20	0x3e09714e	0.13422129
21	0xbd86e6cd	-0.065869905
22	0xbe402953	-0.18765764
23	0xbdb82c6b	-0.08992847
24	0x3e0c3913	0.13693647
25	0xbdbc0a4e	-0.09181653
26	0xbdd1fd74	-0.102534205
27	0x3e041aa7	0.12900792
28	0xbeae2247	-0.34010527
29	0xbda2c30a	-0.07947357
30	0xbcbc6c80	-0.023000956
31	0xbdcd2947	-0.10017639
32	0x3e068b63	0.1313911
33	0xbe18804e	-0.14892694
34	0xbe3d7932	-0.18503264
35	0xbe0f8b37	-0.1401795
36	0xbe153156	-0.14569601
37	0x3e3495bc	0.17635244
38	0xbcc8dc90	-0.024519235
39	0xbe28df26	-0.16491374
40	0xbb866725	-0.0041016513
41	0x3dd9fa11	0.106433995
42	0xbc5fccf3	-0.013659704
43	0x3dcf294d	0.101152994
44	0x3d41aeb3	0.047285747
45	0x3e3cb7f6	0.1842955
46	0xbcc3e8d6	-0.023914736
47	0x3dad6da5	0.08468179
48	0xbde5311a	-0.11191006
49	0xbdf049a0	-0.11732793
50	0xbd24bfca	-0.040221967
51	0xbc9dd415	-0.019266168
52	0xbdd32f41	-0.10311747
53	0xbe753ce6	-0.23949012
54	0xbd340cbc	-0.043957457
55	0xbdc82779	-0.09773154
56	0x3e2903c2	0.1650534
57	0xbdff9f00	-0.12481499
58	0x3d621070	0.055191457
59	0xbe024905	-0.12723167
60	0xbe080754	-0.13284045
61	0xbe120d89	-0.14262976
62	0x3e1941f4	0.14966565
63	0xbdd92677	-0.1060304
64	0xbe3d47d4	-0.18484432
65	0xbe02925d	-0.12751146
66	0x3de23060	0.11044383
67	0x3e4ea79a	0.20181122
68	0x3caa1570	0.020762175
69	0xbdd54f9b	-0.10415574
70	0x3cc06b42	0.023488645
71	0xbda51db4	-0.08062306
72	0xbd96148d	-0.073281385
73	0xbe0c8d38	-0.13725746
74	0xbd89097e	-0.066912636
75	0x3cdb41d4	0.026764788
76	0xbde7d2ff	-0.11319541
77	0xbe65d6ef	-0.22445272
78	0xbb616e21	-0.0034397917
79	0x3ec534c3	0.38516816
80	0xbe08b627	-0.13350736
81	0x3e2a238d	0.16615124
82	0x3c00111d	0.00781658
83	0x3e640590	0.22267747
84	0xbd9e72db	-0.07736751
85	0xbe390234	-0.18067247
86	0x3e0d5bb1	0.13804509
87	0xbe199a58	-0.15000284
88	0x3d105802	0.03524018
89	0x3e68fb7f	0.22752188
90	0xbe672e3b	-0.2257623
91	0x3e48363c	0.19551939
92	0x3e9f7976	0.31147355
93	0x3eacce75	0.33751264
94	0xbe024387	-0.12721072
95	0x3dc0d021	0.094146974
96	0xbdec2d62	-0.115320936
97	0xbd9023ef	-0.07038104
98	0xbd0c16fc	-0.034201607
99	0x3d0009cb	0.03125934
100	0xbd60c209	-0.054872546
101	0x3c0f72c7	0.008755392
102	0x3e8f27dc	0.27960098
103	0x3d1fbe7f	0.03900003
104	0xbd42dc8b	-0.047573607
105	0x3cd3c804	0.02585221
106	0x3d19ee50	0.037580788
107	0xbea1d188	-0.31605172
108	0x3da57b5b	0.08080169
109	0x3e9092f4	0.28237116
110	0x3e3de96c	0.18546075
111	0xbd3e5db7	-0.046476092
112	0xbe5db312	-0.21650341
113	0xbe215e1a	-0.15758553
114	0x3cf95528	0.030436113
115	0xbe7222f6	-0.23646149
116	0x3e33c417	0.17555271
117	0x3dcf8706	0.101331756
118	0x3e583838	0.21115196
119	0x3dbe86b3	0.093030356
120	0x3e987083	0.2977334
121	0x3e2cc304	0.16871268
122	0xbe36587b	-0.1780719
123	0x3e489fd9	0.19592227
124	0xbce0fff9	-0.027465807
125	0x3e13c7a7	0.1443163
126	0xbe643c1d	-0.22288556
127	0x3d98acd3	0.074548386
128	0xbbc6ad5c	-0.0060631465
129	0x3e67609b	0.22595446
130	0x3e75cac5	0.24003132
131	0x3e101fad	0.14074583
132	0x3e56844b	0.20948903
133	0x3dfe7c99	0.12426109
134	0x3ddb8862	0.10719372
135	0xbe8f51dd	-0.27992144
136	0x3d968ab5	0.07350675
137	0x3d03feb9	0.032225344
138	0x3dc0461d	0.09388373
139	0xbde06ad0	-0.10957873
140	0xbe328db8	-0.17436874
141	0xbd42afa9	-0.047530804
142	0xbe319b09	-0.17344297
143	0xbd896d71	-0.067103274
144	0x3eaffe89	0.34373882
145	0x3e6c82cd	0.23096772
146	0x3d481660	0.048849463
147	0xbe01775a	-0.12643185
148	0xbde71e5c	-0.112850875
149	0xbe3402b2	-0.17579153
150	0xbe11ac5b	-0.14225905
151	0x3e21b00f	0.15789817
152	0xbd7416bb	-0.05959199
153	0x3dc9e918	0.09858912
154	0xbe657fe6	-0.2241207
155	0x3e05b787	0.13058291
156	0x3e3bcca7	0.18339787
157	0x3e4428ce	0.19156191
158	0x3b9fc70d	0.0048760236
159	0xbe8e911f	-0.27845094
160	0xbe2081ff	-0.1567459
161	0xbe42246f	-0.18959211
162	0x3cc0a059	0.02351396
163	0xbe0d1c0b	-0.13780229
164	0xbdf60cbd	-0.120141484
165	0xbd2aa396	-0.041659914
166	0x3e28ab66	0.16471633
167	0xbe56d860	-0.20980978
168	0x3c031297	0.008000038
169	0x3e39274f	0.18081401
170	0xbea3bd6e	-0.3198046
171	0xbb3d8b1d	-0.002892203
172	0x3e926226	0.28590506
173	0x3d58b785	0.052909393
174	0xbe08cc2a	-0.13359132
175	0xbeb13997	-0.3461425
176	0x3e6ada5a	0.22934857
177	0x3e83ba16	0.2572791
178	0x3e482246	0.19544324
179	0x3e4cbdc1	0.1999426
180	0xbd752030	-0.05984515
181	0x3dd4a62a	0.10383256
182	0xbd0624e3	-0.03275002
183	0x3d0e977f	0.034812447
184	0xbd5fd893	-0.0546499
185	0xbe94e7b7	-0.29083034
186	0x3d98340c	0.07431802
187	0xbd643a20	-0.055719495
188	0x3de52086	0.11187844
189	0xbe9a3ae8	-0.30123067
190	0x3e25e687	0.1620122
191	0xbe36a09a	-0.17834702
192	0x3e9fde96	0.31224507
193	0x3d9ba959	0.0760066
194	0xbc97bd7f	-0.018522976
195	0x3e557c74	0.20848256
196	0xbdc64645	-0.096813716
197	0x3e3fee3d	0.18743224
198	0x3bf9d792	0.007624575
199	0xbd8dc194	-0.06921688
200	0xbe761c63	-0.24034266
201	0x3e25d14c	0.16193122
202	0xbd305705	-0.04305174
203	0xbe8a260d	-0.26982155
204	0xbe6ad3ec	-0.22932404
205	0xbd708100	-0.058716774
206	0x3e2757bb	0.1634206
207	0x3e2c0858	0.16800058
208	0xbe5938a3	-0.21213011
209	0xbc8f4d1e	-0.017492827
210	0xbdd9891e	-0.10621856
211	0xbe2b2e28	-0.16716826
212	0xbe0f39f4	-0.13986951
213	0x3e22634f	0.15858196
214	0x3e9aa575	0.3020436
215	0xbe0c624b	-0.13709371
216	0xbc622dd3	-0.013804871
217	0x3e41fc82	0.1894398
218	0xbe1558e4	-0.1458469
219	0xbe47f302	-0.19526294
220	0x3ea9a9a4	0.33137238
221	0x3cd010c9	0.025398629
222	0xbe1f58da	-0.15561238
223	0xbc9afdcc	-0.018919848
224	0xbe2d361d	-0.16915174
225	0x3c6471cc	0.013943147
226	0x3e4f6a68	0.20255435
227	0x3d0da99e	0.034585588
228	0xbd7916d3	-0.060812782
229	0xbe83aa6a	-0.25715953
230	0x3ea3c557	0.31986496
231	0x3dc54366	0.09631996
232	0x3e9c8463	0.30569753
233	0xbcc0d565	-0.023539254
234	0xbd7e89e8	-0.062143236
235	0xbe39dc47	-0.18150435
236	0xbe1e2095	-0.15442117
237	0x3ceb67cb	0.028736016
238	0xbd091914	-0.033471182
239	0xbe7e9c25	-0.24864252
240	0xbd76105b	-0.06007419
241	0x3d4f580f	0.05062109
242	0xbea79ff4	-0.32739222
243	0x3e5eb52a	0.21748796
244	0x3e688a8a	0.22709098
245	0x3e22760d	0.15865345
246	0xbd369be4	-0.044582263
247	0x3e3022cb	0.17200772
248	0xbe44fa9e	-0.19236228
249	0xbe804bb7	-0.25057766
250	0xbe5adcc1	-0.21373273
251	0x3de0bd6e	0.10973631
252	0xbd61e953	-0.055154156
253	0x3d973681	0.07383443
254	0x3d5f9811	0.05458838
255	0xbe08d263	-0.13361506

bias f4 [10]
0	0xbd65fbfe	-0.05614852
1	0x3df5c018	0.119995296
2	0x3da5c458	0.0809409
3	0xbd79c888	-0.060982257
4	0x3dd4c538	0.10389179
5	0x3caa03b0	0.020753711
6	0x3d268d90	0.04066235
7	0x3d8f91f5	0.07010261
8	0x3bf1fe10	0.007385023
9	0x3dcb5cdd	0.09929822
