Computational Intelligence/aeh330_5/resultsclassifier_cnn_16.model (torch, 153183 bytes, 6 tensors)

weight f4 [32, 1, 3, 3]
000000 7b 4d 98 be 5b e5 aa 3d 26 49 6e be 10 16 96 ba
       -0.29746613 0.08344527 -0.23270091 -0.0011450667
000010 90 14 1a 3e 5c ef 2c 3b cc 34 61 3e c7 20 8f 3e
       0.15046906 0.0026387786 0.21992797 0.27954695
000020 c1 00 8f 3c fb 6d ca bd 20 ec a3 be 0a 17 31 3e
       0.017456414 -0.09884258 -0.32016087 0.17293945
000030 16 76 6a 3e e7 94 f7 3d b6 a4 c1 bd 58 db 21 3e
       0.22896609 0.12088948 -0.09455244 0.15806329
000040 43 e4 40 bd d6 eb a7 be eb 78 a8 be fa df 88 bc
       -0.047092687 -0.32797116 -0.32904753 -0.016708363
000050 24 96 24 bd c3 fe e2 3c ad f5 28 3d 0b f2 90 be
       -0.040182248 0.02770937 0.04124992 -0.28309664
000060 65 9d 08 3e 70 aa 99 3d 0d 73 44 3e 84 31 89 3e
       0.13341291 0.075032115 0.19184513 0.2679559
000070 75 28 2d 3e f8 06 28 be 9d b1 7f 3e 42 cd 06 3b
       0.16909964 -0.16408908 0.24970098 0.002056912
000080 3e 8e ae bd 9d b1 9a bc 3e 3b 9d be 9a 69 8c 3d
       -0.08523224 -0.01888352 -0.3070926 0.068560794
000090 c5 62 d1 be f2 8f b8 be b8 8d e5 bd 2d 39 26 3e
       -0.40895668 -0.36047322 -0.11208671 0.16232748
0000a0 17 06 19 3e ee 47 80 3e 46 b0 82 3e 3f 0b b9 bd
       0.1494373 0.25054878 0.2552511 -0.09035348
0000b0 81 26 3c be c4 ce 29 3d 58 10 7b 3e af 48 4b be
       -0.18374063 0.041456953 0.24517953 -0.19851945
0000c0 5c 0a 19 3e f1 a5 e5 3b 62 d6 8c 3d 92 aa be be
       0.14945358 0.007008307 0.06876828 -0.3723951
0000d0 08 72 8e 3e 56 a9 ce bc 8d 4e be 3d 51 22 a8 bd
       0.27821374 -0.02522723 0.09292326 -0.0820967
0000e0 ee 7e af be 5d a1 87 3e 1d 68 44 3c ea 85 65 3e
       -0.34276527 0.26490298 0.011987713 0.22414365
0000f0 58 43 3e 3e 48 d2 0c be 27 42 cb 3d 4a 1b 43 be
       0.18580377 -0.13752091 0.09924727 -0.19053379
000100 3a 9d b6 3e 0b 99 31 be c6 ad 0b be 69 fb 2e 3e
       0.3566683 -0.17343538 -0.13640508 0.17088093
000110 14 83 85 be e0 eb 0a 3e ac 2a e0 3d c1 17 a1 be
       -0.26076567 0.13566542 0.10945639 -0.31463435
000120 f7 1c bd be 7d 0c cd 3c 58 ac ef bd 31 d1 84 bd
       -0.3693616 0.025030369 -0.11702794 -0.064852126
000130 b8 fd 07 3e 33 14 02 3e 7f 40 b0 3d 7b 4a 86 3e
       0.1328038 0.12703018 0.08606052 0.262287
000140 5f 6f 3c 3d 50 47 1f 3e 6d c4 9b 3e c7 d8 83 be
       0.04600465 0.15554547 0.30423298 -0.25751325
000150 f5 f2 c2 3d b1 b0 a4 bd c8 64 90 be da 8a ef bd
       0.095189966 -0.08041514 -0.2820189 -0.11696406
000160 19 f7 47 3e ee 2a 94 be c6 5a 16 3e 65 b7 01 3e
       0.19527854 -0.28939003 0.14683065 0.12667616
000170 5b 27 f5 3d 10 69 f9 3c 82 e0 42 3c 72 50 04 3e
       0.11970397 0.030445606 0.011894347 0.12921312
000180 85 7f 6d 3e 51 e9 81 be 8b 26 8b be be 1b 39 3e
       0.23193176 -0.2537332 -0.27177843 0.18076989
000190 e9 a6 b6 be fb 5d 97 be 9d 32 3f be 34 4d 41 be
       -0.35674217 -0.2956389 -0.18671651 -0.18877107
0001a0 f8 0f 96 bd 0b de 59 3e 31 bc be 3e 43 42 d6 3e
       -0.073272645 0.21276109 0.37252954 0.4184743
0001b0 59 2d 5c 3e 71 c4 bb bd d7 54 96 bc 1f 17 af bd
       0.21501674 -0.091683276 -0.018351002 -0.08549332
0001c0 cd 07 a8 3d 51 19 2f 3e 1d 10 31 3e a7 5f 1e be
       0.08204613 0.17099501 0.17291303 -0.15466176
0001d0 44 58 2e 3e f9 c4 49 3e ca cf 51 3e 1d c4 81 be
       0.17025858 0.19704045 0.20489421 -0.25344935
0001e0 f5 87 6b 3e 7e 76 bf bd 60 76 c4 bd 57 90 97 3e
       0.23001082 -0.093487725 -0.09592891 0.2960231
0001f0 5d e0 4a be 1d 7e 78 be 10 4d f6 3c 0a 22 b0 3c
       -0.1981215 -0.24266858 0.030066043 0.021500606
000200 8f 42 32 be 15 61 b4 be 2a 3f e6 be ac 36 3c be
       -0.17408203 -0.35230318 -0.44970065 -0.1838023
000210 c5 d4 d6 3e a6 2b 87 3c d4 5b 72 be 5f 55 1e be
       0.41959205 0.016500305 -0.23667842 -0.15462254
000220 57 45 53 be 6a f0 4f be 6e 9a ad 3d e5 10 6b be
       -0.2063192 -0.20306554 0.08476721 -0.22955664
000230 ba b7 c7 3e 40 67 b3 3e 18 f6 53 be 02 87 5f be
       0.3900736 0.3503971 -0.20699346 -0.21828845
000240 4c 02 02 bd b6 56 77 3e c1 47 51 be 48 d9 e0 3d
       -0.03174047 0.24154171 -0.20437528 0.10978943
000250 74 39 e8 bb f2 cb ee 3d a0 b4 61 3e 49 8e 36 bd
       -0.007086927 0.11659993 0.22041559 -0.044569287
000260 bf a3 17 be 7e cb 7a be 9b 8d 3f be 68 1e 75 3e
       -0.14808558 -0.24491689 -0.18706362 0.2393738
000270 83 72 a3 3d 0c b6 18 3d ab c4 a9 3d fb d1 9e 3e
       0.07980826 0.03728299 0.082894646 0.31019577
000280 f6 23 85 bd 69 7f 8e be d7 45 13 be 80 b9 f0 3d
       -0.06501 -0.2783158 -0.1438211 0.11754131
000290 5c 0d 03 3e f8 32 ae 3d 32 2c 5e be 02 f9 7e bd
       0.12798065 0.08505815 -0.21696547 -0.06224919
0002a0 b4 e5 17 3d 3b d7 af 3d d8 ad 81 bd 10 ae 8e 3e
       0.037084296 0.08585974 -0.06331986 0.27867174
0002b0 0b 25 7a be 4a dc 65 be 74 cb 9c bd ac 8e 13 be
       -0.24428193 -0.22447315 -0.07655993 -0.14409894
0002c0 15 7f 62 3e e5 87 2d be 4d fe c3 bc 8a 82 ea 3d
       0.2211879 -0.16946371 -0.023924971 0.114506796
0002d0 bd 2b 96 3e 8c c7 e9 bd 01 bc a0 3d 63 63 b2 be
       0.29330245 -0.11415014 0.07848359 -0.3484145
0002e0 fb c5 98 3e 5c 9c 88 be 89 87 99 be ff fc 95 3e
       0.29838547 -0.26681793 -0.29986218 0.29294583
0002f0 f4 bd 54 bd c9 38 8c be 7e 78 f5 3d 69 34 5f 3e
       -0.051938966 -0.27387074 0.11985873 0.21797337
000300 8a 56 b1 be 1e a0 5d be d6 a5 1f 3e 81 c3 a0 bc
       -0.34636337 -0.21643111 0.15590605 -0.019624474
000310 ae 01 2a 3d 29 0f 02 3e f0 d1 00 3e 5b 3f 9b be
       0.041505508 0.12701096 0.12580085 -0.30321774
000320 c9 8b 30 bd dd 9c 03 3c 3c 68 33 3d 69 b2 5e be
       -0.04310206 0.008033005 0.043800578 -0.21747746
000330 8a 15 1a be c2 89 d7 3e 49 61 9a 3d 8b 4a 8d 3e
       -0.15047279 0.42097288 0.07538087 0.27595934
000340 a0 e3 92 3e 49 c2 8d 3e 1f 79 62 be 18 aa bd bd
       0.2868929 0.2768729 -0.22116517 -0.092609584
000350 b8 e2 83 be 67 d1 94 bd 7a b4 5e be 9a 51 7d bd
       -0.2575891 -0.07266503 -0.21748534 -0.0618454
000360 63 44 64 3d 4d 92 1e 3e 35 70 27 3e be ca 1a 3e
       0.05572928 0.15485497 0.16351397 0.15116403
000370 cd c4 90 be 02 56 d8 bd 5c 44 c9 bc 12 52 41 be
       -0.28275147 -0.1056328 -0.02456873 -0.18878964
000380 92 e8 23 3d 9d 41 0e 3e 08 87 52 3b 25 a4 a3 3e
       0.04001672 0.13892217 0.0032123942 0.3196117
000390 23 bd 4b 3e 44 4d a4 be 94 06 a7 be 66 1f 81 be
       0.19896369 -0.320902 -0.32622206 -0.25219268
0003a0 4f 60 3d 3e ce b8 75 bd ec 0a c8 3d 7e a0 16 b9
       0.1849377 -0.059990697 0.09767708 -0.00014364903
0003b0 7a 76 bc 3d d2 1a 16 3e 5b ac 8e 3d 1f d5 99 be
       0.09202285 0.14658669 0.06966468 -0.3004541
0003c0 c8 dc 78 be 9d 19 ae 3d 4f 85 24 3e 37 7c ce 3d
       -0.24302971 0.08500979 0.16066478 0.10082286
0003d0 c7 57 35 3e 0d ec a9 3d 9e 97 75 3e 25 9e 28 be
       0.17709266 0.08296976 0.23983619 -0.16466577
0003e0 37 0a 8e 3e b3 28 b7 be 1f 79 fd bd 08 b6 f6 bc
       0.27742168 -0.3577324 -0.12376618 -0.030116096
0003f0 d0 31 87 be db ba b7 bd f2 67 33 3d d2 9d b8 3e
       -0.2640519 -0.08971187 0.0438003 0.36057907

bias f4 [32]
000000 c8 51 6a 3d f1 46 8d 3d 26 d8 40 3e 6f 3e 04 3e
       0.0572069 0.068982966 0.18832454 0.12914442
000010 36 92 85 3e 17 2d ac be c1 45 62 3e 5e c7 f4 bb
       0.26088113 -0.3362815 0.22096922 -0.0074700555
000020 bf d8 73 3b 60 9c 75 3e a3 a9 01 3e 55 f2 8e be
       0.0037208048 0.23985434 0.12662368 -0.2791926
000030 5e 72 19 3e 7a 59 68 be 15 05 c7 3d a8 51 f1 bd
       0.14985034 -0.22690383 0.09717766 -0.11783153
000040 ab 33 13 3d a8 c3 1f be e9 1c 39 ba ad 8c f2 3b
       0.035937946 -0.1560198 -0.0007061498 0.0074020238
000050 bb 8e 74 3d e6 40 3f 3e 38 20 cd bd 6f 49 a2 3d
       0.05970643 0.186771 -0.10015911 0.079241626
000060 87 44 c4 bc e6 69 45 3e cc 97 88 be fb 46 54 bd
       -0.023958458 0.19278678 -0.26678312 -0.051825505
000070 eb 98 03 3e 1f 15 34 be 39 80 1b be af 5f c5 bd
       0.12851302 -0.17586182 -0.15185632 -0.09637391

weight f4 [70, 512]
000000 36 7d 48 bc 7f 3d 83 bc 8d fe 33 bd c8 fc 5e bd
       -0.012236884 -0.016020535 -0.04394393 -0.05444029
000010 1e c8 ea 3a 0b fb e8 39 51 1a a4 bc cd b7 6c bc
       0.0017912423 0.0004443753 -0.02003208 -0.014448118
000020 8d 64 68 bd d8 3b cf bc 53 01 08 3c 1d e4 84 bd
       -0.056736518 -0.02529709 0.008301097 -0.06488822
000030 d2 d1 8b bd d0 20 14 bd 36 29 de ba 44 e8 9e 3b
       -0.068271294 -0.036164105 -0.0016949538 0.0048494656
000040 ef b0 19 3b 3f b6 70 bd 27 43 89 bc f4 22 15 bd
       0.0023451408 -0.058767553 -0.016755654 -0.036410287
000050 ba 97 24 bd 26 41 88 bd 02 1a 8a bb cd 23 ae bc
       -0.04018376 -0.06653051 -0.004214526 -0.021257306
000060 74 b9 96 bc 20 8e 6a bc 6a 9d e9 bc fa e4 6d bd
       -0.018398978 -0.014316112 -0.028517444 -0.058079697
000070 77 c0 8b ba 7c 5a eb bc 95 89 97 bd 93 a0 83 bd
       -0.0010662217 -0.02872967 -0.073992886 -0.064271115
000080 7b a0 13 bd 30 d4 17 3b 72 3d 64 bb f1 52 12 bd
       -0.036041718 0.0023167245 -0.0034826663 -0.03572363
000090 4e 7f 31 bc cb 51 30 3c ff 67 2e 3c 15 f0 90 bc
       -0.010833574 0.010761688 0.010644912 -0.017692605
0000a0 53 86 a9 bb f9 62 27 bd d9 7b c8 bc 2a 1a ee bc
       -0.0051734834 -0.040865872 -0.024473118 -0.02906521
0000b0 f7 e2 ac bc f3 02 70 bd 88 b7 26 3c 51 16 7d 3d
       -0.021104319 -0.058596563 0.010175593 0.06178886
0000c0 51 17 b3 bc e9 d5 57 bc 25 1d 6e ba ce 4d 3f bd
       -0.021861704 -0.013173559 -0.00090833224 -0.04670506
0000d0 0c 30 ca 3b b8 fe 45 3c 05 62 e6 bc 79 ee 0c bd
       0.0061702784 0.012084655 -0.028122911 -0.034407113
0000e0 d6 c0 45 bc bd e0 d4 bc 0e ec b9 bc 31 f8 18 3c
       -0.012069901 -0.02598607 -0.022695567 0.009336517
0000f0 1e 28 47 bc af d3 e3 bc 75 f9 3a bd 1d 97 6a bd
       -0.012155561 -0.0278109 -0.045648057 -0.05727302
000100 1d 4d c6 bc 43 02 7b bd 95 a4 e3 bb a4 97 3b bd
       -0.024206692 -0.061281454 -0.00694711 -0.045798913
000110 f9 94 12 3b dc 46 92 bd 18 53 91 3b fe ee 84 bd
       0.0022366627 -0.071424216 0.0044349544 -0.06490897
000120 d2 19 ab 3b 3c 87 bf 3b c0 cc 9a bc 83 00 85 bd
       0.005221584 0.0058449786 -0.01889646 -0.06494238
000130 57 55 87 bd 03 7e 2d bc 2f 72 1d bd 78 80 28 3d
       -0.06608074 -0.010589126 -0.038438972 0.041138142
000140 02 65 2b bd 05 63 91 bd f5 14 15 bd c4 05 d5 3b
       -0.041844375 -0.070989646 -0.03639694 0.0065009315
000150 be b9 92 bd 3d 9c 2a bd 9d 9a 37 bd 21 4d 35 bd
       -0.07164334 -0.041652907 -0.044825185 -0.04426301
000160 fc 80 42 bc 77 fd 15 bd 01 1d 7b 3b b5 e8 0b ba
       -0.011871573 -0.036618676 0.0038316848 -0.0005337105
000170 5f 5a a7 bc 25 9e 3d bd 55 74 69 bd aa 26 de bc
       -0.020428834 -0.046293397 -0.05699571 -0.027118046
000180 35 bd 4f bc 07 ba 95 bd 39 fb 68 bd e5 2d 3d bd
       -0.012679388 -0.073108725 -0.05688021 -0.046186347
000190 c0 b0 0b bd d7 7d 03 bc 16 4c 93 bc 2a d3 3b bd
       -0.03410411 -0.008025608 -0.017980617 -0.04585568
0001a0 32 ac 6f bd 7b 1a 2b bd 6a f5 2e 3b b0 cb 92 bd
       -0.058513828 -0.0417733 0.002669657 -0.071677566
0001b0 93 ff 97 bd 24 9c 18 3c b6 e2 5b bd e5 5e 0a bd
       -0.07421794 0.009314571 -0.053683005 -0.033781905
0001c0 a1 1f 2c 36 1e c4 69 bb 9b 8e fc bc 90 2a 86 bd
       2.5648408e-06 -0.0035669873 -0.030829718 -0.06551087
0001d0 9f e2 cb b6 9b 95 5a bc 1c e5 43 3b 66 7c 67 bd
       -6.0762536e-06 -0.013341333 0.0029891199 -0.05651512
0001e0 2e 1e f6 b5 ea 1a bc bc 70 62 81 bd a9 df b9 bb
       -1.8337212e-06 -0.022962052 -0.063176036 -0.0056724143
0001f0 92 e2 1e 35 bc 63 9c bb 3c ef 65 bd 5d de 63 bd
       5.918929e-07 -0.0047726315 -0.056136355 -0.055631984
000200 c0 6c 93 bd 4c c3 e9 3b de bf 86 bd a2 72 3c bd
       -0.07198477 0.007133877 -0.065795645 -0.04600776
000210 33 4e 54 bd 69 1e ac bc 84 9c 84 bd fe e7 df bc
       -0.05183239 -0.021010594 -0.064751655 -0.027332302
000220 39 64 4b bd 22 e4 1a bb 7a 2d e4 bb b7 be 8d bd
       -0.049656127 -0.0023634513 -0.006963429 -0.069211416
000230 09 bd 77 bd 21 46 96 bd ed ab 0f bd d6 d5 1d bd
       -0.060483012 -0.07337595 -0.03507607 -0.038534008
000240 b5 c5 8e bd 0b df 5c bd 4f 54 85 bd 4f 79 53 3c
       -0.069713034 -0.053923648 -0.06510221 0.01290734
000250 71 44 40 3b ad be e5 bc cd b4 53 bd c9 c8 46 bd
       0.002933767 -0.028045023 -0.051686097 -0.048531327
000260 af bb 89 3d 13 b4 6f bb dd 01 e5 bc e7 3c e7 bc
       0.06725251 -0.0036575838 -0.02795499 -0.028227283
000270 c0 9b 18 bd ef 67 85 bc c5 de e6 3b bb 02 2b bd
       -0.03725791 -0.016284911 0.007045599 -0.04175065
000280 e8 aa 33 bd 74 f5 fa bc f5 6e 44 bd 7b 66 0b 3a
       -0.04386416 -0.03063462 -0.04795738 0.00053177
000290 b7 52 8e bd 68 16 8b bd c4 9f 41 bd 4b a8 68 bd
       -0.0694937 -0.06791383 -0.047271505 -0.05680112
0002a0 8f 7b 91 bd 9a 94 03 bb 5f 74 2d bd b8 29 68 bd
       -0.07103645 -0.0020077587 -0.04234731 -0.05668041
0002b0 9d b0 9c bc 97 d5 0e bc ea 85 87 bb 3e c3 4d bd
       -0.019127185 -0.008717916 -0.004135837 -0.050235026
0002c0 38 88 85 3b f7 f1 c4 bb 62 ed 8c bd bc f2 3a bc
       0.0040750764 -0.00601029 -0.06881215 -0.011410411
0002d0 f5 90 56 bd cf 76 30 bd 97 2f ce 3b 52 98 f5 bc
       -0.052384336 -0.043082055 0.0062922942 -0.029979859
0002e0 e1 9a 47 bd e2 bf ce bc 8f 9e 2c 3c ac 5e 26 bc
       -0.04873169 -0.025237981 0.01053585 -0.0101544075
0002f0 d0 6c 52 bd 29 61 0a bd ac b0 3f bd 72 c7 03 3b
       -0.051373303 -0.033784065 -0.046799347 0.0020107892
000300 37 2e b1 bc e9 68 c6 bc ec 3b 55 bd eb fe 84 bd
       -0.021628482 -0.024219947 -0.0520591 -0.06493934
000310 66 54 c3 bc 4b 1a 51 bd e4 e1 90 3b 56 6c 54 bd
       -0.023843955 -0.051050466 0.0044214595 -0.05186113
000320 e6 4d 6a bd bd 39 f1 bc 28 47 85 bc 9a c6 75 bd
       -0.057203196 -0.029446477 -0.016269282 -0.060003854
000330 f4 0e 51 bc 05 3c b0 bb c2 47 b8 bc b0 46 8f bc
       -0.012759913 -0.0053782486 -0.022495154 -0.017489761
000340 63 08 a8 b6 d6 19 4c bd 6a f6 44 3c 17 eb b8 bc
       -5.0077665e-06 -0.049829327 0.01202164 -0.022573037
000350 f5 98 d2 b6 76 e2 f4 bc ca 69 10 bd 96 6d eb bc
       -6.2762942e-06 -0.029893141 -0.03525714 -0.028738778
000360 8e 6b aa b6 28 c3 87 bc cc d0 6d 3d a3 e4 8d bd
       -5.078916e-06 -0.01657255 0.058060452 -0.069283746
000370 70 d8 87 36 45 1d 10 bd 1c a0 30 bb fd 91 3d bd
       4.04851e-06 -0.035184164 -0.0026950901 -0.046281803
000380 ce f7 86 bc 24 c7 21 b5 1b 61 52 bb 41 70 dd bc
       -0.016475584 -6.026696e-07 -0.0032101336 -0.027031066
000390 e0 7f db 35 94 2a 69 35 4c 10 d1 bc 46 28 79 bc
       1.6353988e-06 8.6861223e-07 -0.025520466 -0.015207356
0003a0 0f 14 9a 3c 95 4e 1e bd f5 fe 50 3d 07 55 dd 3b
       0.018808393 -0.03864916 0.051024396 0.006754521
0003b0 86 1c 08 bd 24 6f e7 bb 7e 76 50 3a 51 e4 5f 39
       -0.033230327 -0.0070628095 0.0007952227 0.00021351992
0003c0 33 38 14 bd e5 15 02 bd ee 11 2b 3c e7 50 3c bd
       -0.03618641 -0.03175916 0.0104412865 -0.045975592
0003d0 ed b8 85 39 00 5e 59 bd 3d c9 ca bc bf 52 42 3c
       0.00025505517 -0.05306816 -0.024754161 0.0118605485
0003e0 35 3c 80 3d d0 89 0d 3c ab 82 25 bc 48 ab 46 bb
       0.062614836 0.008638814 -0.010101954 -0.0030314494
0003f0 5d 1a 51 bd 12 3e 06 3d c5 52 61 bd 15 cf 43 3d
       -0.051050533 0.03277404 -0.055010576 0.04780491

bias f4 [70]
000000 fc 6d 64 bb cf 65 97 3c 6b 47 e0 b9 6d 7d 74 bd
       -0.0034855595 0.018481163 -0.0004277782 -0.059689928
000010 4c 70 b6 bc e8 d2 22 3c be 4d 96 bd 65 00 19 bb
       -0.022270344 0.009937979 -0.07339047 -0.0023346182
000020 2f ea e2 bc d1 52 f0 bc ef c8 66 3d e1 69 cb b9
       -0.027699558 -0.029336365 0.05634397 -0.00038798063
000030 14 a2 6c bd 92 d6 e7 bc d7 54 1b 3b a1 22 87 3a
       -0.057771757 -0.028300557 0.0023701692 0.0010310003
000040 86 67 17 bd 6a 24 36 bc 44 78 ed bc 99 e1 d8 bb
       -0.036963962 -0.01111708 -0.028988011 -0.00661869
000050 73 a1 9d bc a0 b1 80 bc ae 32 e2 bb 7d 30 e5 3c
       -0.019242024 -0.015709698 -0.006903014 0.027977223
000060 cc 70 ae bc a7 09 db bc 78 d0 84 ba 4a 5e 8a bd
       -0.02129402 -0.026738001 -0.0010132929 -0.067562655
000070 30 50 4a bd 86 69 fe bb dc bd a8 3a 1c 0e 19 bd
       -0.04939288 -0.007764044 0.0012873965 -0.03736697
000080 e9 aa bd 3b 4f 2e bc bc b8 44 b2 bb 65 cc a7 bc
       0.0057881963 -0.0229713 -0.005440321 -0.020483205
000090 c3 fb 8f 3c d6 6d cb bc 58 fc 0f bd de f3 33 bd
       0.017576104 -0.024832647 -0.035152763 -0.04393374
0000a0 80 0d c0 3c c6 52 a6 bc c1 8b 59 3b aa 85 a6 3c
       0.023443937 -0.020303141 0.0033194872 0.020327408
0000b0 ad e9 43 bd 78 d7 68 bc a2 0f 88 bc b5 2b 69 bd
       -0.047830272 -0.014211528 -0.016609017 -0.056926448
0000c0 5d 7d b2 bc f9 1b 97 3c 01 f5 84 3d 34 11 08 3c
       -0.021788293 0.018445956 0.06492043 0.008304883
0000d0 47 b0 92 bc 0e 92 2a bc 3f 31 00 bd f5 22 9d 3c
       -0.017906321 -0.010410799 -0.031296965 0.019181708
0000e0 08 2d 37 3d b2 03 63 ba 5c 60 54 bd 64 f9 8f bc
       0.04472068 -0.00086599134 -0.051849708 -0.017574973
0000f0 80 ce 97 bd 22 48 41 bc 24 bd f8 bc 85 34 a3 bc
       -0.074124336 -0.011796983 -0.030363627 -0.019922504
000100 33 cd 82 bc 87 5f 29 bd 63 8d 13 3c d9 85 fc bc
       -0.015966987 -0.041350868 0.009005877 -0.030825542
000110 3d 63 94 bd d6 55 da 3c
       -0.07245491 0.026652258

weight f4 [10, 70]
000000 a5 0d b3 bd 2b aa d8 bb de 7c 30 3d 2f 66 4a 3d
       -0.08742837 -0.0066120825 0.043087833 0.049413856
000010 15 f0 bd 37 b9 40 35 3d 2c 7f da 38 cf 6f d4 bd
       2.2642353e-05 0.044251177 0.00010418738 -0.10372888
000020 28 ee 4e 3c 0e 19 9e 3d 51 58 95 bd 71 f4 33 3d
       0.012630023 0.077196226 -0.07292236 0.04393429
000030 21 d9 94 bd 3d 82 63 3d e3 55 40 3d e4 77 d7 bd
       -0.072679766 0.055544127 0.046956908 -0.10520914
000040 22 ed 94 3b 3e 56 28 bc 19 d5 cc 3d 8f 70 0a 3d
       0.00454487 -0.010274468 0.10001583 0.03379875
000050 da e2 18 3e 12 49 84 3d 68 f8 30 bd c2 87 8a bc
       0.14930287 0.064592496 -0.04320565 -0.016910437
000060 7f a0 1f 3a d3 9a 34 3d 4d 4b f1 3d 01 a1 21 3d
       0.00060892844 0.044092964 0.117819406 0.039460186
000070 87 37 17 bc 1e 6d 29 3d 33 2a f7 3c f3 82 bd bd
       -0.009229547 0.041363828 0.03017149 -0.09253492
000080 3f b4 ae bd cf fd ae 3d b4 77 72 3d 9e 11 d9 3d
       -0.08530473 0.08544504 0.05919619 0.10599063
000090 40 01 d4 3c 30 cf 73 37 1b 49 0c bd f9 d2 c3 3d
       0.025879502 1.4532168e-05 -0.034249406 0.09561724
0000a0 fc 18 0a be 48 36 0d 3d 55 0f 13 3e cb b6 05 be
       -0.13486093 0.034475595 0.14361317 -0.13058011
0000b0 e1 b6 6d bb 20 a7 56 3d a0 7b a7 bd bf c8 81 bd
       -0.0036272334 0.052405477 -0.081778765 -0.063371174
0000c0 ec 44 be 39 55 bf 1f bd b4 64 8a 3d 26 65 8b 3c
       0.00036290975 -0.039000828 0.06757489 0.017016005
0000d0 e5 a9 6f 3d 03 6f b4 3d 53 17 f4 3d f7 ba a5 3d
       0.058511633 0.08810236 0.11918511 0.08092301
0000e0 ee 96 92 3d 0d d5 5c bd 02 6e e7 bc 7f 1d 27 3c
       0.07157694 -0.05391412 -0.028250698 0.0101999035
0000f0 d0 3a 79 3d 2f ea 22 ba 9f 1f 0c 3d 11 3f 09 38
       0.060847104 -0.00062147056 0.034209844 3.272208e-05
000100 a6 e6 52 3c 92 70 81 bd b3 1e 9b bd 2e b3 38 bd
       0.012872374 -0.06320299 -0.07574215 -0.045092754
000110 c6 8b 82 bd 75 b2 c7 bd 6b 7a 0b 3e c0 35 d7 3c
       -0.06374316 -0.09750835 0.13620917 0.026270747
000120 fa e5 5b 3d 4c 65 62 3d 41 4c 8e 3d ed 05 44 be
       0.05368612 0.055272385 0.06948138 -0.19142886
000130 7b 10 bc 3a be c0 69 3c 1f 33 78 3d a1 28 31 be
       0.0014348173 0.014267145 0.060595628 -0.17300655
000140 4f c5 90 3d ba d1 08 bd 7e 76 fa 3c 5b ca 04 be
       0.07068884 -0.033403136 0.03057408 -0.12967817
000150 fd 15 c2 bc dc d8 33 3c 62 ff 57 bd 98 56 83 bd
       -0.023692125 0.010976996 -0.052733786 -0.06413001
000160 d1 43 fd bd 8f c7 5e bd b1 e8 5c bb 2d 66 3e 3c
       -0.123664506 -0.054389533 -0.003370803 0.01162104
000170 aa 43 ea bd cf 53 03 bc 45 d4 a1 bd 56 9f 41 ba
       -0.11438687 -0.008015587 -0.07901815 -0.00073861086
000180 fb 53 61 3d a6 14 9d 3d be 53 e8 bc 13 06 8b bd
       0.05501173 0.07669954 -0.028360244 -0.06788268
000190 f7 19 10 bd 5e 29 7b bd 45 96 6a bd a1 06 c9 3d
       -0.035181012 -0.061318748 -0.057272214 0.098157175
0001a0 ee 82 a5 bd 3c 67 f5 3c 66 af 1b bd 26 c7 8a 3c
       -0.080816135 0.029956453 -0.03800907 0.016940664
0001b0 a9 e4 37 3d 03 83 11 bd c4 47 f2 3d 30 35 58 3c
       0.0448958 -0.035525333 0.118300945 0.013196275
0001c0 8c 78 42 bc 94 e1 af 3d 27 70 39 3b 6a 61 c0 3d
       -0.011869561 0.085879475 0.0028295608 0.0939358
0001d0 f3 59 16 3e 3f 03 14 3e cd 3e 14 bd be 46 33 bc
       0.1468275 0.14454363 -0.036192704 -0.010942159
0001e0 29 c5 2a 3e 97 87 93 bd ee 12 a9 3d ab fa e9 3b
       0.16676773 -0.07203596 0.08255564 0.0071404777
0001f0 52 99 ce bd 29 29 27 bd 87 be 67 3c 08 09 ff 3c
       -0.10087837 -0.040810738 0.014144546 0.031132236
000200 74 de 80 bd ba 05 8d 3c 67 a6 2c bc 9d 8c 7d bd
       -0.062924296 0.017214645 -0.01053772 -0.061901677
000210 27 65 02 be 9c 01 87 bc 76 8f d2 3c d0 a6 d0 3b
       -0.12733899 -0.01648026 0.025703173 0.006367542
000220 07 2f 25 3d 42 cd 31 3d a7 fc b0 bd 4e 06 80 bd
       0.040328052 0.04340864 -0.086419396 -0.062512025
000230 17 4b cb bd 2c 1e 72 3d 9c 61 a3 3b 18 30 23 3c
       -0.099264316 0.059110805 0.004986001 0.009960197
000240 34 00 cd 36 87 52 da bc a6 14 ac 3c 00 4f 54 bd
       6.1094997e-06 -0.02665068 0.02100594 -0.051833153
000250 12 a0 c5 bd aa 5b ca 3b 50 1f 98 3d 01 40 87 3d
       -0.096496716 0.006175478 0.074278474 0.06604005
000260 ee 5f d7 bd 98 1e 2d bd 47 77 1c 3d 97 87 cf bd
       -0.10516344 -0.042265505 0.03819969 -0.101332836
000270 f2 f8 c9 3c 9c fd ac ba 99 9a a5 bd f8 e9 49 bd
       0.02465484 -0.001319814 -0.08086128 -0.049295396
000280 39 e9 3d bd 7a 25 38 bd bf 68 cd bd b2 3e 3e bd
       -0.046364997 -0.044957615 -0.10029744 -0.04644651
000290 ea 0d ed bc 86 62 1d bd 11 39 97 bd c6 0a e6 bd
       -0.028937299 -0.038424037 -0.073839314 -0.112325236
0002a0 c7 f3 05 bc ad e5 2f 3d cf 0a 2a b8 98 cb b2 3d
       -0.008175797 0.042943645 -4.0541225e-05 0.08730239
0002b0 88 0e f4 3d 7d a9 51 ba 1d 48 9d 3d df 9d 8c 3d
       0.11916834 -0.0007997973 0.0767977 0.06866049
0002c0 f1 7d 25 3c b9 2b 85 b6 e8 4e 8f 3c e2 cf 0a bd
       0.010100828 -3.968799e-06 0.01749368 -0.03388966
0002d0 5c c4 c2 3d 8e 4b 68 3d be df 05 be 06 3c 11 be
       0.09510109 0.05671268 -0.13073632 -0.14183053
0002e0 20 c0 49 bd 6f 87 f3 3b 79 16 58 3d ad 30 30 3b
       -0.04925549 0.0074319164 0.052755807 0.0026884482
0002f0 3c b4 7d bc 48 10 9e bb b9 ff 0e be 61 8e 0c 3e
       -0.015484866 -0.004823718 -0.13964738 0.13726188
000300 29 ae 8c 3c 1a ff 53 bd 55 75 8b bd 3d d9 d5 3d
       0.01717289 -0.051756956 -0.06809489 0.104418255
000310 0f 4b 24 3e 5d b9 9e 3c f2 05 3f 3d 1a da 17 bd
       0.16044258 0.019375497 0.04663653 -0.037073232
000320 de ee 15 be ac a4 46 bd 7a d9 bc bc 90 cd a1 35
       -0.14641902 -0.048496887 -0.02305292 1.2055261e-06
000330 72 d6 21 b8 2d 43 c5 3c 9c c4 4c 3b 5b dc 89 bd
       -3.858511e-05 0.024079883 0.0031245118 -0.067314826
000340 10 eb e3 bd fd b7 34 3d 09 0f df bd 4b 20 85 3d
       -0.11128819 0.044120777 -0.108915396 0.065003
000350 ff f6 02 3d 6c 92 8a bc 1a 9a 87 ba 0b 3a 3e 3d
       0.031973835 -0.016915523 -0.0010345608 0.046442073
000360 ad 4d 4e bd 19 cc 3e 3d 83 ac 90 bd 50 03 bb bc
       -0.050367046 0.04658136 -0.07064154 -0.022828728
000370 31 8e 90 3d e1 5c 09 be b9 c2 3c 3d c2 21 86 3d
       0.07058371 -0.13414337 0.04608414 0.065494075
000380 7c 47 32 3c 0b e0 1a bd 0c 16 5e bd 4f 31 f9 bb
       0.010881301 -0.03781132 -0.054220244 -0.007604755
000390 73 ea 21 3d 32 c9 1e 3d ae 49 15 3e ee b3 95 bb
       0.03953023 0.038766094 0.14578888 -0.0045685684
0003a0 33 15 f3 bd 5f a1 b9 bc 5e 31 08 be 99 02 c9 bc
       -0.11869278 -0.022659956 -0.13300082 -0.024537371
0003b0 89 e1 46 3c 6c 89 32 bd 75 0e cc 3d cb ee 19 3d
       0.012138733 -0.043588087 0.09963695 0.037581246
0003c0 f2 67 d0 b6 f7 cd 2d 3d 9d 4f ee 3d 57 09 7e 3d
       -6.210984e-06 0.04243275 0.11636279 0.062020626
0003d0 5f 94 92 bc f2 ed f8 3c 71 46 2f bd b5 0e 1f bd
       -0.017893014 0.030386899 -0.042791788 -0.038832385
0003e0 b3 e9 49 bd 4c f0 4d 3d 5a ed df bd 9d 2b b8 bb
       -0.04929514 0.050277993 -0.10933943 -0.0056204335
0003f0 4b f0 44 bd 4d 4a 0d 3e 44 c5 3f 3d 21 1e ac 3b
       -0.048080724 0.13797875 0.046818987 0.005252615

bias f4 [10]
000000 0b a0 df 3c 6e c6 07 bc dc 27 9c bd 41 4e 13 3d
       0.027297994 -0.008287055 -0.0762479 0.0359633
000010 f8 4a 93 3d 71 57 e0 bd 35 29 ae bd 91 a6 d3 bc
       0.071920335 -0.10954178 -0.08503953 -0.025836261
000020 ce ad 98 3d a9 40 aa 3c
       0.074550256 0.020782785
