Computational Intelligence/aeh330_5/resultsclassifier_cnn_10.model (torch, 174111 bytes, 6 tensors)

weight f4 [32, 1, 3, 3]
000000 a7 bb 11 be 9d 36 0b 3e 6b 30 bc 3e 5e 5c a4 3e
       -0.1423174 0.13595052 0.3675569 0.3210172
000010 dd b0 b7 be da 6b 1f 3c 60 95 39 3c 78 c2 2d bf
       -0.35877123 0.009730304 0.011327118 -0.6787486
000020 7b c4 53 be 3e 58 1c 3e f4 81 c0 be 3d e1 d6 be
       -0.2068042 0.15268037 -0.37599146 -0.41968718
000030 09 08 4e 3e 85 63 3f be e8 65 12 bf ff 83 29 be
       0.20120253 -0.18690307 -0.57186747 -0.16554259
000040 b0 80 95 3e 50 46 aa 3e e1 33 32 be 76 35 90 3c
       0.29199743 0.3325677 -0.17402603 0.017603617
000050 fb 60 b0 3e e7 48 63 3d bd 92 38 3d b3 a9 42 3e
       0.3444899 0.055489447 0.045061816 0.19010048
000060 f4 29 b6 be 6f 62 1a be 17 d3 85 be 0f 87 34 bd
       -0.35578883 -0.15076612 -0.2613761 -0.044074114
000070 72 19 46 be ad 9a ba 3d 54 86 2f be a0 4f fa 3d
       -0.19345644 0.09111533 -0.17141086 0.122222185
000080 0e e0 e5 bb 2d e6 eb 3e 94 17 96 3e e7 8d 1b be
       -0.007015235 0.46074048 0.29314864 -0.1519085
000090 bd 71 b5 3e 34 d6 ca be cb 1f cc 3e 37 40 23 be
       0.35438338 -0.3961655 0.39868006 -0.15942465
0000a0 44 b3 f8 be fc 9e 4c 3e db 57 cb be 31 8f 51 3e
       -0.4857427 0.19982523 -0.39715466 0.2046478
0000b0 e5 4e 20 bd b1 52 7b be 62 7b ad 3e 54 4a a4 be
       -0.03913774 -0.24543263 0.33883196 -0.32087958
0000c0 22 99 19 bf 0e 94 4e bd da 30 61 3e e8 c5 c5 3d
       -0.5999929 -0.050434165 0.21991292 0.09656888
0000d0 41 bb 7d be b3 bc da 3b c6 0c c8 3e 30 5c 85 be
       -0.24778463 0.0066753267 0.39072245 -0.26046896
0000e0 42 b5 1a be 83 b1 20 bc b0 dc 35 be 2c f8 f0 be
       -0.15108207 -0.009807947 -0.17759967 -0.4706434
0000f0 b0 85 ff be 02 f0 b5 3e 68 6b b3 3e ba 57 1b bd
       -0.49906683 0.35534674 0.35042882 -0.03792546
000100 c2 5f 03 3f b7 2e 94 be 86 b4 96 be 28 a6 95 be
       0.5131799 -0.2894189 -0.29434603 -0.2922833
000110 84 d3 37 3e 3c 3d 01 bf 0d 40 56 be c2 f9 8d bd
       0.1795178 -0.5048406 -0.20922871 -0.06932403
000120 60 0e 9f 3e 48 50 7d 3e ef 19 ee 3e a4 96 c5 be
       0.31065655 0.24737656 0.4650416 -0.38591492
000130 a3 7f d5 be 16 83 60 be ae f3 41 be 31 53 2b bd
       -0.41698942 -0.21925005 -0.18940613 -0.041827384
000140 bf 38 00 bf d7 4d 46 3e 72 d4 4d be 74 82 07 bb
       -0.5008659 0.19365631 -0.20100573 -0.0020677121
000150 2e 4f 13 bf a8 b5 08 bf 65 4c 08 3c 17 96 fb 3d
       -0.57542694 -0.53402185 0.008318995 0.12284487
000160 a6 a4 72 3e a3 0a ac 3e 02 23 0a bf 73 de c6 be
       0.23695621 0.33601865 -0.5395967 -0.3884159
000170 a3 e9 5d 3e 00 17 5f 3e 08 62 62 3e 6a b5 87 be
       0.21671157 0.21786118 0.22107708 -0.26505595
000180 02 02 a8 3d 2c 64 96 3e 44 6a 88 be 30 33 24 3e
       0.08203508 0.293733 -0.26643574 0.16035151
000190 df 5a a8 be 3a 03 88 3e 81 ad 29 bf 01 ee 91 3d
       -0.3288183 0.26564962 -0.6628037 0.07125474
0001a0 2f 09 ae be 66 de 70 3d 07 97 c1 3e 2f 94 89 be
       -0.33991382 0.058805846 0.37810537 -0.26870868
0001b0 e7 0a ad 3e 57 d3 11 be 26 e8 cc be 7c 8a 4f be
       0.3379738 -0.14240776 -0.40020865 -0.20267671
0001c0 2a 54 43 bd 5f 70 b2 be 1f 85 cc 3e d0 39 02 bf
       -0.047687687 -0.34851357 0.39945313 -0.50869465
0001d0 c1 21 05 bf aa b8 c3 3d a7 f1 5b 3e db a6 ad 3e
       -0.5200463 0.09556706 0.21478902 0.33916363
0001e0 a6 2f 23 3e b2 2d 8d be 67 f3 29 bf 70 28 fd bc
       0.15936145 -0.27573925 -0.6638703 -0.030903071
0001f0 f6 be 2b be 11 9a a5 be ad 2a 2a 3e 7f 39 7d 3d
       -0.16772065 -0.32344106 0.16617842 0.06182241
000200 44 73 8b 3e f4 0e 89 3e c6 8f 55 bd de 2f 5a 3e
       0.27236378 0.2676922 -0.052139066 0.21307322
000210 d0 45 2f be 22 ec a7 be d8 22 1b bf 8c 3a 17 bf
       -0.17116475 -0.32797343 -0.6060004 -0.5907371
000220 9e 4b 18 be 68 48 f9 3e 6e 57 00 bf 97 23 85 3e
       -0.14872596 0.48688054 -0.5013341 0.26003715
000230 e1 a3 6d be 08 d5 ad 3e 47 f8 5e bd a8 57 fb be
       -0.23207046 0.33951592 -0.054435994 -0.49090314
000240 7c 38 b3 bc 44 e1 3e be e9 4c e6 be 6b 94 d7 bd
       -0.02187752 -0.1864062 -0.44980553 -0.10526355
000250 91 bb c5 3d 05 ce 0b bf 30 0d 6c 3e 15 1c fc 3e
       0.09654916 -0.54611236 0.23051906 0.49240175
000260 d0 8d a5 3e 7e 4a 0b 3f fa 84 a9 be 3f a9 f9 bd
       0.32334757 0.5441054 -0.33109266 -0.12190484
000270 70 8d 6b be be bc 22 bf a2 2c 81 3e e3 b0 bb be
       -0.23003173 -0.6356925 0.25229365 -0.3665839
000280 e1 1e b1 3d 59 d3 2c be 66 5c 93 3e e9 a5 9d be
       0.08648468 -0.16877498 0.28781432 -0.30790642
000290 20 c1 a4 be 2e fa bd bd c4 2a 07 3f ab 2a a5 bd
       -0.32178593 -0.092762336 0.5279963 -0.08064779
0002a0 ea 29 c6 be 88 41 01 be 83 da b7 3d 26 14 69 be
       -0.38703853 -0.12622654 0.08977225 -0.22761592
0002b0 ec 77 b2 be 2b 9b e6 be d4 70 90 3e 6a 2b 72 3e
       -0.34857118 -0.4504026 0.2821108 0.23649374
0002c0 68 54 a5 be 13 34 52 be e4 3a 80 3e ed 51 9c 3e
       -0.3229096 -0.20527677 0.2504493 0.30531254
0002d0 be 8c e2 3e bd 0e af 3e 7f dc 74 3e 9b dd d2 be
       0.44248003 0.34190932 0.23912238 -0.41184697
0002e0 a1 7c 12 bf 74 a1 97 bd 56 d8 8d be 62 46 bf be
       -0.5722142 -0.074038416 -0.27704114 -0.37358385
0002f0 38 40 49 be a1 d8 f3 bd 39 21 91 3d e2 3e 47 3e
       -0.19653404 -0.11906553 0.07086415 0.19457582
000300 ed 19 7f 3e a5 a1 e6 3e 4c ad 94 3e 4b 1e 80 be
       0.24912234 0.450452 0.29038465 -0.25023112
000310 de 60 22 3d 2b ba f8 bd 63 ea 96 3e 92 8a ad 3d
       0.03964316 -0.12144884 0.29475698 0.08473696
000320 52 1b 2b be 87 54 dd be bb 81 fd be b4 4a 8f 3e
       -0.1670964 -0.43228552 -0.4951304 0.2798668
000330 79 4c a5 3d b7 d7 6d 3e 2b 9f 15 bd 01 de 8e bc
       0.080712266 0.2322682 -0.036528748 -0.017439844
000340 56 1f f2 be 20 d5 13 bf 50 c3 8d b8 5e 64 8b 3e
       -0.47289532 -0.5774708 -6.759784e-05 0.27225012
000350 69 8b 56 be 69 12 14 be d8 d6 63 3e 59 ae 27 3e
       -0.20951618 -0.14460148 0.22249925 0.16375102
000360 75 e7 54 3e fd 4e 12 3e e5 8b db be 08 3e 9d be
       0.20791419 0.14287944 -0.4288017 -0.3071139
000370 20 31 8c 3e 8f 51 a7 3e 68 16 0a be 9f 8b 99 be
       0.2738123 0.32679412 -0.1348511 -0.29989335
000380 c9 32 97 be 29 32 4e bc db 31 50 3e d7 8c 5e 3e
       -0.29530933 -0.012585201 0.20331518 0.21733414
000390 70 cf 60 3e b3 7f 09 3e df 39 1b be 60 c8 bb be
       0.21954131 0.1342762 -0.15158795 -0.36676311
0003a0 f0 6e 3d be 32 03 e9 be 49 45 bd be 42 a0 e6 be
       -0.1849935 -0.4551025 -0.36966923 -0.45044142
0003b0 29 e4 e7 bd 8f a1 97 be 4f 37 c4 3d f3 28 b3 3e
       -0.11322815 -0.29615447 0.09580862 0.3499218
0003c0 b9 c5 8b 3e fe a3 b1 3e cc 9d 6f bd de 29 99 3e
       0.27299288 0.3469543 -0.058500096 0.29914755
0003d0 24 c3 0b be f3 0d f5 3e ab e8 62 be 94 fa 02 bf
       -0.13648659 0.47862205 -0.22159068 -0.511636
0003e0 77 66 1d bf a3 ea d0 3d d3 5c 6a bc 08 df 06 be
       -0.61484474 0.102010034 -0.014304358 -0.13171017
0003f0 3f 9a 1f 3d 75 8c db be 34 88 00 be 00 48 9f be
       0.03896546 -0.42880598 -0.12551957 -0.3110962

bias f4 [32]
000000 44 ee a0 be d8 8e 87 3e 92 8c 3c bf 28 72 20 bf
       -0.31431782 0.2647617 -0.73651993 -0.6267419
000010 dc 6d b5 be e7 9b 99 3e f2 09 a3 be 82 f8 46 3e
       -0.3543538 0.30001757 -0.31843525 0.19430736
000020 76 6d 82 bd b4 29 81 be 46 5a 07 bf da 11 70 3e
       -0.06368534 -0.2522713 -0.5287212 0.2344431
000030 0e b4 42 3e 45 da 8e be 88 1e e6 be e9 ca cf be
       0.19013998 -0.279009 -0.44945168 -0.40584496
000040 7d a5 57 bf 7c ce f9 3d 51 6b 2a bf b0 de 67 bf
       -0.8423689 0.12197587 -0.6657 -0.9057417
000050 d0 e8 b7 be ee 5b 72 bf 38 ea 35 bf e3 73 93 be
       -0.3591981 -0.94671524 -0.71060514 -0.28799352
000060 00 cd 07 be a5 08 11 bf 59 d5 3c bf 2e 48 da be
       -0.13261795 -0.56653816 -0.7376304 -0.42633194
000070 6e 87 28 3f 81 9d 6c bd b7 78 7b bf 7d 33 2d bf
       0.6583165 -0.057767395 -0.9823107 -0.6765669

weight f4 [80, 512]
000000 a5 26 c7 3c 62 eb 14 be 83 a9 01 3d 2e bb 89 bd
       0.02431042 -0.14542916 0.0316558 -0.06725155
000010 5b b1 a3 bd 08 8d 08 be 18 e0 d6 bd c1 71 7b ba
       -0.07992812 -0.13335049 -0.10491961 -0.0009591841
000020 1b 43 30 3d 17 10 a6 3d 3d 4d b4 bd 3b 9d 9a 3d
       0.043032747 0.08108538 -0.088037945 0.075495206
000030 3c c3 be 3c cf 41 d5 3d c8 06 58 3d eb 45 0f 3c
       0.023286454 0.104129426 0.052740842 0.008744697
000040 7e d9 00 3c e5 fe 37 3e 0f 3e 35 3e f9 30 a1 bd
       0.007864354 0.17968328 0.17699455 -0.07870669
000050 ea 40 8e 3e c5 e6 09 bd 52 c8 32 3e 96 36 1b bd
       0.277839 -0.033667345 0.17459229 -0.037893854
000060 4c 8d 3c be ec 10 56 be c3 50 41 3e 30 6d da 3c
       -0.18413275 -0.20904893 0.18878464 0.026663393
000070 bc b3 8d 3b ee 87 8c bd 71 13 ea bc 23 50 45 bc
       0.0043244045 -0.06861864 -0.028573724 -0.012043032
000080 77 84 20 be 07 6b 17 3d bc 56 5c be 40 65 24 3d
       -0.15675531 0.036967304 -0.21517462 0.040135622
000090 be 55 19 bd 6b 68 99 3d 0c 85 87 be c6 1b 36 3e
       -0.037435286 0.07490619 -0.26468694 0.17784032
0000a0 79 90 47 3d 28 82 59 3d d9 75 9f bd c8 33 35 bc
       0.048721764 0.053102642 -0.077861495 -0.011059709
0000b0 23 7e b0 3c 00 af 39 3d 29 c0 84 3d e3 8d f2 3d
       0.021544522 0.04533291 0.06481964 0.11843469
0000c0 b6 3c bb bd 84 ab 09 bd c6 ae 44 39 c4 a5 04 be
       -0.09142439 -0.033610836 0.00018757125 -0.1295386
0000d0 5d 83 b9 3c f7 e9 31 3d c1 26 d5 3c b2 fe 2b 3d
       0.022645647 0.043436017 0.026019456 0.041990943
0000e0 68 24 b9 3a 45 be 34 3d 7c ad 41 3d f2 8d 6d 3d
       0.001412523 0.044126768 0.04728459 0.057996698
0000f0 0b 18 3f 3d ab bf 90 3c 9c a9 36 3d fd 97 1a 3e
       0.04665379 0.01766952 0.044595346 0.15097041
000100 87 17 d2 bd 2c af 02 3e 06 28 48 3e bd 4d 85 3d
       -0.10258394 0.12762135 0.19546518 0.06508968
000110 b7 99 d7 bc 20 87 7f 3c e2 02 e4 bd 42 37 9b bd
       -0.026318414 0.015596181 -0.11133362 -0.07578899
000120 82 0e 1e 3d 13 a7 87 3c b5 19 9d be 03 22 54 bd
       0.038588054 0.01655916 -0.30683675 -0.05179025
000130 23 53 c0 bc eb 34 50 3d c7 aa 13 3d cf 6b e0 bc
       -0.023477143 0.050831717 0.036051538 -0.027395157
000140 9b 45 15 bb 46 7a 44 3e 0e af 8a 3c 17 89 c4 3d
       -0.0022777084 0.19187269 0.016929176 0.0959646
000150 f5 19 c2 3d 5a f5 63 be 98 70 37 be 98 1e ab 3d
       0.09477607 -0.22261563 -0.17914045 0.08355445
000160 c1 63 f8 bc 9c 2e 8c bc 33 4a 29 be aa 20 02 3d
       -0.030321004 -0.017112069 -0.16532211 0.031769432
000170 d2 4f 7f bd 7d bd 0d 3d 4f f5 60 3b 7f 22 dc bd
       -0.062331982 0.03460454 0.0034325903 -0.10748767
000180 4b 64 c5 bc 22 db 87 3e 7e cc a3 3d 76 aa e1 3c
       -0.024095675 0.26534373 0.07997988 0.027547102
000190 5d f7 39 3e 14 b6 5d be db 1a 27 3e db 4f 1d be
       0.18160768 -0.21651489 0.16318838 -0.15362494
0001a0 db 4f 42 be a0 00 70 be df 5a fc bc 74 09 7d bd
       -0.18975775 -0.23437738 -0.03080505 -0.061776593
0001b0 e2 c3 1f bd 49 d0 04 3e 31 a0 8c bc 99 6f 5a 3d
       -0.039005168 0.1297008 -0.017166229 0.053329084
0001c0 3e 05 02 3d 62 4f 9c 3e a2 e7 4c 3e 5c 52 e6 3d
       0.03174328 0.30529314 0.20010236 0.112461776
0001d0 06 fc 3e bd e0 32 be be 0d f0 0a be dd f1 0c 3e
       -0.046627067 -0.3714819 -0.13568135 0.13764139
0001e0 c2 53 9f bd 3a 0f cb bd 30 22 da bd 34 bb 61 bd
       -0.077796474 -0.099150136 -0.10651052 -0.05511017
0001f0 c7 50 81 bd eb 6c c0 3d 5d 27 4d be c7 d1 39 bd
       -0.06314235 0.093957745 -0.20034547 -0.045366075
000200 43 51 24 3e c6 59 0a be f4 ae 60 3e ca e1 c8 bb
       0.16046624 -0.13510808 0.2194174 -0.006130432
000210 ab 67 76 be 9d 97 f7 be ec 23 89 be 48 0b 92 bd
       -0.24062984 -0.4835786 -0.2678522 -0.07131058
000220 2c 5e ab bb 16 f4 ed 3b b8 51 5a be 02 a3 a0 bd
       -0.005229732 0.0072617633 -0.21320236 -0.07843591
000230 56 08 d0 3d 1c 56 0e 3e b7 62 a5 bd 49 79 89 bd
       0.1015784 0.13900036 -0.08075469 -0.067125864
000240 8e d1 2a bd 23 3b a1 3d 71 b8 6d 3e 55 25 cf 3d
       -0.041703753 0.078726076 0.2321489 0.101145424
000250 89 35 89 3c 81 83 95 3d 5a bc 6b bc d1 28 5e 3d
       0.01674916 0.07300473 -0.014388168 0.054238144
000260 f3 ff 0a bb c4 51 1a be f2 37 06 be 9a 42 78 3b
       -0.0021209687 -0.15070254 -0.13107279 0.0037881494
000270 4d 0f ac bd 58 ab fa bb 10 c6 e7 bc 29 93 27 3d
       -0.08401356 -0.0076498203 -0.028292686 0.040911827
000280 9c 8f bf 3d d4 c4 19 bc b6 d1 55 3a 9c db 01 be
       0.09353563 -0.009385306 0.00081565545 -0.1268143
000290 f3 62 2c be 7b 6b e2 3d 21 44 a9 3d bd 6f eb 3d
       -0.16834621 0.110556565 0.08264948 0.11495922
0002a0 2b 5b d7 bc af 05 8b be 3e dd 23 bd 86 40 19 3e
       -0.02628859 -0.27152774 -0.040005915 0.1496602
0002b0 af 71 3a 3d 93 61 03 be 9b 2f a6 be 0f f0 87 bc
       0.045518573 -0.1283019 -0.32458195 -0.016593961
0002c0 da 70 19 3e e3 a9 04 3e e6 0d c5 3e 0e fb 6b 3e
       0.14984456 0.12955432 0.38487166 0.23044989
0002d0 ab fb 43 be 45 98 06 3e d9 ba c0 3c ac b9 9d 3d
       -0.19138972 0.13144024 0.023526596 0.0770143
0002e0 9d 98 34 3c 5a 26 a4 be c9 21 a6 be 9e e0 8b 3c
       0.011022714 -0.3206051 -0.3244765 0.01707488
0002f0 ee 5d 69 3d 68 49 ee 3b 88 1f 74 be 65 de 05 bd
       0.056974344 0.0072719343 -0.23840153 -0.032682795
000300 48 8c 5b 3e 0e 80 97 3e bf fa 9e 3e 61 11 bb bd
       0.21440232 0.29589885 0.3105068 -0.09134174
000310 fa 84 a8 3c ed cc 51 be f8 c1 73 3e f7 73 b7 bc
       0.02057122 -0.20488329 0.23804462 -0.022394164
000320 dd 76 97 bd 7c 1a a5 be 11 f0 4d bd fa 60 22 3d
       -0.07395718 -0.32246768 -0.050277773 0.039643265
000330 53 ae 9f 3d 7e 3d 1b 3e 51 87 c3 3c 50 a9 e6 3a
       0.077969216 0.15160176 0.023868235 0.0017598066
000340 54 fb 6d 3e 5f ed 91 3d ff bb be 3d 22 50 e6 bd
       0.23240405 0.07125353 0.09313201 -0.11245753
000350 56 4c 17 be 61 8f 88 be 0b 38 ef 3d ac 25 79 bd
       -0.14775214 -0.2667189 0.11680611 -0.060826942
000360 68 d6 fa 3b c6 ca 0a be 99 1e 69 3c 18 2b 81 3d
       0.0076549537 -0.13553914 0.014228486 0.063070476
000370 b6 aa f6 3d 54 e2 fb bd 0a 5b 93 bd b8 17 3d bd
       0.12044279 -0.12299028 -0.07195099 -0.046165198
000380 b5 5e 43 3d a4 da a3 be 15 92 64 3d 1a 27 d3 bd
       0.04769774 -0.32002747 0.055803377 -0.103101924
000390 79 15 3f be 31 36 2a be 81 64 01 3d ec 73 ad bd
       -0.18660535 -0.16622235 0.03158999 -0.08469376
0003a0 e9 2e 5b 3d 11 48 d5 3d b6 be 2d 3b 81 a5 5c bc
       0.053511534 0.10414136 0.0026511378 -0.013467194
0003b0 a0 24 fb ba a2 52 bc bc 2e 08 bf bc 95 a7 da bb
       -0.0019160695 -0.022988621 -0.02331933 -0.0066728094
0003c0 07 d8 c4 3d d6 4b b7 bd 28 c0 9e 3e a2 85 20 bd
       0.096115164 -0.089500114 0.3100598 -0.039189942
0003d0 18 6b 7a be 67 f8 10 3e de 3a 6e 3d c8 fe 35 3e
       -0.24454916 0.14157258 0.05816161 0.17772973
0003e0 5a f3 a7 3b 65 b1 3e be 8b 1d ac be 1d eb 20 3e
       0.0051254453 -0.18622358 -0.3361629 0.15714689
0003f0 83 27 29 3d a5 72 42 3d 6a ca bc bd d5 4c ad 3c
       0.041297447 0.047472615 -0.09218295 0.0211548

bias f4 [80]
000000 ee 2e b2 bc ab a0 60 3d f5 94 fb bc 6c a6 83 3c
       -0.021750893 0.054840725 -0.030710677 0.016070567
000010 b7 e6 06 bd d4 dd 00 3c 94 1a 80 bd ef c8 39 3d
       -0.03293487 0.007865388 -0.062550694 0.04535764
000020 d7 5d 3e bd 17 4b eb bc bd c7 cf bc 94 80 ff bc
       -0.04647621 -0.028722329 -0.025363797 -0.03118924
000030 e0 08 c9 bc 41 14 af bc fe 62 a0 3c a0 a8 39 3b
       -0.024540365 -0.021371963 0.019578453 0.0028329268
000040 ef 23 5b 3d fe cf 8f 3c 81 08 a7 3c ff 2c df bb
       0.053501066 0.017555233 0.020389797 -0.006810784
000050 32 a1 44 3d ef eb 87 3d 0d fe ae bc 5e ca b3 bc
       0.04800529 0.06636798 -0.021361375 -0.021947082
000060 90 4f 49 bd e6 31 78 bd fb 6a 05 bd 3a 76 7d bc
       -0.049148142 -0.06059446 -0.032572728 -0.015470082
000070 47 45 77 3c b1 2e 89 bd 1c 5a d9 bc 3e aa 21 3d
       0.015092201 -0.06698359 -0.026532225 0.039468996
000080 68 75 50 3b aa 85 6b bd 0a d3 3b bd 77 47 f7 3c
       0.003180826 -0.05750052 -0.04585556 0.030185444
000090 53 48 80 bd 0b bf 57 3c f9 fc c0 bc ad a2 3a bd
       -0.06263795 0.013168107 -0.023558127 -0.045565296
0000a0 ca 4f db 3c 74 7b 86 bd 9a 7b c1 bb 64 59 8d 3d
       0.026771445 -0.065665156 -0.005904627 0.069018155
0000b0 7b f5 9e 3c 6e da 5f bd 69 ea b5 3b cf 85 a7 3c
       0.019404164 -0.05465167 0.0055516255 0.020449547
0000c0 ef 06 e1 bc 73 aa 6d 3d 38 74 9a bb 44 fb 0b 3c
       -0.027469127 0.05802388 -0.0047135614 0.008543793
0000d0 b9 1d 43 3d 5b 52 d7 3c 04 c0 1e bd 75 34 00 bd
       0.047635768 0.026284387 -0.03875734 -0.031300027
0000e0 f0 a3 c4 3b 89 79 6b 3c 4d 2f 12 3c c3 13 49 bc
       0.006000988 0.014372238 0.00892241 -0.012272778
0000f0 8c 53 58 bd b5 31 d0 bc 22 5e 3f bd 3f e2 3b 3c
       -0.05281405 -0.025414327 -0.04672063 0.0114675155
000100 b4 a7 2a bd 07 8a 41 3c 00 ba ca bc 05 32 da bb
       -0.04166384 0.011812693 -0.024746895 -0.006658795
000110 fb bb 1b bd ac 29 c1 ba 5a 2b c9 bc 90 c2 92 bc
       -0.03802107 -0.0014737151 -0.024556804 -0.01791504
000120 75 44 c2 3c 75 0a 10 bd a0 2b 2b bd 0a 5a 68 3c
       0.023714283 -0.035166223 -0.04178965 0.014181623
000130 0e 33 3d 3c ed d2 62 bd 51 0e 62 3d a6 ba 0c 3c
       0.011547817 -0.055376936 0.055189434 0.008589422

weight f4 [10, 80]
000000 a3 01 cd be ca 3d 1f 3e 22 3f 75 3e f0 75 1b 3e
       -0.4004031 0.15550914 0.23949865 0.15181708
000010 84 10 1c bd 5c a9 6f 3e 18 4d ae 3d db 05 83 3e
       -0.038101688 0.23404449 0.08510798 0.25590405
000020 a7 75 c2 3d e2 d6 f5 be f5 d1 c8 be a1 84 9a be
       0.09495097 -0.48015505 -0.39222685 -0.30179313
000030 f3 31 00 3d a0 d9 94 bd db f3 48 3e 8e 66 b2 3e
       0.031297635 -0.07268071 0.19624273 0.34843868
000040 11 96 f3 be 68 ae 47 3e 8c 80 8b bd ff a5 23 bd
       -0.4757543 0.19500124 -0.06811628 -0.039953228
000050 3c 61 7a 3e f4 43 89 3e de 5f b3 3d ce 08 7f be
       0.24451154 0.26809657 0.087585196 -0.24905702
000060 40 8e ee 3d 37 20 36 3d 85 36 2a bd d5 ff 96 3e
       0.11648226 0.044464316 -0.0415559 0.2949206
000070 7e e9 c9 3e 4e 40 f0 b9 63 f1 a8 be 46 e5 8b bd
       0.39435953 -0.00045824278 -0.32996663 -0.0683084
000080 be 00 04 3e 48 b9 94 bd 95 66 22 bd c6 9c 04 bf
       0.12890908 -0.07261902 -0.03964861 -0.5180172
000090 09 5a 50 bd 22 2d 21 bd 76 61 7c be 96 4b 22 3d
       -0.050867114 -0.039349683 -0.24646553 0.039622866
0000a0 fe 09 11 3d b3 2f 48 3d d6 10 c1 bd d9 05 20 bc
       0.03540992 0.048873615 -0.09427039 -0.009767019
0000b0 2d 3a 47 3e b4 44 8f 3e c2 43 aa bd 89 49 d7 3d
       0.19455786 0.27982104 -0.08313705 0.105120726
0000c0 f6 a7 3e be e5 7d 0c bf ed 35 03 3e 1f f0 0d 3e
       -0.1861876 -0.548796 0.1281354 0.1386113
0000d0 e5 66 a9 be bb b7 38 be f9 2d 3f 3e 78 7f 62 3e
       -0.33086315 -0.18038838 0.18669881 0.22118938
0000e0 e2 d9 c0 bc 7c b8 8e 3e cd 3d 0b 3d 38 20 8d be
       -0.023541395 0.27875125 0.033994485 -0.27563643
0000f0 3a 89 67 bc 0a d9 e0 3c 39 a6 d2 be 3e 59 19 3e
       -0.014131838 0.027447242 -0.41142443 0.1497545
000100 19 4f 2c 3d 25 36 5d 3e 97 21 02 be d9 b3 b4 3e
       0.04206762 0.21602686 -0.12708126 0.35293463
000110 f0 56 43 bd 6f ba 8b 3c 05 ed 1a bd 89 49 87 bd
       -0.047690332 0.017056672 -0.037823696 -0.066058226
000120 45 4d da be 96 94 29 be 94 87 27 be a2 06 e3 be
       -0.42637077 -0.16560587 -0.16360313 -0.44340998
000130 4a a3 d4 bd a6 db ac be 0d 4b af bd 23 95 d8 be
       -0.103827074 -0.33761328 -0.08559237 -0.42301282
000140 ab d7 a8 3e cd 12 98 3e 5e 2c fc 3d 6c 65 1f 3d
       0.32977042 0.29701844 0.1231315 0.038915083
000150 3c 99 9a bd 3f 3d 02 be 0f 80 71 bc db 57 03 3e
       -0.075487584 -0.12718676 -0.014740004 0.12826483
000160 56 4f 0d bf 8a d4 72 3e dd 99 10 3e 21 ac 9e be
       -0.5519918 0.2371389 0.14121194 -0.309907
000170 82 57 b5 3d 0b c5 9f 3d 02 e9 af be 09 69 e8 3d
       0.088545814 0.07801255 -0.34357458 0.11348159
000180 12 64 9a 3e 0f 24 20 be d9 77 73 bd 67 04 33 bd
       0.30154473 -0.15638755 -0.059440468 -0.04370537
000190 97 23 ad 3e 3b ae 85 3e fb 1c 78 bc b1 4c bb bc
       0.33816215 0.2610949 -0.015143628 -0.022863718
0001a0 98 7d 27 3c a3 4a 20 bc 9c 10 ee bc e3 c6 a7 be
       0.010222815 -0.00978342 -0.029060654 -0.32768926
0001b0 5c 74 9c be ba d1 a9 bd 44 66 7f 3d a3 59 80 bd
       -0.30557525 -0.08291955 0.062353387 -0.06267097
0001c0 89 6b 85 bd b7 e5 19 bd 83 c1 90 3d 8d 86 35 3e
       -0.06514651 -0.03757259 0.070681594 0.17727108
0001d0 7c ad 92 bd de 24 36 3c c7 6c cf bc 43 93 8a bd
       -0.07161996 0.011117188 -0.025320424 -0.06766369
0001e0 02 78 93 be a4 aa 12 bd ba f0 a6 3d 3a b9 e0 3c
       -0.28802496 -0.035807267 0.08151384 0.027432073
0001f0 cd 49 31 be d8 b5 e0 be b8 7f 98 3e cd e4 41 be
       -0.17313309 -0.43888736 0.29784942 -0.18934937
000200 a1 18 b5 bd fb 5c 88 3e b0 78 8b be 92 ad 30 be
       -0.08842588 0.26633438 -0.27240515 -0.17253712
000210 d5 6e 96 3e 72 d9 57 3e 67 e2 fb be 8a 05 a5 be
       0.29381433 0.21079043 -0.4919617 -0.32230788
000220 52 df d6 bd 1c b2 4f be 45 78 2a 3d 42 73 3f 3e
       -0.10491814 -0.20282787 0.041618604 0.18696311
000230 f3 dd a4 bd d0 a4 61 3d 8e 30 d3 bd a3 62 53 be
       -0.08050146 0.055088818 -0.103119954 -0.20643096
000240 07 8d 50 be f6 38 35 3e 5e 6a 57 bd 94 e3 5e bc
       -0.20366298 0.1769751 -0.052591674 -0.013604064
000250 6c 74 ee bc 19 e9 ae bd 99 ac 13 bc 9a 46 88 3d
       -0.029108249 -0.085405536 -0.009013318 0.06654091
000260 0e 8d 3f bb 5d 1d 22 be a2 f1 91 3e a4 39 8f 3e
       -0.0029228362 -0.15831514 0.28504664 0.27973664
000270 4c ea a9 bd ac 88 cf be db 85 bd 3d 37 34 a6 3e
       -0.08296642 -0.4053396 0.092540465 0.32461712
000280 78 81 9d be e8 1a 36 be 0b b0 da be c1 22 17 3c
       -0.3076284 -0.17783701 -0.42712435 0.009224595
000290 5e c2 98 3d 20 6b e3 be 3a a6 c3 bc 15 7d c7 be
       0.074589476 -0.44417667 -0.023882974 -0.38962618
0002a0 7a 8e 6e be 2d af 81 bd 4b 9a 95 3e 61 4d 6f be
       -0.23296538 -0.0633224 0.2921928 -0.23369361
0002b0 f7 58 a0 bd 3c d2 f1 bc cc bd 93 be 61 6c ab be
       -0.07829469 -0.029519193 -0.2885574 -0.33481124
0002c0 f6 38 de 3d 62 80 a0 3e 20 bf 82 bd 19 7e 4c bd
       0.10850708 0.31347948 -0.063841105 -0.049924944
0002d0 23 dc c8 bd d8 d9 30 3e 18 5c 81 3c d4 f4 96 3e
       -0.09807613 0.17270601 0.015790984 0.29483664
0002e0 39 9c 83 bd 7b 9a 6d bd c2 bd 81 3d e2 3b 0f be
       -0.064262815 -0.058008652 0.063350216 -0.13987687
0002f0 bc 2a 77 be 7a 44 31 bb 1d 2a 92 bd 20 b0 00 bc
       -0.24137396 -0.0027048872 -0.07136939 -0.0078544915
000300 4c dc d7 bc 96 96 d2 3d c1 98 5b bd ae 0d c6 3c
       -0.026350163 0.10282628 -0.053612474 0.024176445
000310 dd 71 a2 bd 08 2e 66 bd 13 5a b6 be e3 1a a0 bd
       -0.07931874 -0.056196243 -0.35615596 -0.07817628
000320 a5 5c 37 be a0 67 14 bd 5b ba 2a 3d 0d ae 3e 3d
       -0.17906435 -0.036231637 0.04168163 0.046552707
000330 5d a0 3d be 85 51 b8 be a6 d8 b2 be 62 19 bd be
       -0.18518205 -0.35999694 -0.34930915 -0.36933428
000340 da 94 73 3e 8c ae 99 3e 9f 65 11 be cc ff a7 be
       0.23787251 0.3001598 -0.14198922 -0.32812345
000350 0f 1a cb 3e 34 81 0c be 01 b7 ad 3e 8d ee 3a 3e
       0.3966832 -0.13721162 0.33928683 0.18255062
000360 30 38 72 bd 07 c4 b1 bd df 4a 56 3b e8 e5 8f 3e
       -0.059135616 -0.086799674 0.0032698435 0.28105092
000370 0f 47 4b bd 48 d4 ee 3c 53 83 97 be 81 6e a7 3e
       -0.049628314 0.029153958 -0.2959238 0.32701495
000380 20 0e 4b 3c 80 bd 9d 3e e5 97 71 3d 8b ae 8f 3e
       0.012393504 0.3080864 0.05898275 0.28062853
000390 43 6b 3a 3d 0e c2 b9 3c 17 67 8d 3d 09 d0 4a 3d
       0.04551245 0.02267554 0.069044285 0.049514804
0003a0 bd 80 27 3e 5d 93 a6 3d 5f c1 81 be 98 85 ba 3e
       0.16357704 0.08133576 -0.25342843 0.3643005
0003b0 44 69 86 3d 7d 32 4c 3e 31 08 46 bd 09 13 92 3d
       0.065630466 0.19941135 -0.048347656 0.07132537
0003c0 3c ca 0a be a7 43 85 bd 5c 29 e1 be e9 4d c4 bd
       -0.13553709 -0.06507044 -0.43976867 -0.09585173
0003d0 32 8b 33 bd 78 1b 87 3e b9 c5 66 bd 00 35 18 bf
       -0.04383392 0.26388144 -0.056340907 -0.5945587
0003e0 f3 38 44 3e 81 31 12 be 46 2f 5d 3e 0e e3 7c 3e
       0.1916235 -0.14276697 0.21600065 0.2469599
0003f0 00 90 04 bd 62 60 33 bd 73 03 97 be 98 f0 75 be
       -0.03236389 -0.04379309 -0.2949482 -0.2401756

bias f4 [10]
000000 5c 92 e6 bd 10 87 69 bc cb 00 ab bd ba 24 b3 3d
       -0.112583846 -0.014253393 -0.083497606 0.087472394
000010 6a 09 f3 bd 78 08 bf 3c 76 e2 b6 3c f7 36 7b bc
       -0.1186703 0.023319468 0.022324782 -0.015332929
000020 f5 c4 8b bd 30 ae 5c 3d
       -0.06824676 0.053877056
