Computational Intelligence/aeh330_5/resultsclassifier_cnn_18.model (torch, 48543 bytes, 6 tensors)

weight f4 [32, 1, 3, 3]
0	0x3e1958c4	0.14975268
1	0x3e3cc9d7	0.18436371
2	0x3e916e88	0.2840464
3	0xbe5d39dd	-0.21604104
4	0x3e8c0b3c	0.2735232
5	0xbe1171e7	-0.14203607
6	0xbddd7ebe	-0.1081519
7	0x3e9baec5	0.30406776
8	0xbea387d4	-0.31939566
9	0xbdd7ca2a	-0.105366066
10	0x3dcdfcf2	0.10058011
11	0x3da64f8c	0.08120641
12	0x3e093703	0.13399892
13	0x3e911ae8	0.2834084
14	0x3cb7113e	0.022347089
15	0xbc8be33f	-0.017076133
16	0x3ccd19f1	0.025036784
17	0x3db91915	0.09037987
18	0x3ea92259	0.33034018
19	0xbe8cbc7f	-0.2748756
20	0xbe272321	-0.16321994
21	0xbe179186	-0.14801607
22	0xbec0534b	-0.37563547
23	0x3e6f5e67	0.23375855
24	0xbde98d17	-0.11403864
25	0xbde19b69	-0.1101597
26	0xbde5a3de	-0.11212896
27	0x3e5aecc9	0.21379389
28	0x3e5f7c55	0.21824773
29	0xbdf1c6e7	-0.11805516
30	0x3dc32d16	0.09530084
31	0x3ed797a6	0.42107886
32	0x3d1516b9	0.036398623
33	0x3e31ed9b	0.17375796
34	0xbe9f8573	-0.311565
35	0xbea41953	-0.3205057
36	0xbe84451b	-0.25833973
37	0xbe51cc48	-0.20488083
38	0x3ead9e8b	0.3391002
39	0x3e93b496	0.28848714
40	0xbe9c9260	-0.30580425
41	0x3d494acb	0.049143594
42	0xbe91a305	-0.28444687
43	0x3e791b98	0.24326932
44	0xbdfd6ca1	-0.12374235
45	0xbe1b944a	-0.15193287
46	0x3d344e2a	0.044019856
47	0x3deafd0d	0.11474047
48	0xbe7e292f	-0.24820398
49	0xbd8eafdd	-0.06967137
50	0xbe0acd38	-0.13554847
51	0x3d60bf06	0.054869674
52	0x3e84ecca	0.25961906
53	0x3df6bf41	0.120481975
54	0xbea8f242	-0.32997328
55	0xbe4da748	-0.20083344
56	0x3dce101f	0.100616686
57	0x3e01c9d8	0.12674654
58	0x3dcdca46	0.10048346
59	0xbe897e9d	-0.2685441
60	0x3dc37c51	0.09545196
61	0x3e19b11f	0.15008973
62	0xbe55daa3	-0.20884185
63	0xbd6397dd	-0.05556475
64	0xbba2f901	-0.0049735312
65	0xbadb3286	-0.0016723431
66	0x3e71050c	0.23537081
67	0x3d7b53bc	0.061359152
68	0x3e4dd02d	0.20098944
69	0xbe4a98cf	-0.19784854
70	0x3df2d5e8	0.11857206
71	0xbd4fb675	-0.050711114
72	0xbe2d37ff	-0.16915892
73	0x3c3a8a5c	0.0113855265
74	0x3dd43052	0.10360779
75	0xbca94c02	-0.020666126
76	0xbec43d90	-0.38328218
77	0xbebb6268	-0.36598516
78	0x3e35bea2	0.17748502
79	0x3e085f4a	0.133176
80	0x3e7ae6eb	0.2450215
81	0xbe433826	-0.19064388
82	0x3e8a4d39	0.2701204
83	0xbea6d4ac	-0.3258413
84	0xbeb6b121	-0.35682014
85	0xbdd00f83	-0.101592086
86	0xbde0815d	-0.10962174
87	0xbe39e479	-0.18153562
88	0xbc75a570	-0.014993057
89	0x3e577d34	0.21043855
90	0xbde4def6	-0.11175339
91	0xbdc63416	-0.09677903
92	0x3e07f188	0.1327573
93	0xbe913dba	-0.28367406
94	0xbc487411	-0.012234704
95	0x3e6d00ed	0.23144884
96	0x3e5d61cf	0.21619342
97	0x3d87bb3d	0.0662751
98	0xbec799bc	-0.38984478
99	0x3d29c771	0.041449968
100	0xbe0092d4	-0.1255601
101	0xbe2a8449	-0.16652025
102	0xbeccdb07	-0.40010855
103	0xbd83f48d	-0.06443129
104	0xbe43d85b	-0.19125502
105	0x3e5a3137	0.21307836
106	0x3e4e4cc1	0.20146467
107	0x3dc4ae48	0.09603554
108	0x3cf258ce	0.029583361
109	0xbe9b07c7	-0.3027937
110	0x3d9716e5	0.07377414
111	0xbec0dedc	-0.37670028
112	0xbe11c736	-0.14236149
113	0xbd2901ff	-0.04126167
114	0x3e6fd744	0.23421961
115	0x3dfd2d53	0.123621605
116	0x3c794d1c	0.015216138
117	0xbdef5b92	-0.116873875
118	0x3beae018	0.0071678273
119	0xbe4281ed	-0.18994875
120	0x3eb290aa	0.34875995
121	0xbd692de1	-0.05692852
122	0xbd9d21e9	-0.076724835
123	0x3e00d458	0.12581003
124	0xbbd6356f	-0.0065371315
125	0xbe8b0da8	-0.27158856
126	0xbc949c47	-0.018140925
127	0xbd971319	-0.073766895
128	0x3e08002f	0.1328132
129	0x3e477e86	0.19481859
130	0x3da28f5d	0.079375006
131	0xbe60f9a8	-0.21970236
132	0xbeee9497	-0.4659774
133	0x3e8e759e	0.2782411
134	0xbe66b13d	-0.22528549
135	0xbe5715ea	-0.21004453
136	0xbe1c9981	-0.15292932
137	0x3e4b5ad1	0.19858862
138	0xbe600f80	-0.21880913
139	0x3d8eb44a	0.06967981
140	0x3dd55b22	0.10417773
141	0xbda51ab8	-0.08061737
142	0xbe34e1d8	-0.17664278
143	0x3e6830be	0.22674844
144	0x3da44818	0.08021563
145	0xbed2ce23	-0.41172895
146	0xbde6ef10	-0.11276066
147	0x3db06f5f	0.08614992
148	0x3d3e88cc	0.04651718
149	0x3e60aeee	0.2194173
150	0x37e4bbe8	2.7267219e-05
151	0x3e7da387	0.24769412
152	0xbe672260	-0.22571707
153	0xbdc0d4a0	-0.09415555
154	0x3e6152f4	0.220043
155	0xbe55a6db	-0.20864432
156	0x3e912a8b	0.2835277
157	0xbe4f2290	-0.20228028
158	0x3d80238b	0.06256779
159	0xbd4fd18a	-0.05073694
160	0xbe8ad675	-0.27116743
161	0x3e0babe7	0.13639794
162	0x3d1f6afd	0.03892039
163	0x3dbc0ba5	0.091819085
164	0x3cdff6ca	0.027339358
165	0x3e7cdb8d	0.24693127
166	0x3d8c2a06	0.06843953
167	0xbe0aa6ba	-0.13540164
168	0x3e7995ee	0.243736
169	0xbefb0026	-0.4902355
170	0xbe6fd198	-0.23419797
171	0xbe583121	-0.21112491
172	0xbdb7c3f8	-0.08972925
173	0xbe809055	-0.25110117
174	0x3cf306ec	0.029666387
175	0x3e199045	0.1499644
176	0x3e8bd509	0.2731097
177	0xbe85eb2f	-0.26155993
178	0xbeb29d25	-0.34885517
179	0x3e02e4c5	0.12782581
180	0xbe9ed483	-0.3102151
181	0xbc4dd205	-0.01256228
182	0x3e4a37c8	0.19747841
183	0xbe822ed4	-0.25426352
184	0xbe84563b	-0.2584704
185	0xbdece03a	-0.11566205
186	0x3e76d4e2	0.24104646
187	0x3e83c847	0.25738737
188	0xbd1013d3	-0.035175156
189	0xbe57bbc1	-0.21067716
190	0xbdf7c0e9	-0.120973416
191	0xbe43e197	-0.19129024
192	0xbe8e8a48	-0.27839875
193	0x3e946e4c	0.289904
194	0xbe0624cb	-0.13099973
195	0x3d6c0f19	0.057631586
196	0xbd0f6bc4	-0.035014883
197	0xbe46aeb1	-0.19402577
198	0x3dec06e5	0.115247525
199	0x3e36b62f	0.17842935
200	0x3e3f6517	0.18690906
201	0xbd15a547	-0.036534574
202	0xbd68cf7b	-0.056838494
203	0xbeb7e6d3	-0.35918292
204	0xbe532754	-0.20620471
205	0xbe729b42	-0.23692039
206	0xbd961d3f	-0.07329797
207	0x3e5408ba	0.20706454
208	0x3e68a427	0.22718869
209	0x3e69f66a	0.22847906
210	0x3e587fa5	0.21142443
211	0xbd283684	-0.041067615
212	0xbe681d0f	-0.22667335
213	0xbe0e9521	-0.13924076
214	0xbede0fca	-0.4337142
215	0xbe68cb92	-0.22733906
216	0xbe38ffc4	-0.18066317
217	0xbd735f26	-0.059416912
218	0x3ea9f37d	0.3319358
219	0xbe7f2a00	-0.24918365
220	0x3e350fcf	0.17681812
221	0xbd093af1	-0.033503477
222	0xbea8f5ca	-0.33000022
223	0xbd044c2b	-0.032299202
224	0xbed46074	-0.41479838
225	0xbe2dd3fd	-0.16975398
226	0xbe894638	-0.26811385
227	0xbc02c5df	-0.007981746
228	0x3d89f7c0	0.06736708
229	0xbe53b4ac	-0.2067439
230	0xbc3a3d1b	-0.011367108
231	0xbeca2e30	-0.39488363
232	0x3e8f432e	0.27980942
233	0x3d76ecf3	0.060284566
234	0xbcf2cb87	-0.029638065
235	0x3e96b64d	0.2943596
236	0xbe9b1eba	-0.3029688
237	0xbe1f8f18	-0.1558193
238	0xbe248b6f	-0.16068815
239	0x3e9246fb	0.2856978
240	0xbea0fc65	-0.31442562
241	0x3d98818b	0.07446583
242	0x3cb94bf8	0.022619233
243	0x3e24be27	0.16088162
244	0xbe448424	-0.19191033
245	0xbe955da0	-0.29172993
246	0xbe01af32	-0.12664488
247	0xbe12b7e6	-0.14327964
248	0x3d1e8fa4	0.038711205
249	0x3e01ec54	0.12687808
250	0xbe64c5df	-0.22341107
251	0x3ea62fa7	0.3245823
252	0xbea0ccc9	-0.3140624
253	0xbeedc426	-0.46438712
254	0x3db0a1aa	0.08624585
255	0x3e611f49	0.2198459

bias f4 [32]
0	0xbef042ed	-0.4692606
1	0xbec91fcd	-0.39282075
2	0xb9ea1c7a	-0.00044653175
3	0xbdf42832	-0.11921729
4	0x3dc8abc1	0.097983845
5	0xbe5286a4	-0.20559174
6	0xbe073a37	-0.13205801
7	0xbea5c043	-0.32373247
8	0xbef241bc	-0.47315776
9	0x3d7e0b12	0.062022276
10	0xbeb8d579	-0.36100367
11	0xbe05457b	-0.13014786
12	0xbf0e0747	-0.55479854
13	0x3d0cdc80	0.034389973
14	0xbf04bb13	-0.5184795
15	0xbe63948c	-0.22224635
16	0xbeb77c63	-0.35837087
17	0xbee958ec	-0.45575655
18	0xbcc05b16	-0.023480933
19	0x3e55d105	0.20880516
20	0xbd68173b	-0.05666278
21	0x3db7def5	0.089780726
22	0xbdb4d75c	-0.08830139
23	0xbe8afa68	-0.2714417
24	0x3e6cb82f	0.23117135
25	0x3e98bebb	0.29833016
26	0xbddefab5	-0.10887662
27	0x3ce23a99	0.027615832
28	0xbea79125	-0.32727924
29	0xbec6c1c0	-0.38819695
30	0x3ca852d1	0.020547302
31	0x3d6235d6	0.055227123

weight f4 [20, 512]
0	0x3e141d3c	0.14464277
1	0xbcef0905	-0.029179106
2	0xbbda3cd4	-0.0066600833
3	0x3e3f943f	0.18708895
4	0xbbbaa5c2	-0.0056960294
5	0xbbe2d7c9	-0.0069226963
6	0x3d2cd304	0.042193428
7	0x3db4b9bd	0.08824489
8	0x3da8d69e	0.0824406
9	0x3c0acdb1	0.008471892
10	0x3d01f94c	0.03173189
11	0x3da6140c	0.081092924
12	0x3d591271	0.052996103
13	0x3c422689	0.011850008
14	0x3cb4a6e8	0.022052243
15	0x3cf32c52	0.02968422
16	0xbca9a48c	-0.020708345
17	0x3d77b9d1	0.060479943
18	0x3d47103d	0.04859947
19	0xbc86b388	-0.016443029
20	0x3c869175	0.016426781
21	0x3d4fcb55	0.050731022
22	0x3d184bb4	0.03718157
23	0xbd1f2b32	-0.038859554
24	0xbcb76882	-0.0223887
25	0x3c850a98	0.016240403
26	0xbb5b9921	-0.003350802
27	0x3dbe0b9e	0.092795596
28	0x3c78c0b8	0.0151826665
29	0x3c8eaafb	0.017415514
30	0xbc2912b7	-0.010319403
31	0x3c93c6ef	0.018039195
32	0x3e524573	0.20534305
33	0x3d82f4be	0.06394337
34	0xbc6ba4d4	-0.01438256
35	0x3cbc5bbd	0.022992963
36	0xbcfd98a1	-0.030956568
37	0x3e150e48	0.14556229
38	0xbb77c8fa	-0.0037809
39	0x3d58b721	0.05290902
40	0x3c9af916	0.018917602
41	0x3d559ede	0.05215346
42	0x3dbcffe6	0.09228496
43	0x3dbd4989	0.09242541
44	0x3da51a34	0.080616385
45	0x3da32956	0.079668686
46	0x3d839d5d	0.06426499
47	0xbdd6c72c	-0.10487208
48	0xbe5135c9	-0.20430674
49	0xbdae0b28	-0.08498222
50	0xbbbfea6d	-0.005856803
51	0xbb5ab710	-0.0033373274
52	0x3dd78432	0.10523261
53	0xbd3aa6db	-0.045569282
54	0x3c97219e	0.018448647
55	0x3c391894	0.011297364
56	0x3e6a3989	0.2287351
57	0xba6d32de	-0.00090484123
58	0x3d03a6e0	0.032141566
59	0x3d3d269d	0.046179403
60	0x3ce17193	0.027519977
61	0x3c32f8ad	0.010923547
62	0x3d36291b	0.044472795
63	0x3db297fb	0.08720394
64	0x3d03942f	0.03212374
65	0xbdae39ee	-0.08507143
66	0xbe8459dc	-0.25849807
67	0xbd333d47	-0.04375961
68	0xbcb456ed	-0.022014106
69	0x3dac3073	0.084076785
70	0xbd081060	-0.03321874
71	0x3d8948d2	0.067033425
72	0xbd5fcd27	-0.054639008
73	0xbd27c6fa	-0.040961243
74	0xbd8b6558	-0.06806439
75	0x3cb47aff	0.022031305
76	0x3d927f60	0.07153201
77	0x3d10aa1e	0.035318486
78	0xbdae478d	-0.08509741
79	0x3e1a6e80	0.15081215
80	0xbd4a9797	-0.049460974
81	0x3cb342c3	0.02188242
82	0xbdb78c25	-0.08962277
83	0x3e2491f9	0.16071309
84	0x3caa165d	0.020762617
85	0x3adf67f7	0.0017044534
86	0x3bf3bb82	0.007438124
87	0x3e198f2e	0.14996025
88	0x3c44b592	0.01200618
89	0xbcb34899	-0.021885203
90	0x3d8a6b11	0.067587025
91	0x3da62e10	0.081142545
92	0xbcfddd8b	-0.030989429
93	0xbc126146	-0.008934325
94	0xbd8ad3dd	-0.06778691
95	0xbc8cf0ff	-0.01720476
96	0xbe0e55f7	-0.1389998
97	0xbe203ad6	-0.15647444
98	0x3ceebc48	0.029142514
99	0xbda04499	-0.07825584
100	0xbdb2b0ea	-0.0872515
101	0xbdab0ac8	-0.08351666
102	0xbda7336e	-0.08164106
103	0x3bd4ff99	0.006500196
104	0xbd8dc2ee	-0.069219455
105	0x3d7495e2	0.059713252
106	0xbd87fdac	-0.06640181
107	0x3d9c5e3a	0.0763516
108	0xbe3c8cae	-0.1841304
109	0x3d5a0c24	0.053234234
110	0xbd213fd8	-0.039367527
111	0x3e3038b6	0.17209134
112	0xbcd306e2	-0.025760118
113	0x3b82c91e	0.00399126
114	0xbc66ba0a	-0.014082441
115	0x3d9dba39	0.07701535
116	0x3cb5fc3f	0.022215007
117	0x3d83477c	0.06410119
118	0x3d556f70	0.05210823
119	0xbd019cec	-0.031643793
120	0x3c1eec38	0.009699874
121	0x3cae119c	0.021248631
122	0xbb0c2d35	-0.002138925
123	0x3d0b4dd0	0.034009755
124	0xbd7f7d14	-0.062375143
125	0x3c3a696b	0.011377673
126	0x3bc17893	0.005904266
127	0x3d10680c	0.035255477
128	0xbd26340e	-0.040576987
129	0xbc06e091	-0.008232252
130	0xbd5f0057	-0.054443683
131	0xbe023798	-0.1271652
132	0x3e5551f6	0.20832047
133	0xbd7318e6	-0.059349917
134	0x3d54d730	0.05196303
135	0x3c957f7b	0.018249264
136	0x3db4fbbc	0.08837077
137	0x3d557fdb	0.052123886
138	0xbd6ef81c	-0.058342084
139	0xbc00d38f	-0.0078629395
140	0x3cd424f2	0.025896523
141	0x3dc17add	0.094472624
142	0xbdb5d164	-0.08877829
143	0x3d06b0a7	0.032883313
144	0xbc8a1833	-0.016857242
145	0xbdb790f4	-0.089631945
146	0x3c7c3f98	0.015396021
147	0xbdf26100	-0.118349075
148	0x3d8ed27a	0.06973739
149	0x3d6977ff	0.056999203
150	0xbd6074be	-0.054798834
151	0x3d5f7fb1	0.054565135
152	0x3c173f95	0.009231468
153	0xbd633d97	-0.05547866
154	0xbda6e4bf	-0.081490986
155	0xbd06a30f	-0.03287035
156	0x3d9ccaaf	0.07655846
157	0xbe1837f9	-0.14865102
158	0xbd83480e	-0.06410228
159	0xbca1a898	-0.019733712
160	0x3e2d8f4b	0.16949193
161	0xbd02ef38	-0.031966418
162	0x3d0dc9e5	0.03461637
163	0xbdc5c2fc	-0.09656331
164	0xbd708016	-0.058715902
165	0x3e11603c	0.14196867
166	0xbe30d7d6	-0.17269835
167	0x3e2b86b3	0.16750602
168	0xbd8387df	-0.064224
169	0xbd64e866	-0.055885695
170	0x3d307c7d	0.04308747
171	0xbd091355	-0.033465702
172	0x3c14f1ca	0.00909085
173	0xbc8e9458	-0.01740472
174	0xbd63b8c0	-0.055596113
175	0x3e0b9ceb	0.13634078
176	0xbe503e34	-0.20336229
177	0xbdf87d5d	-0.12133286
178	0xbd81bde4	-0.06335047
179	0xbdf1bda1	-0.11803747
180	0x3dcac713	0.09901252
181	0x3c99af3b	0.018760314
182	0xbe2b70fc	-0.16742319
183	0x3e2bbbc5	0.16770847
184	0xbd2e4939	-0.0425503
185	0x3cffe391	0.031236442
186	0x3dbccbdb	0.0921857
187	0x3d52ec57	0.051494922
188	0xbdeb1037	-0.11477702
189	0x3d6c0c2d	0.0576288
190	0x3b2e943f	0.0026638655
191	0x3d366ce0	0.044537425
192	0xbcc228df	-0.02370113
193	0xbcd68bc1	-0.026189687
194	0x3c1b7046	0.009487217
195	0xbe1601b0	-0.14649081
196	0x3cc96741	0.024585368
197	0x3deeacb3	0.116540335
198	0xbc980841	-0.018558623
199	0x3d9813c0	0.07425642
200	0xbd46237f	-0.048373695
201	0x3dc46b80	0.095908165
202	0xbc5149ee	-0.012773974
203	0xbca8ae17	-0.020590825
204	0xbd644a8a	-0.05573515
205	0x3dcbafd6	0.099456474
206	0x3c91876b	0.017764768
207	0x3e5d3bcf	0.21604846
208	0xbe3e168a	-0.18563285
209	0xbdb9e4e7	-0.09076863
210	0x3d9a8720	0.07545304
211	0xbc023986	-0.007948285
212	0xbda8000f	-0.08203136
213	0xbc587e5f	-0.013213723
214	0xbc6cf7f2	-0.014463412
215	0xbccd11ee	-0.025032964
216	0xbe27d648	-0.16390336
217	0xbe4ca53a	-0.19984904
218	0x3dfcbc02	0.12340547
219	0x3d2f460f	0.042791422
220	0xbe9e835a	-0.30959588
221	0x3e276793	0.16348104
222	0x3d7869b0	0.060647666
223	0xbcd33e3e	-0.025786515
224	0x3c3d50ae	0.01155488
225	0xbccf8c7c	-0.025335543
226	0xbdcc047c	-0.09961793
227	0x3dbd5ccc	0.09246215
228	0x3d956061	0.072937734
229	0xbe25d183	-0.16193204
230	0xbe0cc437	-0.13746725
231	0xbdde649c	-0.108590335
232	0xbbaa2adc	-0.0051930975
233	0xbe024eaa	-0.1272532
234	0xbd4a30b5	-0.049362857
235	0x3d03942f	0.03212374
236	0xbe1ae3e2	-0.15125993
237	0x3d79568e	0.06087356
238	0xbca79352	-0.02045599
239	0xbd0843a1	-0.03326762
240	0x3915a6cc	0.00014271884
241	0x3d13f5f7	0.036123242
242	0xbd39f707	-0.0454016
243	0xbde61448	-0.11234337
244	0x3c64e4c0	0.013970554
245	0x3d9698bf	0.07353353
246	0xbcdfad3e	-0.027304288
247	0x3c9b6bee	0.018972363
248	0xbcd18c7e	-0.025579687
249	0x3bf5b29e	0.0074980995
250	0x3d0de7db	0.034644943
251	0xbd68dc50	-0.05685073
252	0x3d403967	0.046929743
253	0xbca862ae	-0.020554867
254	0xbd71a0ab	-0.058991116
255	0x3cf19eac	0.029494606

bias f4 [20]
0	0x3c940641	0.018069388
1	0x3d8986f5	0.06715194
2	0x3d31b163	0.04338206
3	0xbd055840	-0.032554865
4	0x3ce9daf7	0.028546793
5	0xbc2e8c05	-0.0106535
6	0x3c33abb5	0.010966231
7	0x3d2e1864	0.04250373
8	0xbd23dae6	-0.04000368
9	0xbd2574da	-0.04039464
10	0x3d6c88d3	0.057747673
11	0x3cdfd84b	0.027324816
12	0x3c47eba6	0.012202179
13	0x3d1ac600	0.037786484
14	0xbcf26737	-0.029590232
15	0xbd534642	-0.051580675
16	0x3a4b4b68	0.0007755072
17	0xbd1006ce	-0.03516274
18	0xbd0820e6	-0.0332345
19	0xbd2b0adb	-0.0417584

weight f4 [10, 20]
0	0xbedbc037	-0.42920086
1	0xbe4c3681	-0.19942667
2	0x3f09a696	0.53769815
3	0x3ef778e2	0.48334414
4	0x3e1ca3fa	0.15296927
5	0xbed0eff5	-0.40808073
6	0xbdbfd27b	-0.09366318
7	0xbda98e8b	-0.08279141
8	0x3d275fe9	0.04086295
9	0x3eda21cb	0.42603907
10	0xbe19e9db	-0.15030615
11	0xbe8f3388	-0.27969003
12	0xbe7d1702	-0.24715808
13	0xbf022954	-0.5084431
14	0x3ed10005	0.40820327
15	0xbf0362d4	-0.51322675
16	0xbf0bd126	-0.5461601
17	0x3d4ff461	0.050770167
18	0xbdcaa4e7	-0.09894734
19	0xbe1ce334	-0.15321046
20	0x3e883c0f	0.2660832
21	0x3e2af02d	0.16693182
22	0x3debcac5	0.115132846
23	0xbf16ceba	-0.5890919
24	0xbecc9da1	-0.3996401
25	0x3eeebca3	0.46628293
26	0xbddcbffb	-0.10778805
27	0x3ee2cc5f	0.44296548
28	0x3d6c7679	0.05773017
29	0x3e1f5203	0.15558629
30	0x3e9b01d0	0.3027482
31	0x3e26542e	0.1624305
32	0x3d27fd79	0.041013215
33	0x3e92c80e	0.28668255
34	0x3e3daa54	0.18522006
35	0xbf203463	-0.62579936
36	0x3e8269e7	0.25471422
37	0x3e225888	0.15854084
38	0xbd8fd8f4	-0.070238024
39	0x3ecf2bdd	0.40463153
40	0x3f034323	0.5127432
41	0x3cd54bb3	0.026037073
42	0xbeebc175	-0.46046034
43	0xbeaed334	-0.3414551
44	0xbe61d0a0	-0.2205224
45	0xbef2cf4f	-0.4742379
46	0xbd996226	-0.074894235
47	0x3c820a69	0.015874105
48	0x3d7fd06a	0.06245462
49	0x3e975216	0.29554814
50	0x3e9a1568	0.30094457
51	0x3e4d7231	0.20063092
52	0xbeceec2d	-0.40414563
53	0xbf0e87b6	-0.5567583
54	0xbf0c59a5	-0.54824287
55	0xbf015531	-0.50520617
56	0x3eb93038	0.361696
57	0x3eabb4af	0.33536288
58	0x3e3e002d	0.18554755
59	0xbe81e5e0	-0.25370693
60	0x3e0d4165	0.13794477
61	0x3dd4a6dd	0.10383389
62	0x3eb6d561	0.3570967
63	0xbe9793c3	-0.2960492
64	0xbe0addc3	-0.13561158
65	0x3ef42818	0.4768684
66	0x3d8ffb16	0.07030313
67	0xbe157363	-0.14594798
68	0x3dbacdec	0.09121308
69	0x3eb4c021	0.35302833
70	0xbea9f598	-0.33195186
71	0x3e8ad9a3	0.2711917
72	0xbee94844	-0.45562947
73	0xbf0c73e6	-0.54864347
74	0xbed514b5	-0.4161736
75	0x3ef11d04	0.4709245
76	0xbea1b896	-0.3158614
77	0xbd6fe180	-0.058564663
78	0xbca38a92	-0.019963536
79	0xbe689f15	-0.22716935
80	0x3f16bb7e	0.5887984
81	0xbc9f11d3	-0.019417679
82	0x3e83af54	0.25719702
83	0x3f1a9b4c	0.60393214
84	0x3df5df89	0.120055266
85	0x3e74af0b	0.23894899
86	0xbd3782d2	-0.044802494
87	0x3e57e83a	0.21084681
88	0xbe5b0cf4	-0.2139166
89	0xbf22f109	-0.6364904
90	0x3eb60cac	0.35556543
91	0xbd02829d	-0.031862844
92	0x3ec10609	0.37699917
93	0x3e675c7f	0.22593878
94	0x3f19f16b	0.60134
95	0xbdce0006	-0.10058598
96	0x3ee31a51	0.44356015
97	0xbe6fb072	-0.23407152
98	0x3e3156da	0.17318287
99	0x3e8eb998	0.27875972
100	0x3e354cad	0.1770503
101	0x3e0f496a	0.13992849
102	0xbea12fcd	-0.31481782
103	0xbe149afe	-0.1451225
104	0x3dd91351	0.105993874
105	0xbdf3b885	-0.11900429
106	0xbdbeb8ac	-0.09312567
107	0xbe71d075	-0.23614676
108	0xbe45ff05	-0.19335563
109	0xbef572f2	-0.4793926
110	0x3d8d340f	0.06894695
111	0xbe2615e8	-0.16219294
112	0x3ecfe327	0.4060299
113	0x3e95b804	0.29241955
114	0xbe3f4699	-0.18679275
115	0x3dfafcda	0.12255259
116	0xbf16fafe	-0.58976734
117	0xbebe0d5d	-0.3711957
118	0x3dc6a469	0.096993275
119	0xbdef703f	-0.11691331
120	0xbefc65f7	-0.49296543
121	0xbd11b7d3	-0.0355757
122	0x3eefe60c	0.468552
123	0x3f0dd95b	0.55409783
124	0x3e941263	0.28920278
125	0x3eb8b835	0.3607804
126	0x3de1ebb7	0.11031287
127	0xbeaa30b1	-0.33240274
128	0xbd40808c	-0.04699759
129	0xbdde0c18	-0.108421504
130	0xbefb932c	-0.4913572
131	0xbd9d7bbe	-0.076896176
132	0x3f0daae9	0.55338913
133	0x3e49498f	0.19656967
134	0xbc9aceaa	-0.018897373
135	0xbeba8054	-0.36426032
136	0x3f1be15b	0.6089074
137	0xbe452b8a	-0.1925489
138	0x3d76415e	0.060120933
139	0xbe07986f	-0.13241743
140	0x3eadc3d1	0.3393846
141	0xbd6a4d7f	-0.057202812
142	0xbecbdcea	-0.39816982
143	0xbef7ba74	-0.4838444
144	0x3e2dd5e4	0.16976124
145	0xbeccace9	-0.3997567
146	0xbe1065e5	-0.1410137
147	0x3e821dbf	0.2541332
148	0x3bba313d	0.005682139
149	0x3e73add7	0.23796783
150	0x3e72842b	0.2368323
151	0xbdb6c765	-0.0892475
152	0xbefe23cf	-0.49636695
153	0x3e7a31ed	0.24433108
154	0x3f164967	0.58705753
155	0x3df3f338	0.11911625
156	0xbeddf13c	-0.4334811
157	0xbe0230f5	-0.12713988
158	0xbe008833	-0.12551956
159	0xbdb185f2	-0.08668126
160	0xbf211f15	-0.6293805
161	0xbdb34575	-0.08753482
162	0xbebe2e5e	-0.3714475
163	0xbec5450e	-0.38529247
164	0x3e5a110c	0.21295565
165	0x3de7288e	0.11287032
166	0xbe24be73	-0.16088276
167	0xbd797984	-0.060906902
168	0x3defd18c	0.1170989
169	0x3ebe8151	0.37208036
170	0xbd80e05c	-0.06292793
171	0x3e57cada	0.21073475
172	0x3e475f72	0.19470003
173	0x3ed0021d	0.40626612
174	0xbecaa1ea	-0.39576656
175	0x3eb7365b	0.35783657
176	0x3f0d99da	0.55312884
177	0x3eca39c3	0.39497194
178	0x3e11e1e6	0.1424633
179	0xbdf3c00d	-0.11901865
180	0xbf333951	-0.7000933
181	0x3e52c3b7	0.20582472
182	0xbf0602ac	-0.52347827
183	0x3ebe1b2d	0.37130108
184	0xbe729778	-0.23690593
185	0xbe8cefd8	-0.27526736
186	0x3cc95244	0.02457536
187	0xbe105940	-0.14096546
188	0x3dfb4e72	0.12270822
189	0xbe5033dd	-0.20332284
190	0x3ed8ba2c	0.42329538
191	0x3d5d5f7e	0.054046147
192	0xbede4a8d	-0.43416253
193	0xbe977a18	-0.29585338
194	0xbeb7ba46	-0.35884303
195	0x3edf4605	0.43608108
196	0xbed7950a	-0.42105895
197	0xbee13e6e	-0.43992943
198	0x3e29da55	0.16587193
199	0x3e40edc5	0.18840702

bias f4 [10]
0	0xbda6483c	-0.08119246
1	0x3cba5c20	0.022749007
2	0xbe4db4b9	-0.20088471
3	0x3d1dcb5b	0.038524013
4	0x3e175b2f	0.14780878
5	0x3db9c62b	0.09071001
6	0x3db0c8dc	0.08632061
7	0xbe021531	-0.12703396
8	0x3e185a85	0.1487828
9	0x3e4bda66	0.19907531
