Computational Intelligence/aeh330_5/resultsclassifier_cnn_6.model (torch, 111319 bytes, 6 tensors)

weight f4 [32, 1, 3, 3]
000000 ba a5 aa be 48 45 cb 3d c1 62 b1 bd 99 95 6d be
       -0.33329564 0.09925324 -0.08661414 -0.23201598
000010 a5 d7 a7 be 45 16 3b be fd 70 28 3e b4 ff 88 3e
       -0.3278171 -0.18270214 0.16449352 0.26757586
000020 e2 65 62 bd fd ef 12 3e 63 b2 54 be 77 b2 62 bd
       -0.055272944 0.14349361 -0.20771174 -0.05534598
000030 62 a5 23 be e1 4b 9c 3e 87 34 39 3e ac bd cc be
       -0.15981057 0.3052664 0.18086444 -0.39988458
000040 97 4d 3e 3e ec 17 25 3c 51 75 6c 3e 3b 7a c3 3c
       0.18584286 0.010076504 0.23091628 0.023861995
000050 a2 d6 a4 3e 66 2b 32 be 12 ea 7e be ca b2 1f 3e
       0.32195002 -0.17399368 -0.24893978 0.15595546
000060 47 b8 a1 be 50 37 ec bd ba fd a9 be cb fc e6 3d
       -0.31585905 -0.115339875 -0.3320139 0.11278685
000070 f7 af 72 be c0 ca ff 3d ea 34 54 3e 88 3d c1 be
       -0.23699938 0.12489843 0.2072331 -0.37742257
000080 fb 30 5e 3e c5 48 b3 be 89 3a 39 bd a5 af 5e bd
       0.21698372 -0.35016456 -0.04522184 -0.054366726
000090 10 f8 48 3c 04 38 7a 3e 02 6a 0a 3e 29 42 f2 bd
       0.012266174 0.24435431 0.13517001 -0.11829025
0000a0 63 d8 eb bd f5 7f 8d 3e e9 74 89 be ff 1c 39 3c
       -0.11515882 0.27636686 -0.26847008 0.011298417
0000b0 b3 92 c6 bc b0 4e e8 be f0 74 a7 be a0 a2 dd bd
       -0.024239874 -0.45372534 -0.32706404 -0.10822034
0000c0 9d a4 7d 3e 46 9a 94 bd 05 b1 f5 bd bb ef 3c 3c
       0.24769826 -0.07255988 -0.119966544 0.011531766
0000d0 62 37 05 3d 9b 17 1c 3e 21 6a 03 3e 6e ed e7 bd
       0.03252352 0.1524338 0.12833454 -0.11324583
0000e0 9a 44 2f bc 24 9d 8d be a2 00 da be cd 21 3e 3e
       -0.010697508 -0.2765895 -0.42578608 0.18567581
0000f0 23 ac 9b 3d df a2 39 bd aa 53 55 3e 6c 31 72 3d
       0.07601192 -0.04532134 0.20832697 0.059129164
000100 e8 2e 50 3e 30 0c 12 3e a2 55 88 3d b6 c6 06 be
       0.20330393 0.14262462 0.06656958 -0.1316174
000110 5b d4 ca be ac 3b 97 be 17 b1 c3 be 27 22 21 3e
       -0.3961514 -0.29537714 -0.38221046 0.15735684
000120 58 72 4e 3e 12 33 02 be 52 92 5f be 7b 31 9c 3e
       0.20160806 -0.12714794 -0.2183316 0.305065
000130 b8 16 af 3c 48 b8 9d bd d1 22 be 3d f7 3a 2a be
       0.021373138 -0.077011645 0.092839845 -0.16624056
000140 d2 5c b9 bd e5 ac de bd 7b 6d 66 be f4 aa ed bd
       -0.09050907 -0.10872821 -0.22502701 -0.11604872
000150 15 72 a4 3e 0f a1 6c be a7 f0 89 be 01 a3 34 be
       0.32118288 -0.23108314 -0.26941416 -0.17640306
000160 7b c9 82 be e9 a9 4d be a3 57 1f be 5b 8d b5 3d
       -0.25544342 -0.20084347 -0.15560775 0.08864852
000170 4d a8 57 3e 99 92 88 3e 1c de 5d bd 82 c2 23 bd
       0.21060295 0.26674345 -0.054166898 -0.03998042
000180 ee 7c fd bc 50 1c b8 be 81 c9 cd bd da 51 0c be
       -0.03094336 -0.359591 -0.100481994 -0.13703099
000190 04 86 7f 3e 57 49 a1 3e 80 06 1d 3d 65 1c 69 3e
       0.24953467 0.31501266 0.038336277 0.22764738
0001a0 fb 0b 9b be b9 ca 1b be eb e4 9e be 79 48 da bd
       -0.30282578 -0.15214051 -0.31034026 -0.10658354
0001b0 df 2a 5b 3d 8a a9 9e 3a 87 cd 89 3d 7c cd ae be
       0.053507682 0.001210497 0.06728654 -0.34141147
0001c0 73 14 93 3e 9a 9d c4 3d 00 1a 5b 3e 5e cb b7 be
       0.2872654 0.096003726 0.21396637 -0.35897344
0001d0 1e 00 38 be 14 25 20 3e 52 a1 27 be e7 e2 77 3e
       -0.17968795 0.15639144 -0.16370133 0.2420765
0001e0 13 a2 39 3c 6b 68 c3 be 5e 43 5b bc c2 4b ad be
       0.011330145 -0.38165602 -0.013382761 -0.3384686
0001f0 24 1a 46 be f0 7b da 3d 5d dc a8 3e 6a 87 aa 3e
       -0.1934591 0.106681705 0.32980624 0.33306438
000200 da e5 6e be 70 8b 47 3e e8 30 af be 91 4e bc 3c
       -0.23329869 0.19486785 -0.34217 0.022986682
000210 63 0d dd bd 05 92 e4 3d f4 a3 a4 be 3d 51 9f 3d
       -0.10793569 0.111606635 -0.32156336 0.07779167
000220 19 ca ab 3e ef 76 7d be 39 f0 46 3e d8 0f 92 bc
       0.33552626 -0.24752401 0.19427575 -0.01782982
000230 2d 92 85 3e b4 6e b4 bd 2e 87 9a be 9c 8f 85 be
       0.26088086 -0.088101774 -0.3018126 -0.26086128
000240 d3 b7 0f 3d 0b 6d 67 bd 16 7c c0 be ea bd 54 3d
       0.035087418 -0.056500476 -0.3759467 0.05193893
000250 f9 e0 9a 3e 1f a5 4a be ec 5c 60 be b0 f5 b6 bd
       0.30249766 -0.19789551 -0.21910447 -0.0893358
000260 0d 90 2c 3e e8 03 37 bd 52 62 4a 3d f9 8d ac be
       0.16851826 -0.04468146 0.04941017 -0.33702067
000270 9b 68 80 bd a9 60 62 be 1d 74 be 3e a7 fb 50 be
       -0.06269952 -0.22107185 0.37197962 -0.20408498
000280 5f f3 91 be 03 de 44 be fa 3b a2 be 89 e3 8f be
       -0.2850599 -0.19225316 -0.31686383 -0.28103283
000290 6a 89 b9 bb 2a 2c 08 3e e9 5e ca 3e 84 a8 32 bd
       -0.005662133 0.13298097 0.39525536 -0.04361774
0002a0 3e 2b f0 3a d6 3d 16 3b 1e a0 50 be 1a 35 d5 3d
       0.0018323434 0.002292504 -0.2037358 0.10410519
0002b0 27 36 a5 be 0d 75 bf be a4 09 af 3d c9 d0 3f be
       -0.32267877 -0.3739399 0.08546761 -0.18731989
0002c0 6f 56 04 3e 3c 6d 83 be bb 26 db bc dd 3a 90 3e
       0.12923597 -0.25669277 -0.026751867 0.2816991
0002d0 b5 f3 2f 3e 74 b9 7d be 86 48 06 be a0 59 56 be
       0.1718281 -0.24777776 -0.13113603 -0.20932627
0002e0 14 33 f3 bc 49 8b 1b be 82 37 0f be 47 eb ac 3e
       -0.029687442 -0.15189852 -0.13986018 0.33773252
0002f0 2a d2 2a be 13 81 ac be 5a 13 8c be 1c 2d 36 3e
       -0.16681734 -0.33692226 -0.27358514 0.17790645
000300 8e 3b 5f be 9b 2d 3b 3e 1d c9 55 be 6c 12 ac be
       -0.21800062 0.18279116 -0.208775 -0.33607805
000310 a9 55 30 be d1 44 f4 bd 6b 36 09 3e 99 06 9d be
       -0.17220177 -0.11927188 0.13399665 -0.30669096
000320 68 b0 7a be 0c 27 44 3d a0 eb 99 bc b0 fb 70 3d
       -0.24481356 0.0478888 -0.018789113 0.058833778
000330 c1 86 99 3e 27 8b bb be 7c 82 01 3e 6b f0 b1 be
       0.29985622 -0.36629602 0.12647432 -0.34753737
000340 20 a3 b9 be 20 df 8a 3e 6e b9 93 be 14 34 64 3e
       -0.36257267 0.27123356 -0.2885241 0.22285491
000350 6a 2d 51 bd 5d a5 3c be 48 e0 92 3e 9c e5 a6 3c
       -0.0510687 -0.18422456 0.28686738 0.020373158
000360 dd a3 2d 3e eb 19 ce be c2 d8 fd 3d 3c 3c 8b bd
       0.1695704 -0.4025415 0.12394859 -0.06798598
000370 a0 f9 99 3d f9 25 31 be 9c 74 8e be e5 c8 42 3e
       0.07518315 -0.17299642 -0.2782334 0.19021948
000380 88 10 50 3b 57 e3 80 3e 1b 7c b4 3d 5c 9f 94 be
       0.0031748135 0.25173447 0.08812734 -0.29027832
000390 94 e6 8e 3e fb fe d6 bd 2c e6 a3 be df 11 04 3e
       0.27910292 -0.104978524 -0.32011545 0.12897442
0003a0 59 3e a3 be 17 c6 46 3e ba b3 2e bd 81 bb be 3d
       -0.31883505 0.19411503 -0.04265187 0.09313107
0003b0 db e3 1b 3e 4e 44 e5 3d 5f c0 2c 3e 2d 9c f4 bd
       0.15223639 0.11194669 0.16870259 -0.11943851
0003c0 1e ff 31 be c5 56 e9 3d 95 7f 82 bd a4 b3 3a 3e
       -0.17382476 0.11393503 -0.063719906 0.1823259
0003d0 cf e3 1f bd 21 9c 3f 3e ef 31 1e 3e b1 79 a5 ba
       -0.039035615 0.18711902 0.15448736 -0.0012624768
0003e0 fc a7 ac bc e5 57 ba 3d d0 58 df 3d b0 a1 b5 be
       -0.021076195 0.09098796 0.109056115 -0.3547492
0003f0 d2 63 78 3e f7 73 bf be d3 64 9a be d0 0d 5c 3e
       0.24256828 -0.37393162 -0.30155048 0.21489644

bias f4 [32]
000000 ec 4c a1 3e 14 a9 74 bc 80 31 af be 0c 30 14 bf
       0.31504 -0.0149328895 -0.34217453 -0.57885814
000010 17 51 57 be 11 a3 f0 3c 1c a6 9b 3d 26 96 aa be
       -0.21027027 0.029374631 0.07600042 -0.3331768
000020 e7 29 c4 3d e3 9c c5 bd 02 f6 a5 be 55 87 3d be
       0.09578305 -0.096490644 -0.32414252 -0.18508656
000030 7b f9 c1 be aa 83 76 be b2 41 4d be a3 09 f3 bd
       -0.3788565 -0.24073663 -0.20044592 -0.118670724
000040 18 d0 0c bf 52 1c 95 3c bf 09 c4 be 8e 35 9f be
       -0.55005026 0.01820198 -0.38288686 -0.31095546
000050 a8 cb 41 3d 78 df be bd 9e 9a 6d be ae 74 3f 3e
       0.047313362 -0.09319967 -0.23203513 0.18696854
000060 95 72 ba bd 3a 36 c2 3d ed ba 82 be 5a 00 d0 bc
       -0.09103886 0.09482999 -0.25533238 -0.025390793
000070 a3 95 85 3d b9 30 d1 bd 44 38 63 3c f9 fd 9b be
       0.065226816 -0.10214371 0.013868395 -0.30467203

weight f4 [50, 512]
000000 06 a0 5f bb 0d 06 87 3c ea 28 e4 bc 9b 75 2e bd
       -0.003412248 0.016482377 -0.02785154 -0.042592626
000010 5b 6d 86 bc ad df 7d bc 9c ff 1a bc 69 4b 3f bd
       -0.016409567 -0.015495223 -0.009460356 -0.046702776
000020 c9 dc a4 3b e4 3a 5e bb b2 ab 87 3d 02 3c 5b bd
       0.0050312025 -0.0033909613 0.06624545 -0.053524025
000030 96 ea 25 bd aa 90 31 3c 98 9a c7 3b 66 b5 8a 3c
       -0.04050692 0.010837713 0.006091427 0.0169322
000040 55 07 48 bd 1e a6 8f bd 4e 83 72 bd 16 ce c3 3c
       -0.048835117 -0.07014106 -0.059207253 0.02390198
000050 e2 9a b8 bc b5 cb 3d bd 3e 81 9d bc f9 35 9a 3b
       -0.022534791 -0.04633685 -0.019226667 0.004706141
000060 41 ce 83 bd e3 fb 71 bd 68 09 30 bd ae 0e 44 bd
       -0.06435824 -0.05907811 -0.04297772 -0.047865562
000070 3a e1 25 3b 20 91 89 bd 19 e2 28 3c 5e 22 a2 3b
       0.0025311247 -0.067171335 0.010307812 0.0049479445
000080 cc 3c 90 3d 34 e6 9c bc f6 c8 d9 3c 39 3d ff 3b
       0.07042846 -0.019152738 0.026585083 0.0077892807
000090 37 03 d7 bc 64 0a 50 3c 48 dc 9a 3d 8e e8 ce 3c
       -0.02624665 0.01269779 0.075615466 0.025257375
0000a0 78 03 0e bc e1 ec ba 3c 91 a5 3a bd 4a 01 ca 39
       -0.008667819 0.02281803 -0.045568053 0.00038529403
0000b0 6b 84 b6 3b 42 65 1b bd 9b 07 94 bd c6 fa 28 3b
       0.0055699847 -0.037938364 -0.07228013 0.0025784238
0000c0 72 d4 8e bd eb 4c 46 bd c1 cf 40 bd 2e 1e c9 3c
       -0.069741145 -0.0484132 -0.04707313 0.024550524
0000d0 bc 29 2b bd f0 51 3a bd 2e fb 3e bd e5 cd b2 bc
       -0.041787848 -0.045488298 -0.046626262 -0.021826694
0000e0 b6 88 9f bc 2d 76 74 bd 22 f6 42 bd 2c 52 ca bb
       -0.019474369 -0.059683014 -0.04759801 -0.0061743464
0000f0 9a 2e d9 bc 36 e4 7e bd 5d 2f c6 bc aa 41 9f 39
       -0.02651148 -0.062229358 -0.024192506 0.00030375767
000100 8e 7b 91 bd 39 5f 7a bd 92 50 17 bd c4 f4 11 3d
       -0.07103644 -0.061125968 -0.036942072 0.035633817
000110 0b 07 dc bc a0 44 d5 bc 0b d5 c8 bb 01 bc 8b 3c
       -0.026858827 -0.0260337 -0.0061289123 0.01705742
000120 0e 3a 49 bd e1 da fb bc 18 22 3f 3b c4 04 7b bb
       -0.04912763 -0.030744018 0.0029164609 -0.00383024
000130 b1 11 c4 bc 4d 53 1c bd aa fb 04 3c 7a 45 62 3c
       -0.023934217 -0.03816538 0.008116642 0.01381051
000140 c7 9a 5e bd b7 7d de bc 25 a2 86 ba c2 d8 5c bd
       -0.054346826 -0.027159555 -0.0010271712 -0.053917654
000150 ed 61 5d bd de 7b 3f bd ba af 3b 3d fa 3c 82 36
       -0.054048467 -0.04674899 0.045821883 3.8814005e-06
000160 51 8f 32 3c fd 70 f3 3b df ac 61 3d 41 3e 88 bd
       0.010898427 0.0074292407 0.055096503 -0.06652499
000170 11 cb 10 3c b4 a2 d6 3c 3c 8e 29 3d 1c d1 bb bc
       0.008837477 0.02620063 0.04139541 -0.02292686
000180 94 e2 29 3c 23 4c 70 bc 16 b2 5b bb cb 24 83 bd
       0.010368962 -0.01466659 -0.0033522896 -0.06403502
000190 44 e6 2d bd ce 27 c2 bc 43 93 bf 3b f3 b5 3d bb
       -0.042455927 -0.023700621 0.0058464124 -0.0028947562
0001a0 fe 6e f1 bb 88 9e 8c bd 43 b1 aa bc 9c 9d 17 bd
       -0.0073679676 -0.06866175 -0.020836478 -0.037015542
0001b0 9c 9f ea bc 13 93 15 3c 7b 2d f8 ba 1c 5d 88 39
       -0.02864056 0.0091293035 -0.0018934453 0.00026009313
0001c0 e8 b6 86 bc 93 1f 7c 3b 73 35 04 bd 70 37 91 3d
       -0.016444638 0.0038470968 -0.032277536 0.07090652
0001d0 ff d1 64 bc da c6 69 bd b7 0c 8d 3a 1c c1 c1 bc
       -0.013966083 -0.057074405 0.0010761236 -0.023651652
0001e0 3c 52 8a bd d5 97 20 bd 56 4c 2b 3b 25 a2 3d 3c
       -0.06753966 -0.0392073 0.002613803 0.011574303
0001f0 ba b0 6e bd da a5 14 bc 7f 2c 19 bc 09 a2 8b bd
       -0.05827401 -0.009072745 -0.009348988 -0.06818015
000200 c3 cf 49 3c 47 ac 3a bc 99 59 3c 3b 08 c9 0d bd
       0.012317601 -0.011393613 0.0028739928 -0.034615546
000210 2c 1b 93 bd ad be 84 3d 29 da c7 bc a0 44 70 bd
       -0.07182917 0.06481681 -0.024396019 -0.058659196
000220 30 c6 68 3d 09 84 35 bd 4b 70 64 bd 82 56 e1 3b
       0.05682963 -0.04431537 -0.055771153 0.0068767676
000230 f9 aa 8e 3d 26 dd 70 3d a0 53 20 3c 0c 48 91 bd
       0.06966204 0.058804654 0.009785563 -0.0709382
000240 2b 5b 81 bc 14 96 82 3c 46 e5 1a 3c ab 8b 48 3c
       -0.015790543 0.015940703 0.009454077 0.012240331
000250 88 81 55 3c 17 af 0b 3d 30 5d 09 3d ee ee 5d 3c
       0.013031371 0.034102526 0.033536136 0.013545735
000260 a0 c0 2e 3d e5 24 c2 3c f1 bf 6f 3d 31 8e 91 bd
       0.04266417 0.023699233 0.05853266 -0.07107199
000270 c5 3d e3 3c dc 29 9a 39 d4 de be 3b 02 c9 5c bd
       0.027739415 0.00029404357 0.005824903 -0.053902633
000280 f8 54 8c ba 59 e1 25 3c e3 38 0d bd 50 90 81 bd
       -0.0010706475 0.010124528 -0.03447808 -0.063263535
000290 d8 4b 4a bd 24 4a 38 bd cd 88 66 bd c3 8d 19 bd
       -0.049388736 -0.04499258 -0.056282807 -0.03748871
0002a0 f9 d7 33 bd 33 e2 3d 3c d0 64 5a bd ea d0 d5 bc
       -0.04390714 0.011589575 -0.0533188 -0.026100595
0002b0 a0 bc 63 bd 6d 91 70 bd 36 44 3f bc 64 30 8f bd
       -0.05559981 -0.05873244 -0.011673978 -0.06991652
0002c0 9a fe 26 bd 2e 48 62 bd 35 02 0c 3d 8c 77 f9 bb
       -0.04077015 -0.055244617 0.034181792 -0.007613128
0002d0 be 3d 62 3c 9d e0 72 3b fc b5 f6 bb 5e 65 40 3d
       0.013808666 0.003706015 -0.0075290184 0.04697167
0002e0 5a 81 4e 3c d9 ec b4 bb c3 a4 ef bc 60 d4 0a 3d
       0.012604082 -0.0055213985 -0.02925337 0.033893943
0002f0 a8 3d 84 bd 3f 6e 5b bc 0a c0 70 bd 56 e0 89 bd
       -0.064570725 -0.013392984 -0.058776893 -0.06732242
000300 ec 81 a9 3d 63 e9 0d 3c 00 6b 75 bd d3 74 78 bd
       0.08276734 0.008661601 -0.059916496 -0.060658287
000310 05 a6 2d 3c 58 8d 87 bb 39 53 6b bb 99 8b 49 bd
       0.010598664 -0.0041367225 -0.003590776 -0.049205396
000320 54 ca 38 bb f8 6f 53 3c 1d 7d 13 3b 31 f0 3e bd
       -0.0028196769 0.012905113 0.0022504993 -0.046615783
000330 92 05 a3 bc 52 4c 02 3c 4a f8 3d bd 53 c4 5b 3c
       -0.019900117 0.0079527665 -0.046379365 0.013413507
000340 2c d8 e6 39 ba 26 95 bc 89 f8 80 3d f3 72 52 3d
       0.0004403008 -0.018206943 0.06297404 0.051379155
000350 a2 a8 de bb 50 a0 fd bc 74 6e 06 3d 94 86 b7 bc
       -0.006795005 -0.030960232 0.03282018 -0.022403039
000360 55 4b b9 3b 9f 8b 79 bd 40 3b f5 bc 20 e8 dc 3c
       0.005654732 -0.06092417 -0.02993548 0.026966155
000370 09 7d 54 bd 66 b1 ff bc f8 fc ba bc 9e b7 4d bd
       -0.051877055 -0.03121252 -0.022825703 -0.05022394
000380 d2 af 2b bc af 17 d8 3c 8e f9 00 3c c5 aa 71 3d
       -0.010478931 0.02637848 0.0078719985 0.05900075
000390 81 2c d8 bb 30 cf 84 3d 81 c6 7c bd 31 f7 a8 bc
       -0.006597102 0.064848304 -0.061712746 -0.020625683
0003a0 12 a7 0b 3d 88 9c 87 3d fc 87 eb bc 40 ec 39 3c
       0.034094878 0.06621653 -0.028751366 0.01134783
0003b0 de 50 48 3d cf 97 87 bd 34 2c 47 bc 42 18 5f bd
       0.048905246 -0.06620752 -0.012156535 -0.054466493
0003c0 2e 88 49 3b eb 73 82 3c b3 fa 80 bb c8 17 8e bd
       0.0030751335 0.015924415 -0.0039361357 -0.0693813
0003d0 fe 72 15 3d 8c c7 34 bd e3 02 38 3c ef d6 6d 3c
       0.03648662 -0.044135615 0.011231157 0.014516576
0003e0 31 eb 82 bc 7a f7 31 bd 00 41 2a bd e6 7a 93 bc
       -0.015981289 -0.043448903 -0.041565895 -0.018002938
0003f0 69 38 52 3d 3a df 88 bc c8 89 a7 bc 72 3c ea bc
       0.05132333 -0.016708005 -0.020451441 -0.028593276

bias f4 [50]
000000 68 19 30 bd 08 f0 2b 3d b5 44 7c 3d dc 54 5d bd
       -0.04299298 0.04197696 0.06158896 -0.054036006
000010 51 c8 98 3a b0 fe 1e bd 05 a4 69 3d c5 0a 1c 3d
       0.0011656379 -0.038817108 0.057041187 0.038096208
000020 9e 0b 2b 3a 84 00 e8 bc 98 fe 38 bd af 26 90 bb
       0.00065248634 -0.028320558 -0.045164675 -0.0043991427
000030 5b 6e 2b bc 51 2d cf bc b1 b7 28 3c 6f 17 65 bd
       -0.0104633225 -0.025290163 0.010297702 -0.05593055
000040 83 7d 28 bd 35 1a 15 3d 35 85 05 3d 2e fd 84 bd
       -0.041135322 0.036401946 0.03259774 -0.06493603
000050 46 fc bb bc 43 d7 04 bc 86 75 aa 3b e1 2f 1c bd
       -0.022947442 -0.008107963 0.005201998 -0.0381316
000060 16 9f 41 bd 09 9f 24 3d b6 36 2c bc 97 1f 63 3c
       -0.047270857 0.04019073 -0.010511091 0.013862512
000070 f2 49 f8 bc 0c 6d 23 3c 34 26 49 bc 11 ef 35 3c
       -0.030308697 0.009974729 -0.012277175 0.011104361
000080 59 77 2e 3d 31 af b1 bc 45 c0 38 bc b5 f1 54 39
       0.042594288 -0.021689983 -0.011276309 0.00020307938
000090 a8 56 db bb 1e f2 1f bd c6 2f 05 bd 96 3e 71 bc
       -0.00669368 -0.03904926 -0.032516263 -0.014724394
0000a0 54 cf 17 bd 11 f5 04 bc d8 f5 54 3d 3f 02 5e 3c
       -0.037062958 -0.008115069 0.051992267 0.01355034
0000b0 38 b4 84 bd ab 55 a5 bb e5 c4 13 bc 96 ca 93 ba
       -0.064796865 -0.005045613 -0.009019111 -0.0011275585
0000c0 ea 9d 05 3c e8 3f 35 3d
       0.008155325 0.0442504

weight f4 [10, 50]
000000 92 b0 36 bd ca 2d b7 be 3b 5d a9 bd 6e 66 34 be
       -0.044601984 -0.35777122 -0.082697354 -0.17617199
000010 bc 62 89 3c dd b5 30 be c8 2d 48 3d 6c c4 0d 3d
       0.016770713 -0.17256875 0.048871785 0.03461115
000020 f7 e6 5e be 5a e6 59 3e 0d 43 e9 bd 43 13 63 3d
       -0.21767794 0.21279278 -0.11389742 0.05543829
000030 a7 1e df bd ec e9 99 3e ea 2b 11 be 92 0f 0d 3e
       -0.10894518 0.3006128 -0.14176908 0.13775471
000040 d4 97 e5 3c fc dd 6d be 5d 61 e1 3c 41 94 f4 bd
       0.028026499 -0.23229212 0.027512247 -0.1194234
000050 38 b2 9e 3e 3c b4 81 be a6 4a 1b be 9a ae fe bd
       0.30995345 -0.2533282 -0.15165195 -0.12435646
000060 f2 af 13 be 17 e4 1c be a1 0b 9e be a6 77 0f be
       -0.14422587 -0.15321384 -0.30868247 -0.14010486
000070 38 8b 04 3e f1 ef 83 be 4b 63 09 3e 0a 3c c0 3d
       0.12943733 -0.25768998 0.13416784 0.093864515
000080 2a e0 35 3c a7 8d fc bd 3b f1 9b be 79 7a 1c be
       0.011100808 -0.123317055 -0.30457482 -0.15281095
000090 3e eb 05 3e ad 02 6e be 64 63 89 be 31 32 a0 bd
       0.13078019 -0.23243208 -0.26833642 -0.07822073
0000a0 8e 56 79 3e 5a 21 55 bd 60 0d 6c be dc a8 e7 3c
       0.24349424 -0.05203376 -0.23051977 0.02827876
0000b0 16 7f 3b be bd 87 0f 3e f2 fb 89 3d 32 bf 94 3e
       -0.18310198 0.14016624 0.06737508 0.2905212
0000c0 6e f6 93 be 88 31 1f be c3 27 4d 3a e7 79 36 3e
       -0.28898948 -0.15546238 0.00078260544 0.1781994
0000d0 57 1e a6 3d 33 7e 3f be c7 65 96 3d ce ad 01 be
       0.081112556 -0.18700485 0.07343631 -0.12663957
0000e0 1c 86 d8 3d e0 f1 6d 3d 29 55 76 bc 0d 84 43 be
       0.10572454 0.058091998 -0.015034952 -0.19093342
0000f0 f2 d3 74 bd 02 a9 6b bc 5f 51 df 3d a9 eb 24 3e
       -0.05977244 -0.014383556 0.10904192 0.16105522
000100 30 dc 61 bd b7 69 1e be 0f 15 c7 3c 35 ad 4c 3e
       -0.055141628 -0.15470015 0.024302034 0.19987948
000110 a5 01 f4 3c 6c f7 e8 bb a6 48 22 be eb 4f 6e be
       0.02978594 -0.007109573 -0.15848026 -0.23272674
000120 0a d7 25 be 2a e6 8d 3c 85 6f 94 bd bb 68 9a 3e
       -0.16195312 0.017321665 -0.07247833 0.30158028
000130 1d c0 1d 3e d7 59 81 3e de 7c ec bd 29 21 78 3e
       0.15405317 0.25263855 -0.11547254 0.242314
000140 3e a1 b6 be 72 0f 39 ba 5c 02 9d be 99 a2 67 3e
       -0.35669893 -0.00070594915 -0.30665863 0.2262062
000150 14 66 3e 3e 9c 96 ad 3c 7d 88 58 be 11 a1 0e 3d
       0.18593627 0.02118998 -0.21145816 0.034821574
000160 70 1a f5 3d e3 83 04 3e 87 30 87 be e7 a4 20 3d
       0.11967933 0.12940936 -0.2640421 0.039219763
000170 da 7d 05 3e a0 01 eb bc 50 d8 8c bd bf 11 62 be
       0.1303629 -0.028687298 -0.06877196 -0.22077082
000180 00 3c 94 3b e0 ee 0a be d2 1a 67 3e 50 5c 4c 3e
       0.004523754 -0.13567686 0.22568825 0.1995709
000190 52 4e 64 bc a7 de 6b 3e 41 fc a3 bd 0d 96 9b 3d
       -0.013934689 0.23034154 -0.08007098 0.07596979
0001a0 96 23 d2 b9 d6 11 84 be f1 37 c3 3d 8a 7f 7f 3b
       -0.00040080835 -0.25794858 0.09532154 0.0038985931
0001b0 58 df be 3e c6 27 93 3e 28 14 33 3c 8b 4a 35 3e
       0.37279773 0.28741282 0.010930099 0.17704217
0001c0 39 5e da 3c a6 63 6b 3e 5d 2c 92 bd 6b 98 13 be
       0.026656257 0.22987232 -0.07137368 -0.14413612
0001d0 29 f0 23 3d 15 9f 58 3e 0a ca ba 3d a9 96 31 3d
       0.040023956 0.21154435 0.09120567 0.04335657
0001e0 cd 1d ba 3c 7f a3 8d 3e dd 06 b3 be fe da c3 be
       0.022719288 0.276638 -0.34966174 -0.38253015
0001f0 0f a8 d7 3c 78 0e a4 3d 43 4c c0 be 04 76 19 3e
       0.026325254 0.08010572 -0.37558183 0.14986426
000200 97 e9 81 3c 21 7e 79 3e b6 c0 53 3e 22 73 4e bd
       0.015858455 0.2436452 0.20678982 -0.050402768
000210 cc 22 89 bd 35 40 bc 3e 93 75 72 be 61 be 9f 3e
       -0.0669609 0.36767736 -0.23677664 0.31199935
000220 6c e4 4b 3e a4 7a 8d 3e 85 af ae be 3a 48 9f 3e
       0.19911355 0.2763263 -0.34118286 0.31109792
000230 e2 e8 76 be 63 c8 93 3c af 0e 4b 3e 5b fe 53 3d
       -0.24112275 0.018039888 0.1982982 0.051756244
000240 48 90 09 be 71 3f 31 3e 2f 2d 43 3d 68 dd e3 bd
       -0.13433945 0.17309357 0.047650512 -0.11126214
000250 df a9 60 3e e5 2c 74 be 28 70 b3 bd 21 70 93 3d
       0.219398 -0.23845251 -0.087616265 0.07199121
000260 bf e6 8a bd b0 e7 84 3e e3 4c 48 3d 2a 8c 10 be
       -0.067822926 0.25958014 0.04890145 -0.14115968
000270 23 42 cc 3c dc 32 a8 3d 04 0f 5f 3e 03 97 86 3e
       0.02493388 0.08212826 0.21783072 0.26287088
000280 99 1a 40 bd 3f 8f 83 3d f0 0c e9 bc c9 75 8b bd
       -0.046900366 0.064238064 -0.028448552 -0.06809575
000290 94 83 33 3d 4e 66 f0 bd 52 8f f4 bd 64 97 c5 bd
       0.043826655 -0.11738263 -0.11941399 -0.09648016
0002a0 53 e5 f0 3d 19 8c e3 bd 1a 08 14 be eb a1 b8 3e
       0.1176249 -0.11110706 -0.14456216 0.36061034
0002b0 6f 1e 84 3e b6 8d 3d 3e 7a c6 01 3b c3 bc 13 be
       0.2580447 0.1851109 0.001980214 -0.14427476
0002c0 12 eb 54 3d 3b 2e 7b be 0e ae 04 3e 2b 61 63 be
       0.051981993 -0.24529354 0.12957022 -0.22205035
0002d0 0a 8b 01 3e 32 63 2d 3d 6e a7 5a bd 7b 6c 14 be
       0.12650695 0.04233093 -0.05338233 -0.14494507
0002e0 3b bc 04 be d7 8f ae 3d 38 3e 42 3e 92 9d 88 3e
       -0.12962429 0.08523529 0.18969047 0.26682717
0002f0 99 9c 06 3e 0e c6 66 3e 26 f3 33 3e 16 3f 2b 3b
       0.13145675 0.2253649 0.17573223 0.0026130131
000300 d7 58 41 3e 7a a3 47 bc f6 ef 39 3e d1 6e e9 3d
       0.18881546 -0.012184972 0.18157944 0.1139809
000310 44 2b 92 bd ee d5 b5 bd cb fb 26 be 87 e8 38 3d
       -0.071371585 -0.088786945 -0.16306989 0.04514363
000320 f6 a9 18 be 89 8f cf be 6b c8 cc 3d a8 c8 65 bd
       -0.14908585 -0.40539196 0.09999164 -0.056099564
000330 5a fc 98 3d 4a 86 bc 3e 61 aa 0e 3e 77 3f 0f 3e
       0.07470007 0.36821204 0.13932182 0.13989054
000340 82 ff d4 3d 32 36 87 3d 43 96 00 bd 57 f9 b3 3d
       0.10400297 0.06602134 -0.0313933 0.08787792
000350 d2 85 0b bd f5 31 4e 3e ea e2 02 3d 24 c4 00 3e
       -0.034063168 0.20136245 0.031954683 0.12574822
000360 04 fe 0a 3e b9 ff 37 bd f9 0b 33 bc d6 9a e7 3d
       0.13573462 -0.04492161 -0.0109281475 0.113088295
000370 0b c6 95 bd 3b 68 6b be ad 23 ba be 44 cd dc bd
       -0.07313164 -0.2298898 -0.36355343 -0.10781339
000380 a2 b5 ed bc 20 92 19 be bd cf 85 3d 47 23 83 3d
       -0.029017273 -0.14997149 0.065337636 0.06403213
000390 b1 c9 a2 bd 4e 86 5f be ad c5 b9 be 50 e0 da bd
       -0.07948626 -0.21828577 -0.36283627 -0.106873155
0003a0 79 e8 61 3e d2 f9 40 be 8e c2 d9 3d 8a a8 a7 3e
       0.22061338 -0.18845299 0.106328115 0.32745773
0003b0 7c 4d e8 bd de 8b c9 bd e1 6f a9 bd c9 88 5e be
       -0.11342904 -0.09841131 -0.08273292 -0.21731867
0003c0 ca b2 41 be be f2 a5 bd 31 20 90 3e 8a 5f a5 bc
       -0.18915859 -0.0810294 0.2814956 -0.020187158
0003d0 90 7e 27 3e 15 08 38 be 40 15 c1 bd a8 7e a3 3e
       0.16356874 -0.17971833 -0.09427881 0.3193257
0003e0 6f 57 5a 3e 11 cc 00 be eb a4 04 3e 75 12 65 bd
       0.21322416 -0.12577845 0.12953536 -0.055925805
0003f0 e0 b4 ba bc c9 0e 53 be c7 8e a5 bc 9b f7 69 be
       -0.022791326 -0.20611109 -0.020209683 -0.2284836

bias f4 [10]
000000 f5 24 92 bd a3 f2 fd 3d 87 bd 0e 3d ef 4f 9f 3a
       -0.07135955 0.12399795 0.034848716 0.0012154559
000010 0e b3 68 bc 5d 64 f6 3d 02 cd 5e 3d 27 a0 31 3d
       -0.014202846 0.120308615 0.05439473 0.043365624
000020 bc da 95 3b 7b 98 e6 3d
       0.0045731943 0.11259552
