Computational Intelligence/aeh330_5/resultsclassifier_cnn_15.model (torch, 418527 bytes, 6 tensors)

weight f4 [32, 1, 3, 3]
00000000: 6b5e e4bd 9700 0a3e 5805 0e3e c37b e03c
00000010: 06c7 6bbe 41c6 be3d a347 2e3d 1718 5fbe
00000020: 88e7 83be 156a 93bc 7c65 91be e4f8 43bd
00000030: 0aab 8a3d be41 023e 3ad1 00be 89d1 e03d
00000040: 9d10 2d3e f7f0 873d 26ae b73d ce99 26be
00000050: ec2a 0f3e fb20 ee3d 0110 4bbe cb7f 0a3e
00000060: f05d a1be a04d 67be 8340 173e 3642 963e
00000070: 6d14 553e fb4b e63c 323e 3fbe 111a fe3d
00000080: de72 89be add5 cabe e739 793e f376 d7bd
00000090: ff4a dabd c0a2 303e 83d5 903d 5628 5e3d
000000a0: a2ea c9be a391 6fbe bda7 e2bb e98b fdbd
000000b0: 286c 613e 460d 633d bef4 c73d fdcc 39bd
000000c0: b802 27be f432 843e 0a35 51be 5215 4c3e
000000d0: c2d6 b4be 7a5e 923e f3ba 7abe 0246 5b3e
000000e0: b590 853e 5f49 36bd bcd2 bbbe 9645 9aba
000000f0: 89aa 563e 98a5 583e 0e30 eabc 4d7a 9f3e
00000100: e6a6 8e3e df8a 5c3e 7af8 ec3d b273 323d
00000110: 7d37 8abe db95 47be 48ba 50be 3506 213e
00000120: d260 9e3e 045e 273d 0ece a93e 751a a2be
00000130: 5a54 3d3d 895f 433e 0c58 94be c0e5 b93e
00000140: 0c91 84be 2e6d 93bd 2e5e 9fbe e265 af3e
00000150: 4880 933d eb6b 88be 1909 94bd 4ae4 0a3e
00000160: 810c 49be 4d66 bdbd 72ef d03d 9ddd 833e
00000170: 67a5 283e 47b8 91bd ba9b b63d 29b4 6fbe
00000180: fcfe 6ebe ad73 7a3e 632c 35be ec87 2c3e
00000190: eb84 8b3b 3e54 b6be c475 42be a718 c7bc
000001a0: 9669 9b3e cd39 7fbe 6ae4 b53e 9719 833e
000001b0: de2c c4bd c770 95be dd40 dd3d 71af 2abe
000001c0: 826a 52be b2cf 143e 06d6 a63e dd04 01be
000001d0: bb08 a33e bc24 3abe 8b39 343e 32de d0bd
000001e0: ef0c 16be c2f4 8c3d c640 26be 5232 083e
000001f0: fd38 b63e 5be9 7c3d 611e 86be f7a2 3f3e
00000200: d80f f8bc 3a7d aa3e 5cb7 a73e 6be7 0f3e
00000210: 4fb5 20bd 09b5 09be 736f b8be 9351 e9bd
00000220: 0dbd 81be a700 aebc 34f0 a2be 1917 853e
00000230: 747d 973e 1d2f 983e 8d2d 303e ccc8 b6be
00000240: 4dab 21bd cf9a b83e 938a 863e 042e 02be
00000250: c607 77be 74e1 55be 4d5b 653d d707 04be
00000260: 062d df3d 57db 1a3e 7371 80be 3d9a e4bd
00000270: c370 913e 4454 8cbe 1580 93be a2cb 193c
00000280: 5abf 3a3e 343f a13d b85e 4d3d 8e8c a33e
00000290: 9632 e63c e7cb f33d d161 79be 301b a7be
000002a0: 1d65 83be 1298 44be 5aab b73e 7265 b23d
000002b0: f0dc 653e 7a54 8cbe 80e3 fd3c 8d7f c1be
000002c0: 3dd8 363e 7ef6 903e 7b43 13be 84d0 a03a
000002d0: 5e2b 38be b009 a73e 74bf b9bd d9ed 47bb
000002e0: 17b6 313e cbb5 993d 08bc a9be 905b 3f3e
000002f0: 88b1 9dbe 83f2 58bd 4c5c 263e 466d 67be
00000300: 2b5d b73d df5a 11be dfe7 08be 3c00 ff3d
00000310: 3a7d 94bd 648d d33e 24df 3abe 0c17 a7bd
00000320: 430e a43d c9d0 5a3d 7029 3c3d 0bec 293e
00000330: c3f2 903e 2d86 2dbe 974d 91be 95c3 6f3e
00000340: b80a 403e ad5f cabe db1a ff3d f266 aebd
00000350: 8354 27be ccb7 503e 3df6 a33e 5f90 023e
00000360: 7966 10be f0bb afbd b57e ac3b 8a19 1d3e
00000370: eb64 833d 41ff 70bd 0244 023e 891d 8f3e
00000380: 4d64 47be 8709 5bbd b4ec 56bc d277 703e
00000390: c7bd 11be 806a 8cbb 80b6 81be a1f9 e03d
000003a0: 9cba e03d 6c94 0dbe f055 74bd 7203 3d3e
000003b0: e239 4c3c 4654 03be 4efe cf3d 2601 8e3d
000003c0: 25e8 9dbd 0f32 993e d733 923d 3926 263d
000003d0: 763e 463e b5c9 663e 6702 093e b8a8 0bbe
000003e0: 461e 66be a2ad 88be 2be8 bcbd b128 14be
000003f0: c730 d93d caff d93b 7f62 813e ecb8 5ebe
-0.11150821 0.13476788 0.13869226 0.027402764 -0.2302514 0.09315158 0.042548787 -0.21786533
-0.25762582 -0.01799492 -0.2839774 -0.047844782 0.06770904 0.12720391 -0.12579814 0.10977466
0.16900869 0.06637757 0.08968763 -0.1626961 0.13981217 0.11627384 -0.19830324 0.13525312
-0.3151698 -0.22588205 0.14770703 0.2934739 0.20808573 0.028112402 -0.1867607 0.124073155
-0.2684545 -0.39616147 0.24338494 -0.10520735 -0.106588356 0.17249584 0.07071974 0.054237686
-0.39436823 -0.233954 -0.0069169686 -0.12380201 0.22013915 0.05543258 0.09763478 -0.045361508
-0.16309631 0.25820124 -0.20430389 0.19930008 -0.35320097 0.28587705 -0.24485378 0.21413425
0.26086965 -0.044503566 -0.36684215 -0.0011770006 0.20963491 0.21156919 -0.028587367 0.31147996
0.27861708 0.2153735 0.11570831 0.043567367 -0.2699546 -0.19490759 -0.2038356 0.15725024
0.30933243 0.040861145 0.3316502 -0.3166081 0.046223022 0.19079413 -0.28973424 0.36308098
-0.25891912 -0.07198559 -0.3112654 0.34257418 0.07202202 -0.26644835 -0.07228298 0.13563648
-0.19633676 -0.09248028 0.102019206 0.25755015 0.16469346 -0.07115226 0.08916421 -0.2340857
-0.23339456 0.2445819 -0.17692713 0.16848725 0.0042577884 -0.35611147 -0.18990237 -0.024303747
0.30353993 -0.24924393 0.3552583 0.2560546 -0.0957887 -0.29187605 0.10803387 -0.16668488
-0.20548442 0.14532354 0.32585162 -0.12599511 0.31842598 -0.18178076 0.17600076 -0.101986304
-0.14653371 0.06882621 -0.16235647 0.13300446 0.35590354 0.061745983 -0.26195052 0.1871451
-0.030280992 0.33298665 0.3275708 0.14053123 -0.03923541 -0.13447966 -0.3602253 -0.11392512
-0.25339547 -0.021240545 -0.31823885 0.25994185 0.295879 0.29723445 0.17204876 -0.3570007
-0.039470006 0.3605561 0.262776 -0.12712866 -0.24124059 -0.20886785 0.055995274 -0.12893616
0.108972594 0.15122734 -0.25086555 -0.11162231 0.28406343 -0.2740804 -0.28808656 0.009386929
0.18237057 0.07873383 0.05013916 0.31943172 0.028100293 0.11904126 -0.2435372 -0.3263793
-0.2566308 -0.19198635 0.35872918 0.087107554 0.22447562 -0.274082 0.03099227 -0.37792626
0.17855926 0.2831306 -0.1438121 0.0012269174 -0.17985293 0.32624578 -0.0906972 -0.0030506758
0.17354618 0.075053774 -0.3315127 0.18687272 -0.30799508 -0.052965652 0.16246146 -0.22600278
0.08953317 -0.14194821 -0.13369702 0.124512166 -0.072504476 0.4131881 -0.18249184 -0.08158693
0.08010533 0.05342177 0.045937955 0.1659395 0.28310212 -0.16945715 -0.2837951 0.23414452
0.18754089 -0.3952612 0.12456294 -0.08515729 -0.16340832 0.20382613 0.32023802 0.12750386
-0.1410159 -0.08580768 0.005264128 0.15341774 0.06415733 -0.05883718 0.12721255 0.2795222
-0.19471855 -0.053475883 -0.013117958 0.23483208 -0.1423255 -0.0042851567 -0.2533455 0.10985113
0.10973093 -0.1382615 -0.05965227 0.18458346 0.012464972 -0.12825117 0.10155927 0.06933813
-0.07710294 0.29921004 0.07138794 0.040563796 0.19359764 0.22537883 0.13379823 -0.1363858
-0.22472486 -0.2669497 -0.0922397 -0.14468648 0.10605007 0.006652807 0.2527046 -0.2175023

bias f4 [32]
00000000: 43ca 49be b81b f2bd 0885 ba3d e0d9 083e
00000010: d9ee 52bd 7480 32bd 2119 4e3d 13a6 b0bd
00000020: 4eab 6dbe cab8 223e e5fc 77be 8cb4 3ebe
00000030: 6bd1 22be 4ce9 5e3e faea 283d 408e 5f3e
00000040: a664 453e 1fbd d2bd aa72 5e3e 8d06 7c3c
00000050: bc71 44bd 85e2 c2bd cc2b 993d 5845 65be
00000060: e369 533e cb68 bc3e 039f 67be 9e47 723d
00000070: 88eb 2f3e c132 eebd 8151 32be 6fe9 683e
-0.19706063 -0.11821693 0.09107405 0.13364363 -0.051497314 -0.043579534 0.050316934 -0.08625426
-0.23209879 0.15890804 -0.24217565 -0.1862356 -0.15900199 0.21768683 0.041239716 0.21831608
0.19276676 -0.10289978 0.21723428 0.015382421 -0.047960028 -0.095158614 0.07479057 -0.22389734
0.20645861 0.367987 -0.22619252 0.05915033 0.17179692 -0.11630774 -0.17413904 0.22745298

weight f4 [50, 2048]
00000000: 0766 b4bb fa33 82bc a112 313d 4635 d63d
00000010: d6a2 453d b2d2 f3bb db3a 4f3d 2af0 653d
00000020: db27 15bd 0e7a 1a3d 83b5 383d 433c 683c
00000030: 15d8 f53b d639 14bc e447 483d d823 6a3d
00000040: a514 533d 2eeb 083d 503b a43c 64f3 b23b
00000050: 0251 053c 0ca1 b8bb f4e3 a33c 5a76 903d
00000060: ae10 b43d d941 183d 737c 93bd 11c7 e63b
00000070: f2b8 523a 5bb7 d03c eeaa ca3c 004c 9b3c
00000080: 2e25 cfbc 7f01 ec3c aef3 493b 1933 05bb
00000090: 299e 4a3b 69f7 edbb 59dc be3c f5f4 183d
000000a0: ad70 1bbd ab99 553d e57c 263d 7496 d1bb
000000b0: 644b 33bb 76cb 65ba 2706 3b3d fb97 a3bc
000000c0: d67c 24bd d99a 123b fbd3 2f3c bfd6 343d
000000d0: 0576 cb3c 062d 263c ca24 2b3c dc87 54bc
000000e0: dc90 5bbd d8a4 4b3c e6b8 e13c 8795 f5bc
000000f0: 9b10 82bc 6fc4 36bd dcc7 2fbd ea83 003b
00000100: 51e7 cf3d 7503 d83c 82aa 183d 7b86 ae3b
00000110: 587f aebc 33cf 803b 5dab c03c ab3e 043c
00000120: 96b0 de3d 9f3f 993d 865b 3f3d 2b23 f5bb
00000130: d42d 833c ae69 cbbc 0912 d23c 0788 2a3d
00000140: 1cb6 01bd f446 01bb 23c4 c13c 0459 e03c
00000150: 35b8 a7bb d983 abbc c9fb 773c 5720 0a3d
00000160: fe3b 143d adfe 0ebd c6c0 e4ba 30f9 5d3c
00000170: 961f 62bc 5cca 90bc f477 293c e391 083c
00000180: 35ef 823d 9afa 61bc e71d 093d b64a bf3c
00000190: 149d 9b3b 0f86 5dbc f731 1dbb 7ab9 39bb
000001a0: 7fa2 2c3d 9ed8 413d c6d7 09bc 240b dabc
000001b0: 082d 72bc ac75 9f3b 5071 85bc 1c49 24bc
000001c0: bfdf ab3d 089a 833d 0247 ee3c dc3e 223d
000001d0: c7dd 63bc 8e94 53bd d066 0cbd 705e c9bd
000001e0: 1335 6e3d 1ad3 093d f68e 833b ad6e 8d3d
000001f0: 8727 143d deba b4bc 97f1 05bc dd33 acbd
00000200: 5880 e23b 9b27 233d e250 213d a6b2 33bd
00000210: 0996 943c 366e e83b afdb 0bbd 4828 e6bb
00000220: c299 423b 835e 173d 2515 28bd 64eb 0fbe
00000230: c127 233d 73e3 babb 911a 07bd 9040 76bd
00000240: 8dac 44bc 09ca b83c 1c51 80bd b284 b8bb
00000250: efc4 ac3c c6c0 24bc c303 a1bc 7634 a2bd
00000260: e4a8 d83b 713e ce3c 156f fc3c 3f15 cdbd
00000270: 6df8 a93c a25d 37bc 2b2d 143b 88d8 8c3d
00000280: 1c2a 22bd e6d3 143d 7e40 5abd 4fa4 fcbd
00000290: af7e 733d 1fcc 65bd 4c3e 2fbb 07d2 b03c
000002a0: b89c 55bd 3c9f 023d 7196 99bd daca 92bd
000002b0: 709c 063d 5c1c 963d cc1d 833c d6a8 823c
000002c0: e85a b6bc 08e5 4b3c 59b7 21bd 20fe 013d
000002d0: a7ef 5b3d 5e49 cd3d 5727 1a3d eca0 9e3d
000002e0: d3fa 81bd 37d5 ac3c d9b5 e0bc 451d 8abd
000002f0: 3fc9 c13c 1e25 85bd f513 1c3b f8f2 0dbc
00000300: 2681 673c 0ee6 eabc 3d6d 953a 7a6b 72bc
00000310: 389e fbbc d396 c93b d8f3 33bd 2f10 9d3c
00000320: ce05 eebb 9369 90bc afa8 f8bc fefa dabc
00000330: cd5d 9dbc e068 773d 61d6 873c 384a cf3c
00000340: 9d32 9dbc c6e8 83bd 8f2c 4f3d 9659 dc3c
00000350: c6ea a0bd 061c 8a3d 275d 48bd ef32 45bd
00000360: f9e3 003d e3f4 88bd 3bec 1d3d 297b 4f3d
00000370: e858 83bd 56e1 f7bc 7159 2b3d 6d4b e7ba
00000380: 97a4 0f3d 0e1f 8bbd c800 20bd 7b08 c83c
00000390: 3775 a9bc 3a5f fb3c 17bf a13d e6b4 733d
000003a0: 79d4 f53c 60f7 8bbb 1c53 f43c e6f4 f73c
000003b0: 41f3 acb9 17e0 0e3d a02a e4ba c79f 783d
000003c0: ca16 863d cd7e 35bc f6c7 223e 2c61 b83d
000003d0: 57f2 05bd cddb 963d 80a9 ff3c 0a25 843d
000003e0: 3d43 4d3d 2ca6 32bc 6a49 6abb 288b 643d
000003f0: 77bd 5dbc 72a1 21bd 42af 233d c8a9 463c
-0.0055053267 -0.015893925 0.043230657 0.1045938 0.048250996 -0.0074408883 0.05059324 0.05613724
-0.036414962 0.037714057 0.045094978 0.014174524 0.0075025656 -0.009046992 0.048896685 0.05716309
0.05153336 0.03342741 0.020047814 0.0054611433 0.00813699 -0.0056344327 0.020006157 0.07053824
0.08792244 0.037172172 -0.07201471 0.0070427735 0.0008038423 0.025478056 0.024739709 0.018957138
-0.025286283 0.028809307 0.003081541 -0.0020324646 0.0030917025 -0.0072621596 0.02329843 0.037342984
-0.037949253 0.052148502 0.040646452 -0.0063961092 -0.0027358169 -0.0008765975 0.045660164 -0.01996993
-0.040158115 0.0022370128 0.010731692 0.04415011 0.02483655 0.01014257 0.010445783 -0.0129718445
-0.053604946 0.0124294385 0.027553987 -0.029978527 -0.015877059 -0.044620927 -0.04291521 0.0019609877
0.10151542 0.026368836 0.037271984 0.00532609 -0.021300957 0.00393095 0.023519212 0.008071582
0.10873525 0.07482838 0.046718143 -0.007480999 0.016013063 -0.024830665 0.025643365 0.041633632
-0.031667814 -0.001972613 0.023653096 0.027386196 -0.0051183947 -0.020936893 0.015135714 0.033722248
0.036190026 -0.034910847 -0.001745247 0.01354818 -0.013801476 -0.017674617 0.01034354 0.008335563
0.06393281 -0.013792658 0.033475783 0.023351055 0.00474895 -0.013520732 -0.002398608 -0.0028339312
0.042147156 0.047325723 -0.008413261 -0.02661664 -0.014781244 0.0048663225 -0.016289383 -0.010027196
0.083922856 0.064258635 0.029086594 0.03961073 -0.013907856 -0.051655345 -0.034277737 -0.09832466
0.058156084 0.033648588 0.004014845 0.06905875 0.03617051 -0.022061761 -0.008175275 -0.0840833
0.0069122724 0.039832693 0.039383776 -0.043871544 0.018137949 0.0070932163 -0.034145053 -0.007023845
0.0029693698 0.036955368 -0.04103579 -0.14054638 0.039832834 -0.0057033836 -0.03298432 -0.060120165
-0.01200403 0.022557275 -0.062654704 -0.005631053 0.021089999 -0.010055726 -0.019655114 -0.079201624
0.00661193 0.025176259 0.030814687 -0.10013818 0.020748341 -0.011191757 0.002260993 0.068772376
-0.03959094 0.036334895 -0.05328416 -0.12336027 0.059446987 -0.05610287 -0.0026740013 0.021584524
-0.05215141 0.03189014 -0.074993975 -0.07167597 0.032864034 0.07329628 0.01600542 0.015949648
-0.022260144 0.012444742 -0.039481495 0.031736493 0.053695347 0.10023759 0.037635174 0.07745537
-0.06346669 0.021097763 -0.027430462 -0.06743864 0.023655532 -0.0650122 0.0023815606 -0.008663885
0.0141299125 -0.028674152 0.0011400353 -0.014796132 -0.030715093 0.006152013 -0.04393372 0.019172756
-0.0072638756 -0.017628467 -0.030353872 -0.02673101 -0.019209767 0.06040275 0.016581716 0.025303945
-0.019189173 -0.064408824 0.050579604 0.026898187 -0.078572795 0.06743626 -0.048916962 -0.048144277
0.03146741 -0.066873334 0.038555365 0.050654564 -0.06413442 -0.030258816 0.041833345 -0.001764638
0.035069074 -0.067930326 -0.039063245 0.024418106 -0.020685775 0.030685056 0.078977756 0.05949869
0.030008541 -0.0042714328 0.029824786 0.030268144 -0.00032987635 0.034881677 -0.0017407723 0.06069925
0.065473154 -0.011077595 0.15896592 0.09002909 -0.032701816 0.073661424 0.031208754 0.06452377
0.05011295 -0.010903876 -0.0035749325 0.055796772 -0.0135339415 -0.039460607 0.03996206 0.01212544

bias f4 [50]
00000000: d176 43bc 70b7 34bb a628 19bd f962 40bd
00000010: 18be c13c b201 fabc 6bfa 7b3c bb3c 0e3d
00000020: 6777 8d3c 8c00 15bd a4a8 d5bc 34b9 90bc
00000030: acbf c2bc 867d bebc fbb0 f73c 4571 4dbc
00000040: f6b8 91bc 2075 abbc 6757 4ebd 937c 98bc
00000050: 62a0 ac3c fefe 983c 25f2 9f3c 8636 92bc
00000060: 8216 4a3b fb99 83bc a191 d73c 59f3 15bc
00000070: 2133 eaba b949 e5bc bee3 fe3c 6a13 9f3c
00000080: 8692 46bd b08b d73b 6bf7 7cbc d762 df3c
00000090: 0716 28bd 642b 1c3d 9270 303d cd9c 89bb
000000a0: 7155 463c 17a2 fc3b 17d7 04bd 4705 70bb
000000b0: 731a e5bc 5e3e 433c 1f35 cdbb 3f69 203c
000000c0: ee08 3c3d 6292 04bd
-0.0119301835 -0.0027575158 -0.03739228 -0.046969388 0.023650214 -0.030518387 0.0153795285 0.034725886
0.01726885 -0.036377475 -0.02608139 -0.017666437 -0.023773037 -0.023253214 0.030235758 -0.012539213
-0.017788392 -0.020929873 -0.050376322 -0.01861409 0.02107257 0.018676277 0.019524643 -0.017848264
0.003083617 -0.016064635 0.026314558 -0.009152257 -0.0017868021 -0.027989255 0.031114455 0.019418437
-0.04847958 0.0065779313 -0.015439848 0.02726881 -0.041036632 0.038127318 0.043076105 -0.0041996003
0.012105332 0.0077097523 -0.03243169 -0.003662424 -0.027966714 0.011916725 -0.006262436 0.009790718
0.045906954 -0.032366164

weight f4 [10, 50]
00000000: a234 663e 2402 953e 348a 2bbe a611 ccbc
00000010: 026c 1a3d 1daf c83d 08b6 dbbe db0b 7fbd
00000020: b42d e53e 0143 1a3d 61fe f23e 21a2 983e
00000030: 658f 2a3d 13b3 b53d 74a7 4e3d afa7 213d
00000040: 6154 973c 2382 443d 89bf e4bd dcaa 653e
00000050: 78e9 40be a832 e5b9 1c5e 4ebd b7c4 b83c
00000060: 3953 833e b0f8 4bbd cb06 79bb e7c7 29bb
00000070: bbfb 1ebe 5e25 c1bd 91ef a0be ead8 993e
00000080: e72a 0b3e bc0c b33e 4f13 f53d 5f6e cebc
00000090: ad25 c9bd cd26 af3c f40e af3e 4d1f f4be
000000a0: 6e15 b0be 63ce f0bd 5e0d 11be ea86 5d3d
000000b0: 2e91 e7bd bdaa a83e 2441 8c3d 626f a63e
000000c0: 0d40 a33e 66f0 c8bd 1308 d5be 9355 6bbe
000000d0: cd8f 933d 3763 df3d 65e8 6abc 232d c7be
000000e0: 3df8 7f3d 4fe7 ae3d 20c3 cfbe 4f9a 393d
000000f0: b164 a4be a471 9cbe d8fb b63d c40e 2abd
00000100: 8d77 5e3c 02e6 9f3d bba8 26be 9b09 e6bd
00000110: bb3b 923c 9453 b2be 943b 8b3d 19ea 033e
00000120: 2d16 fcbc 20f3 b4bd 1e8a 163e e233 e43d
00000130: ab13 c63d 6d81 b83c 82df 49be 1bfe e03c
00000140: bb7e f93e 2591 13be 0f9e b33d e21c e33e
00000150: 95c9 c13d bbfc 96bd 6a97 223e 1338 8fbd
00000160: 903b 78be a3a0 d7be 23c8 9c3e 1b9d 713c
00000170: 10de 17bd be56 4a3e aa27 a93c 3c63 8abe
00000180: 2468 11be 357b babe 99c3 203e 8642 90bd
00000190: ac1a 8dbe f2f0 3fbe 2f82 b03e 2917 bcbc
000001a0: 5c0b f63c 95f3 6bbe 4528 cd3a 0b41 19bc
000001b0: 112d 2a3f c9b5 3e3b 7814 a73e 72ee 68be
000001c0: 8d06 84bd 801e b2bc 1d2e ddbc e282 df3d
000001d0: b0c3 51be 9bf6 af3d af62 37bd e5ca eabe
000001e0: 4d01 683e ea95 ae3d a39c b6bd 3740 41bd
000001f0: 34a0 103e d673 833d b392 73bd 15ce 333b
00000200: d152 603d e21c b23d b7ce a7be 5600 42be
00000210: a89f 153d d090 84be c8be 9d3b 0a57 8e3d
00000220: f051 683c 59b0 9c3d 777e fd3d 38c5 683e
00000230: cc79 c3be b4f4 67bd 668f 27bd 6092 e43d
00000240: 4ba8 49be 6dbf d0be 2f7c 023f 5931 7bbe
00000250: 220f 7abc 1b78 883c 0bf5 03be b7a2 0bbe
00000260: eb71 1fbe 31c5 a0bd 5439 b5bc 5a1f 8c3e
00000270: f2fd 813d d809 babd 9255 9fbd a48e cebd
00000280: 96c7 173e 958c aebe 2b28 cebd 45c9 f53c
00000290: 50e5 da3d a3ff d2bd 579f 59bd 3f2f e7bd
000002a0: ec62 bdbd 50c1 933e 295c bf3d c6ea 6e3d
000002b0: 6f81 ad3d 1ed2 47bd 2bdd 543e dec0 17be
000002c0: 91c4 c93d e9ac 83bd b3fd cfbd dc60 b8bd
000002d0: 1f2e 3dbe 8f99 713d 2ef3 e03c 7be9 c3bd
000002e0: e2f1 78bd 96d8 9f3c 4eb0 a2bd 567f 26bd
000002f0: 8c34 913d 8d23 923e 0616 56be b3c4 9b3c
00000300: c45f 6abc 34c1 efbc 9699 593e 66c0 12be
00000310: 0f10 3ebd 311e 35be 1cfe 18bc f47e 62bc
00000320: 6fc8 95be ef44 453e 70c4 d1bd e442 5b3d
00000330: cc58 cabd b7ee 9abe 535a 84be 2750 afbd
00000340: 7f8d 593e 1d9a 883e d12f e5be aacf 8cbd
00000350: ba6b 803d 7d15 033c 568b a73c f7ae d1bd
00000360: bf2f 7abd ab45 863d 59ce 2d3d fb74 c63e
00000370: a4bc 88be f5c5 fc3d 3b0f bcbd d197 26be
00000380: 592d a7be 0ae4 51be 0354 963d 656d 433c
00000390: be12 16bd f9d7 11be 9d51 2e3e 37ad 12bd
000003a0: 819f 27be 8bec a13e 72cd 02be 71b8 99bd
000003b0: 6220 243e 5ed8 023e 0c33 b33e 4a4a c9bd
000003c0: 706f 8b3e 1b3f b63d 5f34 663d 96b0 d9bd
000003d0: a3f4 99bd 8dde a93e c822 533e 1c15 973d
000003e0: 2bd9 ddbe f5e4 33bd c9a5 903d 7b25 11be
000003f0: daee 93bd 81a6 4abd 68d1 a9bc 26f4 d93e
0.22481015 0.29103196 -0.16751939 -0.02491076 0.03770066 0.09799025 -0.42912316 -0.062267166
0.4476143 0.037661556 0.474597 0.29811195 0.041640658 0.08872046 0.050452664 0.039466556
0.018472852 0.04797567 -0.11169345 0.22428459 -0.18839061 -0.00043716026 -0.05038272 0.022554738
0.2564943 -0.049797714 -0.0037998434 -0.0025906505 -0.15525715 -0.09430955 -0.31432775 0.30048305
0.13590585 0.34970653 0.119665734 -0.025199113 -0.09821639 0.021380806 0.34191096 -0.4768013
-0.3439135 -0.11758115 -0.14165255 0.054083742 -0.11306988 0.32942763 0.06848362 0.32506853
0.31884804 -0.09811477 -0.41607723 -0.22981863 0.07205162 0.109075956 -0.014337634 -0.38901624
0.062492598 0.08540212 -0.40578556 0.045313176 -0.3210807 -0.3055545 0.08934754 -0.041517988
0.013578308 0.078075424 -0.16275303 -0.11232301 0.017850747 -0.3482939 0.06798473 0.1288227
-0.030772293 -0.08835435 0.14701125 0.11142708 0.0967172 0.022522653 -0.19714168 0.027464917
0.487295 -0.14410837 0.08770382 0.44357973 0.09462277 -0.07372423 0.15878072 -0.06993117
-0.24241471 -0.42114744 0.30621442 0.0147469295 -0.03707701 0.19759652 0.020648796 -0.27028835
-0.14199883 -0.36422125 0.15699615 -0.07043938 -0.27559412 -0.18744257 0.34474322 -0.022960262
0.030034713 -0.23042138 0.001565226 -0.009353886 0.66475016 0.0029100052 0.32632804 -0.2274721
-0.06446562 -0.02174306 -0.026999528 0.10913636 -0.20484805 0.08591958 -0.044771846 -0.4585792
0.22656746 0.085246876 -0.08916595 -0.04718038 0.14123613 0.06418578 -0.059466075 0.0027436067
0.05476648 0.08696915 -0.32774898 -0.1894544 0.036529213 -0.25891733 0.0048140027 0.06950195
0.014179692 0.07650823 0.12377637 0.22731483 -0.3817886 -0.05662985 -0.04090824 0.11160731
-0.19693105 -0.40771046 0.5097074 -0.24530543 -0.015262397 0.016658833 -0.12886445 -0.1363629
-0.155708 -0.07850111 -0.022122063 0.2736767 0.06347264 -0.09083909 -0.07779993 -0.100858
0.1482223 -0.3409163 -0.10066255 0.0300032 0.10688269 -0.10302665 -0.053130474 -0.11288308
-0.092473835 0.28858423 0.0934375 0.058329366 0.08471953 -0.048784368 0.20787494 -0.14819667
0.09851945 -0.06429464 -0.10155811 -0.090028495 -0.18474625 0.058984336 0.027459707 -0.09566017
-0.060777552 0.019512456 -0.07943784 -0.04064878 0.07090101 0.28542748 -0.20906839 0.019014692
-0.014305059 -0.029266931 0.21249995 -0.14331207 -0.046402033 -0.17687298 -0.009337928 -0.013824213
-0.2925448 0.19264577 -0.102425456 0.05353059 -0.09880218 -0.3026025 -0.25850162 -0.0856021
0.21245383 0.2668008 -0.44763044 -0.06875546 0.06270547 0.008000729 0.020452183 -0.1023845
-0.06108069 0.06556257 0.042433117 0.38761124 -0.2670642 0.12342445 -0.091825925 -0.16268851
-0.32651785 -0.20497146 0.07340243 0.011927937 -0.036638968 -0.14242543 0.1702332 -0.03580972
-0.1636944 0.3162578 -0.12773684 -0.075058825 0.16027978 0.1277785 0.34999883 -0.09828623
0.27233458 0.08898755 0.05620229 -0.10629384 -0.07517364 0.33177605 0.20618737 0.07377073
-0.4332975 -0.043919522 0.07062871 -0.14174454 -0.07223292 -0.049475197 -0.020729735 0.42569083

bias f4 [10]
00000000: cb23 48bd f390 6abb 6132 f4bd c5b9 f83b
00000010: 1050 e0ba bfc0 34bd 5db8 8b3d 5852 41bd
00000020: 78a1 fdbd 0ca1 f83c
-0.04886226 -0.0035791963 -0.119236715 0.007590505 -0.0017113704 -0.04412913 0.06822274 -0.04719767
-0.12384313 0.03035023
